…
snapshot: 0
snapshot_prefix: "vgg16_rpn"
average_loss: 100
I1109 11:34:36.203337 30407 solver.cpp:81] Creating training net from train_net file: models/pascal_voc/VGG16/faster_rcnn_alt_opt/stage1_rpn_train.pt
I1109 11:34:36.204007 30407 net.cpp:49] Initializing net from parameters: 
name: "VGG_ILSVRC_16_layers"
state {
  phase: TRAIN
}
layer {
  name: "input-data"
  type: "Python"
  top: "data"
  top: "im_info"
  top: "gt_boxes"
  python_param {
    module: "roi_data_layer.layer"
    layer: "RoIDataLayer"
    param_str: "\'num_classes\': 2"
  }
}
layer {
  name: "conv1_1"
  type: "Convolution"
  bottom: "data"
  top: "conv1_1"
  param {
    lr_mult: 0
    decay_mult: 0
  }
  param {
    lr_mult: 0
    decay_mult: 0
  }
  convolution_param {
    num_output: 64
    pad: 1
    kernel_size: 3
  }
}
layer {
  name: "relu1_1"
  type: "ReLU"
  bottom: "conv1_1"
  top: "conv1_1"
}
layer {
  name: "conv1_2"
  type: "Convolution"
  bottom: "conv1_1"
  top: "conv1_2"
  param {
    lr_mult: 0
    decay_mult: 0
  }
  param {
    lr_mult: 0
    decay_mult: 0
  }
  convolution_param {
    num_output: 64
    pad: 1
    kernel_size: 3
  }
}
layer {
  name: "relu1_2"
  type: "ReLU"
  bottom: "conv1_2"
  top: "conv1_2"
}
layer {
  name: "pool1"
  type: "Pooling"
  bottom: "conv1_2"
  top: "pool1"
  pooling_param {
    pool: MAX
    kernel_size: 2
    stride: 2
  }
}
layer {
  name: "conv2_1"
  type: "Convolution"
  bottom: "pool1"
  top: "conv2_1"
  param {
    lr_mult: 0
    decay_mult: 0
  }
  param {
    lr_mult: 0
    decay_mult: 0
  }
  convolution_param {
    num_output: 128
    pad: 1
    kernel_size: 3
  }
}
layer {
  name: "relu2_1"
  type: "ReLU"
  bottom: "conv2_1"
  top: "conv2_1"
}
layer {
  name: "conv2_2"
  type: "Convolution"
  bottom: "conv2_1"
  top: "conv2_2"
  param {
    lr_mult: 0
    decay_mult: 0
  }
  param {
    lr_mult: 0
    decay_mult: 0
  }
  convolution_param {
    num_output: 128
    pad: 1
    kernel_size: 3
  }
}
layer {
  name: "relu2_2"
  type: "ReLU"
  bottom: "conv2_2"
  top: "conv2_2"
}
layer {
  name: "pool2"
  type: "Pooling"
  bottom: "conv2_2"
  top: "pool2"
  pooling_param {
    pool: MAX
    kernel_size: 2
    stride: 2
  }
}
layer {
  name: "conv3_1"
  type: "Convolution"
  bottom: "pool2"
  top: "conv3_1"
  param {
    lr_mult: 1
  }
  param {
    lr_mult: 2
  }
  convolution_param {
    num_output: 256
    pad: 1
    kernel_size: 3
  }
}
layer {
  name: "relu3_1"
  type: "ReLU"
  bottom: "conv3_1"
  top: "conv3_1"
}
layer {
  name: "conv3_2"
  type: "Convolution"
  bottom: "conv3_1"
  top: "conv3_2"
  param {
    lr_mult: 1
  }
  param {
    lr_mult: 2
  }
  convolution_param {
    num_output: 256
    pad: 1
    kernel_size: 3
  }
}
layer {
  name: "relu3_2"
  type: "ReLU"
  bottom: "conv3_2"
  top: "conv3_2"
}
layer {
  name: "conv3_3"
  type: "Convolution"
  bottom: "conv3_2"
  top: "conv3_3"
  param {
    lr_mult: 1
  }
  param {
    lr_mult: 2
  }
  convolution_param {
    num_output: 256
    pad: 1
    kernel_size: 3
  }
}
layer {
  name: "relu3_3"
  type: "ReLU"
  bottom: "conv3_3"
  top: "conv3_3"
}
layer {
  name: "pool3"
  type: "Pooling"
  bottom: "conv3_3"
  top: "pool3"
  pooling_param {
    pool: MAX
    kernel_size: 2
    stride: 2
  }
}
layer {
  name: "conv4_1"
  type: "Convolution"
  bottom: "pool3"
  top: "conv4_1"
  param {
    lr_mult: 1
  }
  param {
    lr_mult: 2
  }
  convolution_param {
    num_output: 512
    pad: 1
    kernel_size: 3
  }
}
layer {
  name: "relu4_1"
  type: "ReLU"
  bottom: "conv4_1"
  top: "conv4_1"
}
layer {
  name: "conv4_2"
  type: "Convolution"
  bottom: "conv4_1"
  top: "conv4_2"
  param {
    lr_mult: 1
  }
  param {
    lr_mult: 2
  }
  convolution_param {
    num_output: 512
    pad: 1
    kernel_size: 3
  }
}
layer {
  name: "relu4_2"
  type: "ReLU"
  bottom: "conv4_2"
  top: "conv4_2"
}
layer {
  name: "conv4_3"
  type: "Convolution"
  bottom: "conv4_2"
  top: "conv4_3"
  param {
    lr_mult: 1
  }
  param {
    lr_mult: 2
  }
  convolution_param {
    num_output: 512
    pad: 1
    kernel_size: 3
  }
}
layer {
  name: "relu4_3"
  type: "ReLU"
  bottom: "conv4_3"
  top: "conv4_3"
}
layer {
  name: "pool4"
  type: "Pooling"
  bottom: "conv4_3"
  top: "pool4"
  pooling_param {
    pool: MAX
    kernel_size: 2
    stride: 2
  }
}
layer {
  name: "conv5_1"
  type: "Convolution"
  bottom: "pool4"
  top: "conv5_1"
  param {
    lr_mult: 1
  }
  param {
    lr_mult: 2
  }
  convolution_param {
    num_output: 512
    pad: 1
    kernel_size: 3
  }
}
layer {
  name: "relu5_1"
  type: "ReLU"
  bottom: "conv5_1"
  top: "conv5_1"
}
layer {
  name: "conv5_2"
  type: "Convolution"
  bottom: "conv5_1"
  top: "conv5_2"
  param {
    lr_mult: 1
  }
  param {
    lr_mult: 2
  }
  convolution_param {
    num_output: 512
    pad: 1
    kernel_size: 3
  }
}
layer {
  name: "relu5_2"
  type: "ReLU"
  bottom: "conv5_2"
  top: "conv5_2"
}
layer {
  name: "conv5_3"
  type: "Convolution"
  bottom: "conv5_2"
  top: "conv5_3"
  param {
    lr_mult: 1
  }
  param {
    lr_mult: 2
  }
  convolution_param {
    num_output: 512
    pad: 1
    kernel_size: 3
  }
}
layer {
  name: "relu5_3"
  type: "ReLU"
  bottom: "conv5_3"
  top: "conv5_3"
}
layer {
  name: "rpn_conv/3x3"
  type: "Convolution"
  bottom: "conv5_3"
  top: "rpn/output"
  param {
    lr_mult: 1
  }
  param {
    lr_mult: 2
  }
  convolution_param {
    num_output: 512
    pad: 1
    kernel_size: 3
    stride: 1
    weight_filler {
      type: "gaussian"
      std: 0.01
    }
    bias_filler {
      type: "constant"
      value: 0
    }
  }
}
layer {
  name: "rpn_relu/3x3"
  type: "ReLU"
  bottom: "rpn/output"
  top: "rpn/output"
}
layer {
  name: "rpn_cls_score"
  type: "Convolution"
  bottom: "rpn/output"
  top: "rpn_cls_score"
  param {
    lr_mult: 1
  }
  param {
    lr_mult: 2
  }
  convolution_param {
    num_output: 18
    pad: 0
    kernel_size: 1
    stride: 1
    weight_filler {
      type: "gaussian"
      std: 0.01
    }
    bias_filler {
      type: "constant"
      value: 0
    }
  }
}
layer {
  name: "rpn_bbox_pred"
  type: "Convolution"
  bottom: "rpn/output"
  top: "rpn_bbox_pred"
  param {
    lr_mult: 1
  }
  param {
    lr_mult: 2
  }
  convolution_param {
    num_output: 36
    pad: 0
    kernel_size: 1
    stride: 1
    weight_filler {
      type: "gaussian"
      std: 0.01
    }
    bias_filler {
      type: "constant"
      value: 0
    }
  }
}
layer {
  name: "rpn_cls_score_reshape"
  type: "Reshape"
  bottom: "rpn_cls_score"
  top: "rpn_cls_score_reshape"
  reshape_param {
    shape {
      dim: 0
      dim: 2
      dim: -1
      dim: 0
    }
  }
}
layer {
  name: "rpn-data"
  type: "Python"
  bottom: "rpn_cls_score"
  bottom: "gt_boxes"
  bottom: "im_info"
  bottom: "data"
  top: "rpn_labels"
  top: "rpn_bbox_targets"
  top: "rpn_bbox_inside_weights"
  top: "rpn_bbox_outside_weights"
  python_param {
    module: "rpn.anchor_target_layer"
    layer: "AnchorTargetLayer"
    param_str: "\'feat_stride\': 16"
  }
}
layer {
  name: "rpn_loss_cls"
  type: "SoftmaxWithLoss"
  bottom: "rpn_cls_score_reshape"
  bottom: "rpn_labels"
  top: "rpn_cls_loss"
  loss_weight: 1
  propagate_down: true
  propagate_down: false
  loss_param {
    ignore_label: -1
    normalize: true
  }
}
layer {
  name: "rpn_loss_bbox"
  type: "SmoothL1Loss"
  bottom: "rpn_bbox_pred"
  bottom: "rpn_bbox_targets"
  bottom: "rpn_bbox_inside_weights"
  bottom: "rpn_bbox_outside_weights"
  top: "rpn_loss_bbox"
  loss_weight: 1
  smooth_l1_loss_param {
    sigma: 3
  }
}
layer {
  name: "dummy_roi_pool_conv5"
  type: "DummyData"
  top: "dummy_roi_pool_conv5"
  dummy_data_param {
    data_filler {
      type: "constant"
      value: 0
    }
    shape {
      dim: 1
      dim: 25088
    }
  }
}
layer {
  name: "fc6"
  type: "InnerProduct"
  bottom: "dummy_roi_pool_conv5"
  top: "fc6"
  param {
    lr_mult: 0
    decay_mult: 0
  }
  param {
    lr_mult: 0
    decay_mult: 0
  }
  inner_product_param {
    num_output: 4096
  }
}
layer {
  name: "relu6"
  type: "ReLU"
  bottom: "fc6"
  top: "fc6"
}
layer {
  name: "drop6"
  type: "Dropout"
  bottom: "fc6"
  top: "fc6"
  dropout_param {
    dropout_ratio: 0.5
  }
}
layer {
  name: "fc7"
  type: "InnerProduct"
  bottom: "fc6"
  top: "fc7"
  param {
    lr_mult: 0
    decay_mult: 0
  }
  param {
    lr_mult: 0
    decay_mult: 0
  }
  inner_product_param {
    num_output: 4096
  }
}
layer {
  name: "silence_fc7"
  type: "Silence"
  bottom: "fc7"
}
I1109 11:34:36.204134 30407 layer_factory.hpp:77] Creating layer input-data
I1109 11:34:36.204464 30407 net.cpp:106] Creating Layer input-data
I1109 11:34:36.204473 30407 net.cpp:411] input-data -> data
I1109 11:34:36.204483 30407 net.cpp:411] input-data -> im_info
I1109 11:34:36.204488 30407 net.cpp:411] input-data -> gt_boxes
RoiDataLayer: name_to_top: {'gt_boxes': 2, 'data': 0, 'im_info': 1}
I1109 11:34:36.212236 30407 net.cpp:150] Setting up input-data
I1109 11:34:36.212266 30407 net.cpp:157] Top shape: 1 3 600 1000 (1800000)
I1109 11:34:36.212270 30407 net.cpp:157] Top shape: 1 3 (3)
I1109 11:34:36.212272 30407 net.cpp:157] Top shape: 1 4 (4)
I1109 11:34:36.212275 30407 net.cpp:165] Memory required for data: 7200028
I1109 11:34:36.212280 30407 layer_factory.hpp:77] Creating layer data_input-data_0_split
I1109 11:34:36.212301 30407 net.cpp:106] Creating Layer data_input-data_0_split
I1109 11:34:36.212306 30407 net.cpp:454] data_input-data_0_split <- data
I1109 11:34:36.212324 30407 net.cpp:411] data_input-data_0_split -> data_input-data_0_split_0
I1109 11:34:36.212330 30407 net.cpp:411] data_input-data_0_split -> data_input-data_0_split_1
I1109 11:34:36.212393 30407 net.cpp:150] Setting up data_input-data_0_split
I1109 11:34:36.212396 30407 net.cpp:157] Top shape: 1 3 600 1000 (1800000)
I1109 11:34:36.212399 30407 net.cpp:157] Top shape: 1 3 600 1000 (1800000)
I1109 11:34:36.212401 30407 net.cpp:165] Memory required for data: 21600028
I1109 11:34:36.212404 30407 layer_factory.hpp:77] Creating layer conv1_1
I1109 11:34:36.212410 30407 net.cpp:106] Creating Layer conv1_1
I1109 11:34:36.212414 30407 net.cpp:454] conv1_1 <- data_input-data_0_split_0
I1109 11:34:36.212417 30407 net.cpp:411] conv1_1 -> conv1_1
I1109 11:34:36.384085 30407 net.cpp:150] Setting up conv1_1
I1109 11:34:36.384120 30407 net.cpp:157] Top shape: 1 64 600 1000 (38400000)
I1109 11:34:36.384124 30407 net.cpp:165] Memory required for data: 175200028
I1109 11:34:36.384135 30407 layer_factory.hpp:77] Creating layer relu1_1
I1109 11:34:36.384145 30407 net.cpp:106] Creating Layer relu1_1
I1109 11:34:36.384148 30407 net.cpp:454] relu1_1 <- conv1_1
I1109 11:34:36.384153 30407 net.cpp:397] relu1_1 -> conv1_1 (in-place)
I1109 11:34:36.384276 30407 net.cpp:150] Setting up relu1_1
I1109 11:34:36.384282 30407 net.cpp:157] Top shape: 1 64 600 1000 (38400000)
I1109 11:34:36.384299 30407 net.cpp:165] Memory required for data: 328800028
I1109 11:34:36.384301 30407 layer_factory.hpp:77] Creating layer conv1_2
I1109 11:34:36.384307 30407 net.cpp:106] Creating Layer conv1_2
I1109 11:34:36.384310 30407 net.cpp:454] conv1_2 <- conv1_1
I1109 11:34:36.384313 30407 net.cpp:411] conv1_2 -> conv1_2
I1109 11:34:36.386939 30407 net.cpp:150] Setting up conv1_2
I1109 11:34:36.386955 30407 net.cpp:157] Top shape: 1 64 600 1000 (38400000)
I1109 11:34:36.386957 30407 net.cpp:165] Memory required for data: 482400028
I1109 11:34:36.386965 30407 layer_factory.hpp:77] Creating layer relu1_2
I1109 11:34:36.386984 30407 net.cpp:106] Creating Layer relu1_2
I1109 11:34:36.386988 30407 net.cpp:454] relu1_2 <- conv1_2
I1109 11:34:36.386991 30407 net.cpp:397] relu1_2 -> conv1_2 (in-place)
I1109 11:34:36.387565 30407 net.cpp:150] Setting up relu1_2
I1109 11:34:36.387573 30407 net.cpp:157] Top shape: 1 64 600 1000 (38400000)
I1109 11:34:36.387575 30407 net.cpp:165] Memory required for data: 636000028
I1109 11:34:36.387578 30407 layer_factory.hpp:77] Creating layer pool1
I1109 11:34:36.387583 30407 net.cpp:106] Creating Layer pool1
I1109 11:34:36.387584 30407 net.cpp:454] pool1 <- conv1_2
I1109 11:34:36.387588 30407 net.cpp:411] pool1 -> pool1
I1109 11:34:36.387646 30407 net.cpp:150] Setting up pool1
I1109 11:34:36.387663 30407 net.cpp:157] Top shape: 1 64 300 500 (9600000)
I1109 11:34:36.387665 30407 net.cpp:165] Memory required for data: 674400028
I1109 11:34:36.387667 30407 layer_factory.hpp:77] Creating layer conv2_1
I1109 11:34:36.387672 30407 net.cpp:106] Creating Layer conv2_1
I1109 11:34:36.387675 30407 net.cpp:454] conv2_1 <- pool1
I1109 11:34:36.387677 30407 net.cpp:411] conv2_1 -> conv2_1
I1109 11:34:36.389387 30407 net.cpp:150] Setting up conv2_1
I1109 11:34:36.389395 30407 net.cpp:157] Top shape: 1 128 300 500 (19200000)
I1109 11:34:36.389398 30407 net.cpp:165] Memory required for data: 751200028
I1109 11:34:36.389403 30407 layer_factory.hpp:77] Creating layer relu2_1
I1109 11:34:36.389408 30407 net.cpp:106] Creating Layer relu2_1
I1109 11:34:36.389410 30407 net.cpp:454] relu2_1 <- conv2_1
I1109 11:34:36.389413 30407 net.cpp:397] relu2_1 -> conv2_1 (in-place)
I1109 11:34:36.389948 30407 net.cpp:150] Setting up relu2_1
I1109 11:34:36.389956 30407 net.cpp:157] Top shape: 1 128 300 500 (19200000)
I1109 11:34:36.389958 30407 net.cpp:165] Memory required for data: 828000028
I1109 11:34:36.389961 30407 layer_factory.hpp:77] Creating layer conv2_2
I1109 11:34:36.389966 30407 net.cpp:106] Creating Layer conv2_2
I1109 11:34:36.389967 30407 net.cpp:454] conv2_2 <- conv2_1
I1109 11:34:36.389986 30407 net.cpp:411] conv2_2 -> conv2_2
I1109 11:34:36.391552 30407 net.cpp:150] Setting up conv2_2
I1109 11:34:36.391561 30407 net.cpp:157] Top shape: 1 128 300 500 (19200000)
I1109 11:34:36.391564 30407 net.cpp:165] Memory required for data: 904800028
I1109 11:34:36.391568 30407 layer_factory.hpp:77] Creating layer relu2_2
I1109 11:34:36.391572 30407 net.cpp:106] Creating Layer relu2_2
I1109 11:34:36.391575 30407 net.cpp:454] relu2_2 <- conv2_2
I1109 11:34:36.391578 30407 net.cpp:397] relu2_2 -> conv2_2 (in-place)
I1109 11:34:36.391721 30407 net.cpp:150] Setting up relu2_2
I1109 11:34:36.391726 30407 net.cpp:157] Top shape: 1 128 300 500 (19200000)
I1109 11:34:36.391727 30407 net.cpp:165] Memory required for data: 981600028
I1109 11:34:36.391729 30407 layer_factory.hpp:77] Creating layer pool2
I1109 11:34:36.391733 30407 net.cpp:106] Creating Layer pool2
I1109 11:34:36.391736 30407 net.cpp:454] pool2 <- conv2_2
I1109 11:34:36.391738 30407 net.cpp:411] pool2 -> pool2
I1109 11:34:36.391791 30407 net.cpp:150] Setting up pool2
I1109 11:34:36.391808 30407 net.cpp:157] Top shape: 1 128 150 250 (4800000)
I1109 11:34:36.391810 30407 net.cpp:165] Memory required for data: 1000800028
I1109 11:34:36.391813 30407 layer_factory.hpp:77] Creating layer conv3_1
I1109 11:34:36.391831 30407 net.cpp:106] Creating Layer conv3_1
I1109 11:34:36.391834 30407 net.cpp:454] conv3_1 <- pool2
I1109 11:34:36.391836 30407 net.cpp:411] conv3_1 -> conv3_1
I1109 11:34:36.394119 30407 net.cpp:150] Setting up conv3_1
I1109 11:34:36.394143 30407 net.cpp:157] Top shape: 1 256 150 250 (9600000)
I1109 11:34:36.394146 30407 net.cpp:165] Memory required for data: 1039200028
I1109 11:34:36.394153 30407 layer_factory.hpp:77] Creating layer relu3_1
I1109 11:34:36.394157 30407 net.cpp:106] Creating Layer relu3_1
I1109 11:34:36.394160 30407 net.cpp:454] relu3_1 <- conv3_1
I1109 11:34:36.394163 30407 net.cpp:397] relu3_1 -> conv3_1 (in-place)
I1109 11:34:36.394282 30407 net.cpp:150] Setting up relu3_1
I1109 11:34:36.394289 30407 net.cpp:157] Top shape: 1 256 150 250 (9600000)
I1109 11:34:36.394309 30407 net.cpp:165] Memory required for data: 1077600028
I1109 11:34:36.394312 30407 layer_factory.hpp:77] Creating layer conv3_2
I1109 11:34:36.394318 30407 net.cpp:106] Creating Layer conv3_2
I1109 11:34:36.394320 30407 net.cpp:454] conv3_2 <- conv3_1
I1109 11:34:36.394323 30407 net.cpp:411] conv3_2 -> conv3_2
I1109 11:34:36.396894 30407 net.cpp:150] Setting up conv3_2
I1109 11:34:36.396908 30407 net.cpp:157] Top shape: 1 256 150 250 (9600000)
I1109 11:34:36.396910 30407 net.cpp:165] Memory required for data: 1116000028
I1109 11:34:36.396916 30407 layer_factory.hpp:77] Creating layer relu3_2
I1109 11:34:36.396922 30407 net.cpp:106] Creating Layer relu3_2
I1109 11:34:36.396925 30407 net.cpp:454] relu3_2 <- conv3_2
I1109 11:34:36.396944 30407 net.cpp:397] relu3_2 -> conv3_2 (in-place)
I1109 11:34:36.397055 30407 net.cpp:150] Setting up relu3_2
I1109 11:34:36.397061 30407 net.cpp:157] Top shape: 1 256 150 250 (9600000)
I1109 11:34:36.397063 30407 net.cpp:165] Memory required for data: 1154400028
I1109 11:34:36.397065 30407 layer_factory.hpp:77] Creating layer conv3_3
I1109 11:34:36.397073 30407 net.cpp:106] Creating Layer conv3_3
I1109 11:34:36.397075 30407 net.cpp:454] conv3_3 <- conv3_2
I1109 11:34:36.397079 30407 net.cpp:411] conv3_3 -> conv3_3
I1109 11:34:36.399749 30407 net.cpp:150] Setting up conv3_3
I1109 11:34:36.399770 30407 net.cpp:157] Top shape: 1 256 150 250 (9600000)
I1109 11:34:36.399773 30407 net.cpp:165] Memory required for data: 1192800028
I1109 11:34:36.399781 30407 layer_factory.hpp:77] Creating layer relu3_3
I1109 11:34:36.399791 30407 net.cpp:106] Creating Layer relu3_3
I1109 11:34:36.399793 30407 net.cpp:454] relu3_3 <- conv3_3
I1109 11:34:36.399798 30407 net.cpp:397] relu3_3 -> conv3_3 (in-place)
I1109 11:34:36.399922 30407 net.cpp:150] Setting up relu3_3
I1109 11:34:36.399929 30407 net.cpp:157] Top shape: 1 256 150 250 (9600000)
I1109 11:34:36.399930 30407 net.cpp:165] Memory required for data: 1231200028
I1109 11:34:36.399932 30407 layer_factory.hpp:77] Creating layer pool3
I1109 11:34:36.399937 30407 net.cpp:106] Creating Layer pool3
I1109 11:34:36.399940 30407 net.cpp:454] pool3 <- conv3_3
I1109 11:34:36.399943 30407 net.cpp:411] pool3 -> pool3
I1109 11:34:36.399988 30407 net.cpp:150] Setting up pool3
I1109 11:34:36.399992 30407 net.cpp:157] Top shape: 1 256 75 125 (2400000)
I1109 11:34:36.399994 30407 net.cpp:165] Memory required for data: 1240800028
I1109 11:34:36.399996 30407 layer_factory.hpp:77] Creating layer conv4_1
I1109 11:34:36.400002 30407 net.cpp:106] Creating Layer conv4_1
I1109 11:34:36.400005 30407 net.cpp:454] conv4_1 <- pool3
I1109 11:34:36.400008 30407 net.cpp:411] conv4_1 -> conv4_1
I1109 11:34:36.404440 30407 net.cpp:150] Setting up conv4_1
I1109 11:34:36.404458 30407 net.cpp:157] Top shape: 1 512 75 125 (4800000)
I1109 11:34:36.404460 30407 net.cpp:165] Memory required for data: 1260000028
I1109 11:34:36.404467 30407 layer_factory.hpp:77] Creating layer relu4_1
I1109 11:34:36.404475 30407 net.cpp:106] Creating Layer relu4_1
I1109 11:34:36.404479 30407 net.cpp:454] relu4_1 <- conv4_1
I1109 11:34:36.404484 30407 net.cpp:397] relu4_1 -> conv4_1 (in-place)
I1109 11:34:36.405038 30407 net.cpp:150] Setting up relu4_1
I1109 11:34:36.405046 30407 net.cpp:157] Top shape: 1 512 75 125 (4800000)
I1109 11:34:36.405048 30407 net.cpp:165] Memory required for data: 1279200028
I1109 11:34:36.405051 30407 layer_factory.hpp:77] Creating layer conv4_2
I1109 11:34:36.405058 30407 net.cpp:106] Creating Layer conv4_2
I1109 11:34:36.405076 30407 net.cpp:454] conv4_2 <- conv4_1
I1109 11:34:36.405079 30407 net.cpp:411] conv4_2 -> conv4_2
I1109 11:34:36.409087 30407 net.cpp:150] Setting up conv4_2
I1109 11:34:36.409106 30407 net.cpp:157] Top shape: 1 512 75 125 (4800000)
I1109 11:34:36.409108 30407 net.cpp:165] Memory required for data: 1298400028
I1109 11:34:36.409116 30407 layer_factory.hpp:77] Creating layer relu4_2
I1109 11:34:36.409122 30407 net.cpp:106] Creating Layer relu4_2
I1109 11:34:36.409126 30407 net.cpp:454] relu4_2 <- conv4_2
I1109 11:34:36.409129 30407 net.cpp:397] relu4_2 -> conv4_2 (in-place)
I1109 11:34:36.409723 30407 net.cpp:150] Setting up relu4_2
I1109 11:34:36.409730 30407 net.cpp:157] Top shape: 1 512 75 125 (4800000)
I1109 11:34:36.409732 30407 net.cpp:165] Memory required for data: 1317600028
I1109 11:34:36.409735 30407 layer_factory.hpp:77] Creating layer conv4_3
I1109 11:34:36.409740 30407 net.cpp:106] Creating Layer conv4_3
I1109 11:34:36.409744 30407 net.cpp:454] conv4_3 <- conv4_2
I1109 11:34:36.409746 30407 net.cpp:411] conv4_3 -> conv4_3
I1109 11:34:36.414610 30407 net.cpp:150] Setting up conv4_3
I1109 11:34:36.414628 30407 net.cpp:157] Top shape: 1 512 75 125 (4800000)
I1109 11:34:36.414630 30407 net.cpp:165] Memory required for data: 1336800028
I1109 11:34:36.414638 30407 layer_factory.hpp:77] Creating layer relu4_3
I1109 11:34:36.414644 30407 net.cpp:106] Creating Layer relu4_3
I1109 11:34:36.414646 30407 net.cpp:454] relu4_3 <- conv4_3
I1109 11:34:36.414649 30407 net.cpp:397] relu4_3 -> conv4_3 (in-place)
I1109 11:34:36.414779 30407 net.cpp:150] Setting up relu4_3
I1109 11:34:36.414785 30407 net.cpp:157] Top shape: 1 512 75 125 (4800000)
I1109 11:34:36.414788 30407 net.cpp:165] Memory required for data: 1356000028
I1109 11:34:36.414804 30407 layer_factory.hpp:77] Creating layer pool4
I1109 11:34:36.414809 30407 net.cpp:106] Creating Layer pool4
I1109 11:34:36.414813 30407 net.cpp:454] pool4 <- conv4_3
I1109 11:34:36.414815 30407 net.cpp:411] pool4 -> pool4
I1109 11:34:36.414865 30407 net.cpp:150] Setting up pool4
I1109 11:34:36.414868 30407 net.cpp:157] Top shape: 1 512 38 63 (1225728)
I1109 11:34:36.414870 30407 net.cpp:165] Memory required for data: 1360902940
I1109 11:34:36.414872 30407 layer_factory.hpp:77] Creating layer conv5_1
I1109 11:34:36.414877 30407 net.cpp:106] Creating Layer conv5_1
I1109 11:34:36.414880 30407 net.cpp:454] conv5_1 <- pool4
I1109 11:34:36.414882 30407 net.cpp:411] conv5_1 -> conv5_1
I1109 11:34:36.418921 30407 net.cpp:150] Setting up conv5_1
I1109 11:34:36.418938 30407 net.cpp:157] Top shape: 1 512 38 63 (1225728)
I1109 11:34:36.418941 30407 net.cpp:165] Memory required for data: 1365805852
I1109 11:34:36.418947 30407 layer_factory.hpp:77] Creating layer relu5_1
I1109 11:34:36.418952 30407 net.cpp:106] Creating Layer relu5_1
I1109 11:34:36.418956 30407 net.cpp:454] relu5_1 <- conv5_1
I1109 11:34:36.418959 30407 net.cpp:397] relu5_1 -> conv5_1 (in-place)
I1109 11:34:36.419064 30407 net.cpp:150] Setting up relu5_1
I1109 11:34:36.419068 30407 net.cpp:157] Top shape: 1 512 38 63 (1225728)
I1109 11:34:36.419070 30407 net.cpp:165] Memory required for data: 1370708764
I1109 11:34:36.419072 30407 layer_factory.hpp:77] Creating layer conv5_2
I1109 11:34:36.419077 30407 net.cpp:106] Creating Layer conv5_2
I1109 11:34:36.419080 30407 net.cpp:454] conv5_2 <- conv5_1
I1109 11:34:36.419082 30407 net.cpp:411] conv5_2 -> conv5_2
I1109 11:34:36.423385 30407 net.cpp:150] Setting up conv5_2
I1109 11:34:36.423403 30407 net.cpp:157] Top shape: 1 512 38 63 (1225728)
I1109 11:34:36.423405 30407 net.cpp:165] Memory required for data: 1375611676
I1109 11:34:36.423410 30407 layer_factory.hpp:77] Creating layer relu5_2
I1109 11:34:36.423416 30407 net.cpp:106] Creating Layer relu5_2
I1109 11:34:36.423420 30407 net.cpp:454] relu5_2 <- conv5_2
I1109 11:34:36.423424 30407 net.cpp:397] relu5_2 -> conv5_2 (in-place)
I1109 11:34:36.423558 30407 net.cpp:150] Setting up relu5_2
I1109 11:34:36.423564 30407 net.cpp:157] Top shape: 1 512 38 63 (1225728)
I1109 11:34:36.423581 30407 net.cpp:165] Memory required for data: 1380514588
I1109 11:34:36.423583 30407 layer_factory.hpp:77] Creating layer conv5_3
I1109 11:34:36.423588 30407 net.cpp:106] Creating Layer conv5_3
I1109 11:34:36.423591 30407 net.cpp:454] conv5_3 <- conv5_2
I1109 11:34:36.423594 30407 net.cpp:411] conv5_3 -> conv5_3
I1109 11:34:36.428213 30407 net.cpp:150] Setting up conv5_3
I1109 11:34:36.428246 30407 net.cpp:157] Top shape: 1 512 38 63 (1225728)
I1109 11:34:36.428248 30407 net.cpp:165] Memory required for data: 1385417500
I1109 11:34:36.428256 30407 layer_factory.hpp:77] Creating layer relu5_3
I1109 11:34:36.428261 30407 net.cpp:106] Creating Layer relu5_3
I1109 11:34:36.428266 30407 net.cpp:454] relu5_3 <- conv5_3
I1109 11:34:36.428269 30407 net.cpp:397] relu5_3 -> conv5_3 (in-place)
I1109 11:34:36.428388 30407 net.cpp:150] Setting up relu5_3
I1109 11:34:36.428393 30407 net.cpp:157] Top shape: 1 512 38 63 (1225728)
I1109 11:34:36.428411 30407 net.cpp:165] Memory required for data: 1390320412
I1109 11:34:36.428412 30407 layer_factory.hpp:77] Creating layer rpn_conv/3x3
I1109 11:34:36.428421 30407 net.cpp:106] Creating Layer rpn_conv/3x3
I1109 11:34:36.428422 30407 net.cpp:454] rpn_conv/3x3 <- conv5_3
I1109 11:34:36.428426 30407 net.cpp:411] rpn_conv/3x3 -> rpn/output
I1109 11:34:36.479882 30407 net.cpp:150] Setting up rpn_conv/3x3
I1109 11:34:36.479903 30407 net.cpp:157] Top shape: 1 512 38 63 (1225728)
I1109 11:34:36.479907 30407 net.cpp:165] Memory required for data: 1395223324
I1109 11:34:36.479913 30407 layer_factory.hpp:77] Creating layer rpn_relu/3x3
I1109 11:34:36.479921 30407 net.cpp:106] Creating Layer rpn_relu/3x3
I1109 11:34:36.479926 30407 net.cpp:454] rpn_relu/3x3 <- rpn/output
I1109 11:34:36.479930 30407 net.cpp:397] rpn_relu/3x3 -> rpn/output (in-place)
I1109 11:34:36.480551 30407 net.cpp:150] Setting up rpn_relu/3x3
I1109 11:34:36.480559 30407 net.cpp:157] Top shape: 1 512 38 63 (1225728)
I1109 11:34:36.480576 30407 net.cpp:165] Memory required for data: 1400126236
I1109 11:34:36.480579 30407 layer_factory.hpp:77] Creating layer rpn/output_rpn_relu/3x3_0_split
I1109 11:34:36.480583 30407 net.cpp:106] Creating Layer rpn/output_rpn_relu/3x3_0_split
I1109 11:34:36.480585 30407 net.cpp:454] rpn/output_rpn_relu/3x3_0_split <- rpn/output
I1109 11:34:36.480589 30407 net.cpp:411] rpn/output_rpn_relu/3x3_0_split -> rpn/output_rpn_relu/3x3_0_split_0
I1109 11:34:36.480593 30407 net.cpp:411] rpn/output_rpn_relu/3x3_0_split -> rpn/output_rpn_relu/3x3_0_split_1
I1109 11:34:36.480648 30407 net.cpp:150] Setting up rpn/output_rpn_relu/3x3_0_split
I1109 11:34:36.480653 30407 net.cpp:157] Top shape: 1 512 38 63 (1225728)
I1109 11:34:36.480670 30407 net.cpp:157] Top shape: 1 512 38 63 (1225728)
I1109 11:34:36.480672 30407 net.cpp:165] Memory required for data: 1409932060
I1109 11:34:36.480674 30407 layer_factory.hpp:77] Creating layer rpn_cls_score
I1109 11:34:36.480680 30407 net.cpp:106] Creating Layer rpn_cls_score
I1109 11:34:36.480684 30407 net.cpp:454] rpn_cls_score <- rpn/output_rpn_relu/3x3_0_split_0
I1109 11:34:36.480686 30407 net.cpp:411] rpn_cls_score -> rpn_cls_score
I1109 11:34:36.481964 30407 net.cpp:150] Setting up rpn_cls_score
I1109 11:34:36.481973 30407 net.cpp:157] Top shape: 1 18 38 63 (43092)
I1109 11:34:36.481990 30407 net.cpp:165] Memory required for data: 1410104428
I1109 11:34:36.481995 30407 layer_factory.hpp:77] Creating layer rpn_cls_score_rpn_cls_score_0_split
I1109 11:34:36.481998 30407 net.cpp:106] Creating Layer rpn_cls_score_rpn_cls_score_0_split
I1109 11:34:36.482002 30407 net.cpp:454] rpn_cls_score_rpn_cls_score_0_split <- rpn_cls_score
I1109 11:34:36.482004 30407 net.cpp:411] rpn_cls_score_rpn_cls_score_0_split -> rpn_cls_score_rpn_cls_score_0_split_0
I1109 11:34:36.482008 30407 net.cpp:411] rpn_cls_score_rpn_cls_score_0_split -> rpn_cls_score_rpn_cls_score_0_split_1
I1109 11:34:36.482043 30407 net.cpp:150] Setting up rpn_cls_score_rpn_cls_score_0_split
I1109 11:34:36.482059 30407 net.cpp:157] Top shape: 1 18 38 63 (43092)
I1109 11:34:36.482062 30407 net.cpp:157] Top shape: 1 18 38 63 (43092)
I1109 11:34:36.482064 30407 net.cpp:165] Memory required for data: 1410449164
I1109 11:34:36.482080 30407 layer_factory.hpp:77] Creating layer rpn_bbox_pred
I1109 11:34:36.482085 30407 net.cpp:106] Creating Layer rpn_bbox_pred
I1109 11:34:36.482089 30407 net.cpp:454] rpn_bbox_pred <- rpn/output_rpn_relu/3x3_0_split_1
I1109 11:34:36.482091 30407 net.cpp:411] rpn_bbox_pred -> rpn_bbox_pred
I1109 11:34:36.483544 30407 net.cpp:150] Setting up rpn_bbox_pred
I1109 11:34:36.483552 30407 net.cpp:157] Top shape: 1 36 38 63 (86184)
I1109 11:34:36.483554 30407 net.cpp:165] Memory required for data: 1410793900
I1109 11:34:36.483558 30407 layer_factory.hpp:77] Creating layer rpn_cls_score_reshape
I1109 11:34:36.483563 30407 net.cpp:106] Creating Layer rpn_cls_score_reshape
I1109 11:34:36.483580 30407 net.cpp:454] rpn_cls_score_reshape <- rpn_cls_score_rpn_cls_score_0_split_0
I1109 11:34:36.483583 30407 net.cpp:411] rpn_cls_score_reshape -> rpn_cls_score_reshape
I1109 11:34:36.483608 30407 net.cpp:150] Setting up rpn_cls_score_reshape
I1109 11:34:36.483611 30407 net.cpp:157] Top shape: 1 2 342 63 (43092)
I1109 11:34:36.483613 30407 net.cpp:165] Memory required for data: 1410966268
I1109 11:34:36.483615 30407 layer_factory.hpp:77] Creating layer rpn-data
I1109 11:34:36.484254 30407 net.cpp:106] Creating Layer rpn-data
I1109 11:34:36.484262 30407 net.cpp:454] rpn-data <- rpn_cls_score_rpn_cls_score_0_split_1
I1109 11:34:36.484266 30407 net.cpp:454] rpn-data <- gt_boxes
I1109 11:34:36.484268 30407 net.cpp:454] rpn-data <- im_info
I1109 11:34:36.484271 30407 net.cpp:454] rpn-data <- data_input-data_0_split_1
I1109 11:34:36.484273 30407 net.cpp:411] rpn-data -> rpn_labels
I1109 11:34:36.484278 30407 net.cpp:411] rpn-data -> rpn_bbox_targets
I1109 11:34:36.484282 30407 net.cpp:411] rpn-data -> rpn_bbox_inside_weights
I1109 11:34:36.484287 30407 net.cpp:411] rpn-data -> rpn_bbox_outside_weights
I1109 11:34:36.484843 30407 net.cpp:150] Setting up rpn-data
I1109 11:34:36.484864 30407 net.cpp:157] Top shape: 1 1 342 63 (21546)
I1109 11:34:36.484869 30407 net.cpp:157] Top shape: 1 36 38 63 (86184)
I1109 11:34:36.484871 30407 net.cpp:157] Top shape: 1 36 38 63 (86184)
I1109 11:34:36.484874 30407 net.cpp:157] Top shape: 1 36 38 63 (86184)
I1109 11:34:36.484875 30407 net.cpp:165] Memory required for data: 1412086660
I1109 11:34:36.484877 30407 layer_factory.hpp:77] Creating layer rpn_loss_cls
I1109 11:34:36.484885 30407 net.cpp:106] Creating Layer rpn_loss_cls
I1109 11:34:36.484889 30407 net.cpp:454] rpn_loss_cls <- rpn_cls_score_reshape
I1109 11:34:36.484891 30407 net.cpp:454] rpn_loss_cls <- rpn_labels
I1109 11:34:36.484894 30407 net.cpp:411] rpn_loss_cls -> rpn_cls_loss
…
I1109 11:34:36.486090 30407 net.cpp:150] Setting up rpn_loss_bbox
I1109 11:34:36.486094 30407 net.cpp:157] Top shape: (1)
I1109 11:34:36.486097 30407 net.cpp:160]     with loss weight 1
I1109 11:34:36.486100 30407 net.cpp:165] Memory required for data: 1412086668
I1109 11:34:36.486102 30407 layer_factory.hpp:77] Creating layer dummy_roi_pool_conv5
I1109 11:34:36.486107 30407 net.cpp:106] Creating Layer dummy_roi_pool_conv5
I1109 11:34:36.486110 30407 net.cpp:411] dummy_roi_pool_conv5 -> dummy_roi_pool_conv5
I1109 11:34:36.486162 30407 net.cpp:150] Setting up dummy_roi_pool_conv5
I1109 11:34:36.486167 30407 net.cpp:157] Top shape: 1 25088 (25088)
I1109 11:34:36.486169 30407 net.cpp:165] Memory required for data: 1412187020
I1109 11:34:36.486171 30407 layer_factory.hpp:77] Creating layer fc6
I1109 11:34:36.486176 30407 net.cpp:106] Creating Layer fc6
I1109 11:34:36.486179 30407 net.cpp:454] fc6 <- dummy_roi_pool_conv5
I1109 11:34:36.486182 30407 net.cpp:411] fc6 -> fc6
I1109 11:34:36.606845 30407 net.cpp:150] Setting up fc6
I1109 11:34:36.606864 30407 net.cpp:157] Top shape: 1 4096 (4096)
I1109 11:34:36.606866 30407 net.cpp:165] Memory required for data: 1412203404
I1109 11:34:36.606875 30407 layer_factory.hpp:77] Creating layer relu6
I1109 11:34:36.606883 30407 net.cpp:106] Creating Layer relu6
I1109 11:34:36.606885 30407 net.cpp:454] relu6 <- fc6
I1109 11:34:36.606889 30407 net.cpp:397] relu6 -> fc6 (in-place)
I1109 11:34:36.607033 30407 net.cpp:150] Setting up relu6
I1109 11:34:36.607039 30407 net.cpp:157] Top shape: 1 4096 (4096)
I1109 11:34:36.607041 30407 net.cpp:165] Memory required for data: 1412219788
I1109 11:34:36.607043 30407 layer_factory.hpp:77] Creating layer drop6
I1109 11:34:36.607048 30407 net.cpp:106] Creating Layer drop6
I1109 11:34:36.607049 30407 net.cpp:454] drop6 <- fc6
I1109 11:34:36.607053 30407 net.cpp:397] drop6 -> fc6 (in-place)
I1109 11:34:36.607077 30407 net.cpp:150] Setting up drop6
I1109 11:34:36.607081 30407 net.cpp:157] Top shape: 1 4096 (4096)
I1109 11:34:36.607084 30407 net.cpp:165] Memory required for data: 1412236172
I1109 11:34:36.607085 30407 layer_factory.hpp:77] Creating layer fc7
I1109 11:34:36.607089 30407 net.cpp:106] Creating Layer fc7
I1109 11:34:36.607091 30407 net.cpp:454] fc7 <- fc6
I1109 11:34:36.607094 30407 net.cpp:411] fc7 -> fc7
I1109 11:34:36.627825 30407 net.cpp:150] Setting up fc7
I1109 11:34:36.627842 30407 net.cpp:157] Top shape: 1 4096 (4096)
I1109 11:34:36.627846 30407 net.cpp:165] Memory required for data: 1412252556
I1109 11:34:36.627851 30407 layer_factory.hpp:77] Creating layer silence_fc7
I1109 11:34:36.627857 30407 net.cpp:106] Creating Layer silence_fc7
I1109 11:34:36.627861 30407 net.cpp:454] silence_fc7 <- fc7
I1109 11:34:36.627864 30407 net.cpp:150] Setting up silence_fc7
I1109 11:34:36.627866 30407 net.cpp:165] Memory required for data: 1412252556
…
           'SCALES': [600],
           'SNAPSHOT_INFIX': 'stage1',
           'SNAPSHOT_ITERS': 10000,
           'USE_FLIPPED': True,
           'USE_PREFETCH': False},
 'USE_GPU_NMS': True}
Loaded dataset `voc_2007_trainval` for proposal generation
WARNING: Logging before InitGoogleLogging() is written to STDERR
I1109 11:53:42.137074  3493 net.cpp:49] Initializing net from parameters: 
name: "VGG_ILSVRC_16_layers"
input: "data"
input: "im_info"
state {
  phase: TEST
}
input_shape {
  dim: 1
  dim: 3
  dim: 224
  dim: 224
}
input_shape {
  dim: 1
  dim: 3
}
layer {
  name: "conv1_1"
  type: "Convolution"
  bottom: "data"
  top: "conv1_1"
  convolution_param {
    num_output: 64
    pad: 1
    kernel_size: 3
  }
}
layer {
  name: "relu1_1"
  type: "ReLU"
  bottom: "conv1_1"
  top: "conv1_1"
}
layer {
  name: "conv1_2"
  type: "Convolution"
  bottom: "conv1_1"
  top: "conv1_2"
  convolution_param {
    num_output: 64
    pad: 1
    kernel_size: 3
  }
}
layer {
  name: "relu1_2"
  type: "ReLU"
  bottom: "conv1_2"
  top: "conv1_2"
}
layer {
  name: "pool1"
  type: "Pooling"
  bottom: "conv1_2"
  top: "pool1"
  pooling_param {
    pool: MAX
    kernel_size: 2
    stride: 2
  }
}
layer {
  name: "conv2_1"
  type: "Convolution"
  bottom: "pool1"
  top: "conv2_1"
  convolution_param {
    num_output: 128
    pad: 1
    kernel_size: 3
  }
}
layer {
  name: "relu2_1"
  type: "ReLU"
  bottom: "conv2_1"
  top: "conv2_1"
}
layer {
  name: "conv2_2"
  type: "Convolution"
  bottom: "conv2_1"
  top: "conv2_2"
  convolution_param {
    num_output: 128
    pad: 1
    kernel_size: 3
  }
}
layer {
  name: "relu2_2"
  type: "ReLU"
  bottom: "conv2_2"
  top: "conv2_2"
}
layer {
  name: "pool2"
  type: "Pooling"
  bottom: "conv2_2"
  top: "pool2"
  pooling_param {
    pool: MAX
    kernel_size: 2
    stride: 2
  }
}
layer {
  name: "conv3_1"
  type: "Convolution"
  bottom: "pool2"
  top: "conv3_1"
  convolution_param {
    num_output: 256
    pad: 1
    kernel_size: 3
  }
}
layer {
  name: "relu3_1"
  type: "ReLU"
  bottom: "conv3_1"
  top: "conv3_1"
}
layer {
  name: "conv3_2"
  type: "Convolution"
  bottom: "conv3_1"
  top: "conv3_2"
  convolution_param {
    num_output: 256
    pad: 1
    kernel_size: 3
  }
}
layer {
  name: "relu3_2"
  type: "ReLU"
  bottom: "conv3_2"
  top: "conv3_2"
}
layer {
  name: "conv3_3"
  type: "Convolution"
  bottom: "conv3_2"
  top: "conv3_3"
  convolution_param {
    num_output: 256
    pad: 1
    kernel_size: 3
  }
}
layer {
  name: "relu3_3"
  type: "ReLU"
  bottom: "conv3_3"
  top: "conv3_3"
}
layer {
  name: "pool3"
  type: "Pooling"
  bottom: "conv3_3"
  top: "pool3"
  pooling_param {
    pool: MAX
    kernel_size: 2
    stride: 2
  }
}
layer {
  name: "conv4_1"
  type: "Convolution"
  bottom: "pool3"
  top: "conv4_1"
  convolution_param {
    num_output: 512
    pad: 1
    kernel_size: 3
  }
}
layer {
  name: "relu4_1"
  type: "ReLU"
  bottom: "conv4_1"
  top: "conv4_1"
}
layer {
  name: "conv4_2"
  type: "Convolution"
  bottom: "conv4_1"
  top: "conv4_2"
  convolution_param {
    num_output: 512
    pad: 1
    kernel_size: 3
  }
}
layer {
  name: "relu4_2"
  type: "ReLU"
  bottom: "conv4_2"
  top: "conv4_2"
}
layer {
  name: "conv4_3"
  type: "Convolution"
  bottom: "conv4_2"
  top: "conv4_3"
  convolution_param {
    num_output: 512
    pad: 1
    kernel_size: 3
  }
}
layer {
  name: "relu4_3"
  type: "ReLU"
  bottom: "conv4_3"
  top: "conv4_3"
}
layer {
  name: "pool4"
  type: "Pooling"
  bottom: "conv4_3"
  top: "pool4"
  pooling_param {
    pool: MAX
    kernel_size: 2
    stride: 2
  }
}
layer {
  name: "conv5_1"
  type: "Convolution"
  bottom: "pool4"
  top: "conv5_1"
  convolution_param {
    num_output: 512
    pad: 1
    kernel_size: 3
  }
}
layer {
  name: "relu5_1"
  type: "ReLU"
  bottom: "conv5_1"
  top: "conv5_1"
}
layer {
  name: "conv5_2"
  type: "Convolution"
  bottom: "conv5_1"
  top: "conv5_2"
  convolution_param {
    num_output: 512
    pad: 1
    kernel_size: 3
  }
}
layer {
  name: "relu5_2"
  type: "ReLU"
  bottom: "conv5_2"
  top: "conv5_2"
}
layer {
  name: "conv5_3"
  type: "Convolution"
  bottom: "conv5_2"
  top: "conv5_3"
  convolution_param {
    num_output: 512
    pad: 1
    kernel_size: 3
  }
}
layer {
  name: "relu5_3"
  type: "ReLU"
  bottom: "conv5_3"
  top: "conv5_3"
}
layer {
  name: "rpn_conv/3x3"
  type: "Convolution"
  bottom: "conv5_3"
  top: "rpn/output"
  convolution_param {
    num_output: 512
    pad: 1
    kernel_size: 3
    stride: 1
  }
}
layer {
  name: "rpn_relu/3x3"
  type: "ReLU"
  bottom: "rpn/output"
  top: "rpn/output"
}
layer {
  name: "rpn_cls_score"
  type: "Convolution"
  bottom: "rpn/output"
  top: "rpn_cls_score"
  convolution_param {
    num_output: 18
    pad: 0
    kernel_size: 1
    stride: 1
  }
}
layer {
  name: "rpn_bbox_pred"
  type: "Convolution"
  bottom: "rpn/output"
  top: "rpn_bbox_pred"
  convolution_param {
    num_output: 36
    pad: 0
    kernel_size: 1
    stride: 1
  }
}
layer {
  name: "rpn_cls_score_reshape"
  type: "Reshape"
  bottom: "rpn_cls_score"
  top: "rpn_cls_score_reshape"
  reshape_param {
    shape {
      dim: 0
      dim: 2
      dim: -1
      dim: 0
    }
  }
}
layer {
  name: "rpn_cls_prob"
  type: "Softmax"
  bottom: "rpn_cls_score_reshape"
  top: "rpn_cls_prob"
}
layer {
  name: "rpn_cls_prob_reshape"
  type: "Reshape"
  bottom: "rpn_cls_prob"
  top: "rpn_cls_prob_reshape"
  reshape_param {
    shape {
      dim: 0
      dim: 18
      dim: -1
      dim: 0
    }
  }
}
layer {
  name: "proposal"
  type: "Python"
  bottom: "rpn_cls_prob_reshape"
  bottom: "rpn_bbox_pred"
  bottom: "im_info"
  top: "rois"
  top: "scores"
  python_param {
    module: "rpn.proposal_layer"
    layer: "ProposalLayer"
    param_str: "\'feat_stride\': 16"
  }
}
I1109 11:53:42.137229  3493 net.cpp:413] Input 0 -> data
I1109 11:53:42.144292  3493 net.cpp:413] Input 1 -> im_info
I1109 11:53:42.144349  3493 layer_factory.hpp:77] Creating layer conv1_1
I1109 11:53:42.144366  3493 net.cpp:106] Creating Layer conv1_1
I1109 11:53:42.144369  3493 net.cpp:454] conv1_1 <- data
I1109 11:53:42.144376  3493 net.cpp:411] conv1_1 -> conv1_1
I1109 11:53:42.311205  3493 net.cpp:150] Setting up conv1_1
I1109 11:53:42.311224  3493 net.cpp:157] Top shape: 1 64 224 224 (3211264)
I1109 11:53:42.311228  3493 net.cpp:165] Memory required for data: 12845056
I1109 11:53:42.311245  3493 layer_factory.hpp:77] Creating layer relu1_1
I1109 11:53:42.311255  3493 net.cpp:106] Creating Layer relu1_1
I1109 11:53:42.311260  3493 net.cpp:454] relu1_1 <- conv1_1
I1109 11:53:42.311266  3493 net.cpp:397] relu1_1 -> conv1_1 (in-place)
I1109 11:53:42.311380  3493 net.cpp:150] Setting up relu1_1
I1109 11:53:42.311388  3493 net.cpp:157] Top shape: 1 64 224 224 (3211264)
I1109 11:53:42.311390  3493 net.cpp:165] Memory required for data: 25690112
I1109 11:53:42.311394  3493 layer_factory.hpp:77] Creating layer conv1_2
I1109 11:53:42.311403  3493 net.cpp:106] Creating Layer conv1_2
I1109 11:53:42.311405  3493 net.cpp:454] conv1_2 <- conv1_1
I1109 11:53:42.311410  3493 net.cpp:411] conv1_2 -> conv1_2
I1109 11:53:42.312417  3493 net.cpp:150] Setting up conv1_2
I1109 11:53:42.312427  3493 net.cpp:157] Top shape: 1 64 224 224 (3211264)
I1109 11:53:42.312430  3493 net.cpp:165] Memory required for data: 38535168
I1109 11:53:42.312438  3493 layer_factory.hpp:77] Creating layer relu1_2
I1109 11:53:42.312444  3493 net.cpp:106] Creating Layer relu1_2
I1109 11:53:42.312448  3493 net.cpp:454] relu1_2 <- conv1_2
I1109 11:53:42.312453  3493 net.cpp:397] relu1_2 -> conv1_2 (in-place)
I1109 11:53:42.312953  3493 net.cpp:150] Setting up relu1_2
I1109 11:53:42.312961  3493 net.cpp:157] Top shape: 1 64 224 224 (3211264)
I1109 11:53:42.312965  3493 net.cpp:165] Memory required for data: 51380224
I1109 11:53:42.312969  3493 layer_factory.hpp:77] Creating layer pool1
I1109 11:53:42.312976  3493 net.cpp:106] Creating Layer pool1
I1109 11:53:42.312980  3493 net.cpp:454] pool1 <- conv1_2
I1109 11:53:42.312985  3493 net.cpp:411] pool1 -> pool1
I1109 11:53:42.313025  3493 net.cpp:150] Setting up pool1
I1109 11:53:42.313030  3493 net.cpp:157] Top shape: 1 64 112 112 (802816)
I1109 11:53:42.313035  3493 net.cpp:165] Memory required for data: 54591488
I1109 11:53:42.313037  3493 layer_factory.hpp:77] Creating layer conv2_1
I1109 11:53:42.313043  3493 net.cpp:106] Creating Layer conv2_1
I1109 11:53:42.313047  3493 net.cpp:454] conv2_1 <- pool1
I1109 11:53:42.313052  3493 net.cpp:411] conv2_1 -> conv2_1
I1109 11:53:42.315315  3493 net.cpp:150] Setting up conv2_1
I1109 11:53:42.315325  3493 net.cpp:157] Top shape: 1 128 112 112 (1605632)
I1109 11:53:42.315330  3493 net.cpp:165] Memory required for data: 61014016
I1109 11:53:42.315337  3493 layer_factory.hpp:77] Creating layer relu2_1
I1109 11:53:42.315345  3493 net.cpp:106] Creating Layer relu2_1
I1109 11:53:42.315349  3493 net.cpp:454] relu2_1 <- conv2_1
I1109 11:53:42.315354  3493 net.cpp:397] relu2_1 -> conv2_1 (in-place)
I1109 11:53:42.315903  3493 net.cpp:150] Setting up relu2_1
I1109 11:53:42.315912  3493 net.cpp:157] Top shape: 1 128 112 112 (1605632)
I1109 11:53:42.315915  3493 net.cpp:165] Memory required for data: 67436544
I1109 11:53:42.315919  3493 layer_factory.hpp:77] Creating layer conv2_2
I1109 11:53:42.315927  3493 net.cpp:106] Creating Layer conv2_2
I1109 11:53:42.315930  3493 net.cpp:454] conv2_2 <- conv2_1
I1109 11:53:42.315935  3493 net.cpp:411] conv2_2 -> conv2_2
I1109 11:53:42.317405  3493 net.cpp:150] Setting up conv2_2
I1109 11:53:42.317414  3493 net.cpp:157] Top shape: 1 128 112 112 (1605632)
I1109 11:53:42.317420  3493 net.cpp:165] Memory required for data: 73859072
I1109 11:53:42.317425  3493 layer_factory.hpp:77] Creating layer relu2_2
I1109 11:53:42.317432  3493 net.cpp:106] Creating Layer relu2_2
I1109 11:53:42.317437  3493 net.cpp:454] relu2_2 <- conv2_2
I1109 11:53:42.317442  3493 net.cpp:397] relu2_2 -> conv2_2 (in-place)
I1109 11:53:42.317551  3493 net.cpp:150] Setting up relu2_2
I1109 11:53:42.317559  3493 net.cpp:157] Top shape: 1 128 112 112 (1605632)
I1109 11:53:42.317561  3493 net.cpp:165] Memory required for data: 80281600
I1109 11:53:42.317565  3493 layer_factory.hpp:77] Creating layer pool2
I1109 11:53:42.317570  3493 net.cpp:106] Creating Layer pool2
I1109 11:53:42.317574  3493 net.cpp:454] pool2 <- conv2_2
I1109 11:53:42.317579  3493 net.cpp:411] pool2 -> pool2
I1109 11:53:42.317618  3493 net.cpp:150] Setting up pool2
I1109 11:53:42.317623  3493 net.cpp:157] Top shape: 1 128 56 56 (401408)
I1109 11:53:42.317626  3493 net.cpp:165] Memory required for data: 81887232
I1109 11:53:42.317629  3493 layer_factory.hpp:77] Creating layer conv3_1
I1109 11:53:42.317636  3493 net.cpp:106] Creating Layer conv3_1
I1109 11:53:42.317639  3493 net.cpp:454] conv3_1 <- pool2
I1109 11:53:42.317643  3493 net.cpp:411] conv3_1 -> conv3_1
I1109 11:53:42.319233  3493 net.cpp:150] Setting up conv3_1
I1109 11:53:42.319242  3493 net.cpp:157] Top shape: 1 256 56 56 (802816)
I1109 11:53:42.319247  3493 net.cpp:165] Memory required for data: 85098496
I1109 11:53:42.319255  3493 layer_factory.hpp:77] Creating layer relu3_1
I1109 11:53:42.319262  3493 net.cpp:106] Creating Layer relu3_1
I1109 11:53:42.319265  3493 net.cpp:454] relu3_1 <- conv3_1
I1109 11:53:42.319270  3493 net.cpp:397] relu3_1 -> conv3_1 (in-place)
I1109 11:53:42.319380  3493 net.cpp:150] Setting up relu3_1
I1109 11:53:42.319387  3493 net.cpp:157] Top shape: 1 256 56 56 (802816)
I1109 11:53:42.319391  3493 net.cpp:165] Memory required for data: 88309760
I1109 11:53:42.319393  3493 layer_factory.hpp:77] Creating layer conv3_2
I1109 11:53:42.319401  3493 net.cpp:106] Creating Layer conv3_2
I1109 11:53:42.319404  3493 net.cpp:454] conv3_2 <- conv3_1
I1109 11:53:42.319409  3493 net.cpp:411] conv3_2 -> conv3_2
I1109 11:53:42.321749  3493 net.cpp:150] Setting up conv3_2
I1109 11:53:42.321758  3493 net.cpp:157] Top shape: 1 256 56 56 (802816)
I1109 11:53:42.321763  3493 net.cpp:165] Memory required for data: 91521024
I1109 11:53:42.321769  3493 layer_factory.hpp:77] Creating layer relu3_2
I1109 11:53:42.321776  3493 net.cpp:106] Creating Layer relu3_2
I1109 11:53:42.321780  3493 net.cpp:454] relu3_2 <- conv3_2
I1109 11:53:42.321784  3493 net.cpp:397] relu3_2 -> conv3_2 (in-place)
I1109 11:53:42.321898  3493 net.cpp:150] Setting up relu3_2
I1109 11:53:42.321905  3493 net.cpp:157] Top shape: 1 256 56 56 (802816)
I1109 11:53:42.321909  3493 net.cpp:165] Memory required for data: 94732288
I1109 11:53:42.321913  3493 layer_factory.hpp:77] Creating layer conv3_3
I1109 11:53:42.321919  3493 net.cpp:106] Creating Layer conv3_3
I1109 11:53:42.321924  3493 net.cpp:454] conv3_3 <- conv3_2
I1109 11:53:42.321929  3493 net.cpp:411] conv3_3 -> conv3_3
I1109 11:53:42.324689  3493 net.cpp:150] Setting up conv3_3
I1109 11:53:42.324705  3493 net.cpp:157] Top shape: 1 256 56 56 (802816)
I1109 11:53:42.324709  3493 net.cpp:165] Memory required for data: 97943552
I1109 11:53:42.324717  3493 layer_factory.hpp:77] Creating layer relu3_3
I1109 11:53:42.324728  3493 net.cpp:106] Creating Layer relu3_3
I1109 11:53:42.324731  3493 net.cpp:454] relu3_3 <- conv3_3
I1109 11:53:42.324738  3493 net.cpp:397] relu3_3 -> conv3_3 (in-place)
I1109 11:53:42.324940  3493 net.cpp:150] Setting up relu3_3
I1109 11:53:42.324947  3493 net.cpp:157] Top shape: 1 256 56 56 (802816)
I1109 11:53:42.324951  3493 net.cpp:165] Memory required for data: 101154816
I1109 11:53:42.324955  3493 layer_factory.hpp:77] Creating layer pool3
I1109 11:53:42.324964  3493 net.cpp:106] Creating Layer pool3
I1109 11:53:42.324967  3493 net.cpp:454] pool3 <- conv3_3
I1109 11:53:42.324972  3493 net.cpp:411] pool3 -> pool3
I1109 11:53:42.325033  3493 net.cpp:150] Setting up pool3
I1109 11:53:42.325052  3493 net.cpp:157] Top shape: 1 256 28 28 (200704)
I1109 11:53:42.325054  3493 net.cpp:165] Memory required for data: 101957632
I1109 11:53:42.325058  3493 layer_factory.hpp:77] Creating layer conv4_1
I1109 11:53:42.325080  3493 net.cpp:106] Creating Layer conv4_1
I1109 11:53:42.325083  3493 net.cpp:454] conv4_1 <- pool3
I1109 11:53:42.325088  3493 net.cpp:411] conv4_1 -> conv4_1
I1109 11:53:42.328827  3493 net.cpp:150] Setting up conv4_1
I1109 11:53:42.328845  3493 net.cpp:157] Top shape: 1 512 28 28 (401408)
I1109 11:53:42.328850  3493 net.cpp:165] Memory required for data: 103563264
I1109 11:53:42.328857  3493 layer_factory.hpp:77] Creating layer relu4_1
I1109 11:53:42.328866  3493 net.cpp:106] Creating Layer relu4_1
I1109 11:53:42.328871  3493 net.cpp:454] relu4_1 <- conv4_1
I1109 11:53:42.328876  3493 net.cpp:397] relu4_1 -> conv4_1 (in-place)
I1109 11:53:42.329445  3493 net.cpp:150] Setting up relu4_1
I1109 11:53:42.329454  3493 net.cpp:157] Top shape: 1 512 28 28 (401408)
I1109 11:53:42.329457  3493 net.cpp:165] Memory required for data: 105168896
I1109 11:53:42.329463  3493 layer_factory.hpp:77] Creating layer conv4_2
I1109 11:53:42.329485  3493 net.cpp:106] Creating Layer conv4_2
I1109 11:53:42.329488  3493 net.cpp:454] conv4_2 <- conv4_1
I1109 11:53:42.329494  3493 net.cpp:411] conv4_2 -> conv4_2
I1109 11:53:42.333493  3493 net.cpp:150] Setting up conv4_2
I1109 11:53:42.333510  3493 net.cpp:157] Top shape: 1 512 28 28 (401408)
I1109 11:53:42.333514  3493 net.cpp:165] Memory required for data: 106774528
I1109 11:53:42.333525  3493 layer_factory.hpp:77] Creating layer relu4_2
I1109 11:53:42.333534  3493 net.cpp:106] Creating Layer relu4_2
I1109 11:53:42.333539  3493 net.cpp:454] relu4_2 <- conv4_2
I1109 11:53:42.333546  3493 net.cpp:397] relu4_2 -> conv4_2 (in-place)
I1109 11:53:42.334112  3493 net.cpp:150] Setting up relu4_2
I1109 11:53:42.334121  3493 net.cpp:157] Top shape: 1 512 28 28 (401408)
I1109 11:53:42.334125  3493 net.cpp:165] Memory required for data: 108380160
I1109 11:53:42.334128  3493 layer_factory.hpp:77] Creating layer conv4_3
I1109 11:53:42.334136  3493 net.cpp:106] Creating Layer conv4_3
I1109 11:53:42.334141  3493 net.cpp:454] conv4_3 <- conv4_2
I1109 11:53:42.334146  3493 net.cpp:411] conv4_3 -> conv4_3
I1109 11:53:42.338239  3493 net.cpp:150] Setting up conv4_3
I1109 11:53:42.338259  3493 net.cpp:157] Top shape: 1 512 28 28 (401408)
I1109 11:53:42.338263  3493 net.cpp:165] Memory required for data: 109985792
I1109 11:53:42.338273  3493 layer_factory.hpp:77] Creating layer relu4_3
I1109 11:53:42.338281  3493 net.cpp:106] Creating Layer relu4_3
I1109 11:53:42.338285  3493 net.cpp:454] relu4_3 <- conv4_3
I1109 11:53:42.338300  3493 net.cpp:397] relu4_3 -> conv4_3 (in-place)
I1109 11:53:42.338428  3493 net.cpp:150] Setting up relu4_3
I1109 11:53:42.338434  3493 net.cpp:157] Top shape: 1 512 28 28 (401408)
I1109 11:53:42.338438  3493 net.cpp:165] Memory required for data: 111591424
I1109 11:53:42.338440  3493 layer_factory.hpp:77] Creating layer pool4
I1109 11:53:42.338446  3493 net.cpp:106] Creating Layer pool4
I1109 11:53:42.338450  3493 net.cpp:454] pool4 <- conv4_3
I1109 11:53:42.338455  3493 net.cpp:411] pool4 -> pool4
I1109 11:53:42.338500  3493 net.cpp:150] Setting up pool4
I1109 11:53:42.338505  3493 net.cpp:157] Top shape: 1 512 14 14 (100352)
I1109 11:53:42.338507  3493 net.cpp:165] Memory required for data: 111992832
I1109 11:53:42.338510  3493 layer_factory.hpp:77] Creating layer conv5_1
I1109 11:53:42.338518  3493 net.cpp:106] Creating Layer conv5_1
I1109 11:53:42.338522  3493 net.cpp:454] conv5_1 <- pool4
I1109 11:53:42.338527  3493 net.cpp:411] conv5_1 -> conv5_1
I1109 11:53:42.342684  3493 net.cpp:150] Setting up conv5_1
I1109 11:53:42.342701  3493 net.cpp:157] Top shape: 1 512 14 14 (100352)
I1109 11:53:42.342705  3493 net.cpp:165] Memory required for data: 112394240
I1109 11:53:42.342713  3493 layer_factory.hpp:77] Creating layer relu5_1
I1109 11:53:42.342722  3493 net.cpp:106] Creating Layer relu5_1
I1109 11:53:42.342726  3493 net.cpp:454] relu5_1 <- conv5_1
I1109 11:53:42.342732  3493 net.cpp:397] relu5_1 -> conv5_1 (in-place)
I1109 11:53:42.342849  3493 net.cpp:150] Setting up relu5_1
I1109 11:53:42.342855  3493 net.cpp:157] Top shape: 1 512 14 14 (100352)
I1109 11:53:42.342859  3493 net.cpp:165] Memory required for data: 112795648
I1109 11:53:42.342862  3493 layer_factory.hpp:77] Creating layer conv5_2
I1109 11:53:42.342870  3493 net.cpp:106] Creating Layer conv5_2
I1109 11:53:42.342874  3493 net.cpp:454] conv5_2 <- conv5_1
I1109 11:53:42.342878  3493 net.cpp:411] conv5_2 -> conv5_2
I1109 11:53:42.346940  3493 net.cpp:150] Setting up conv5_2
I1109 11:53:42.346959  3493 net.cpp:157] Top shape: 1 512 14 14 (100352)
I1109 11:53:42.346962  3493 net.cpp:165] Memory required for data: 113197056
I1109 11:53:42.346971  3493 layer_factory.hpp:77] Creating layer relu5_2
I1109 11:53:42.346989  3493 net.cpp:106] Creating Layer relu5_2
I1109 11:53:42.346994  3493 net.cpp:454] relu5_2 <- conv5_2
I1109 11:53:42.347000  3493 net.cpp:397] relu5_2 -> conv5_2 (in-place)
I1109 11:53:42.347116  3493 net.cpp:150] Setting up relu5_2
I1109 11:53:42.347122  3493 net.cpp:157] Top shape: 1 512 14 14 (100352)
I1109 11:53:42.347126  3493 net.cpp:165] Memory required for data: 113598464
I1109 11:53:42.347129  3493 layer_factory.hpp:77] Creating layer conv5_3
I1109 11:53:42.347137  3493 net.cpp:106] Creating Layer conv5_3
I1109 11:53:42.347141  3493 net.cpp:454] conv5_3 <- conv5_2
I1109 11:53:42.347146  3493 net.cpp:411] conv5_3 -> conv5_3
I1109 11:53:42.351197  3493 net.cpp:150] Setting up conv5_3
I1109 11:53:42.351217  3493 net.cpp:157] Top shape: 1 512 14 14 (100352)
I1109 11:53:42.351220  3493 net.cpp:165] Memory required for data: 113999872
I1109 11:53:42.351228  3493 layer_factory.hpp:77] Creating layer relu5_3
I1109 11:53:42.351236  3493 net.cpp:106] Creating Layer relu5_3
I1109 11:53:42.351241  3493 net.cpp:454] relu5_3 <- conv5_3
I1109 11:53:42.351248  3493 net.cpp:397] relu5_3 -> conv5_3 (in-place)
I1109 11:53:42.351361  3493 net.cpp:150] Setting up relu5_3
I1109 11:53:42.351367  3493 net.cpp:157] Top shape: 1 512 14 14 (100352)
I1109 11:53:42.351371  3493 net.cpp:165] Memory required for data: 114401280
I1109 11:53:42.351374  3493 layer_factory.hpp:77] Creating layer rpn_conv/3x3
I1109 11:53:42.351382  3493 net.cpp:106] Creating Layer rpn_conv/3x3
I1109 11:53:42.351387  3493 net.cpp:454] rpn_conv/3x3 <- conv5_3
I1109 11:53:42.351392  3493 net.cpp:411] rpn_conv/3x3 -> rpn/output
I1109 11:53:42.355428  3493 net.cpp:150] Setting up rpn_conv/3x3
I1109 11:53:42.355448  3493 net.cpp:157] Top shape: 1 512 14 14 (100352)
I1109 11:53:42.355451  3493 net.cpp:165] Memory required for data: 114802688
I1109 11:53:42.355459  3493 layer_factory.hpp:77] Creating layer rpn_relu/3x3
I1109 11:53:42.355468  3493 net.cpp:106] Creating Layer rpn_relu/3x3
I1109 11:53:42.355473  3493 net.cpp:454] rpn_relu/3x3 <- rpn/output
I1109 11:53:42.355479  3493 net.cpp:397] rpn_relu/3x3 -> rpn/output (in-place)
I1109 11:53:42.356063  3493 net.cpp:150] Setting up rpn_relu/3x3
I1109 11:53:42.356073  3493 net.cpp:157] Top shape: 1 512 14 14 (100352)
I1109 11:53:42.356076  3493 net.cpp:165] Memory required for data: 115204096
I1109 11:53:42.356081  3493 layer_factory.hpp:77] Creating layer rpn/output_rpn_relu/3x3_0_split
I1109 11:53:42.356088  3493 net.cpp:106] Creating Layer rpn/output_rpn_relu/3x3_0_split
I1109 11:53:42.356092  3493 net.cpp:454] rpn/output_rpn_relu/3x3_0_split <- rpn/output
I1109 11:53:42.356097  3493 net.cpp:411] rpn/output_rpn_relu/3x3_0_split -> rpn/output_rpn_relu/3x3_0_split_0
I1109 11:53:42.356104  3493 net.cpp:411] rpn/output_rpn_relu/3x3_0_split -> rpn/output_rpn_relu/3x3_0_split_1
I1109 11:53:42.356153  3493 net.cpp:150] Setting up rpn/output_rpn_relu/3x3_0_split
I1109 11:53:42.356159  3493 net.cpp:157] Top shape: 1 512 14 14 (100352)
I1109 11:53:42.356163  3493 net.cpp:157] Top shape: 1 512 14 14 (100352)
I1109 11:53:42.356168  3493 net.cpp:165] Memory required for data: 116006912
I1109 11:53:42.356171  3493 layer_factory.hpp:77] Creating layer rpn_cls_score
I1109 11:53:42.356178  3493 net.cpp:106] Creating Layer rpn_cls_score
I1109 11:53:42.356182  3493 net.cpp:454] rpn_cls_score <- rpn/output_rpn_relu/3x3_0_split_0
I1109 11:53:42.356187  3493 net.cpp:411] rpn_cls_score -> rpn_cls_score
I1109 11:53:42.357172  3493 net.cpp:150] Setting up rpn_cls_score
I1109 11:53:42.357180  3493 net.cpp:157] Top shape: 1 18 14 14 (3528)
I1109 11:53:42.357184  3493 net.cpp:165] Memory required for data: 116021024
I1109 11:53:42.357192  3493 layer_factory.hpp:77] Creating layer rpn_bbox_pred
I1109 11:53:42.357199  3493 net.cpp:106] Creating Layer rpn_bbox_pred
I1109 11:53:42.357203  3493 net.cpp:454] rpn_bbox_pred <- rpn/output_rpn_relu/3x3_0_split_1
I1109 11:53:42.357209  3493 net.cpp:411] rpn_bbox_pred -> rpn_bbox_pred
I1109 11:53:42.358237  3493 net.cpp:150] Setting up rpn_bbox_pred
I1109 11:53:42.358245  3493 net.cpp:157] Top shape: 1 36 14 14 (7056)
I1109 11:53:42.358249  3493 net.cpp:165] Memory required for data: 116049248
I1109 11:53:42.358256  3493 layer_factory.hpp:77] Creating layer rpn_cls_score_reshape
I1109 11:53:42.358263  3493 net.cpp:106] Creating Layer rpn_cls_score_reshape
I1109 11:53:42.358268  3493 net.cpp:454] rpn_cls_score_reshape <- rpn_cls_score
I1109 11:53:42.358273  3493 net.cpp:411] rpn_cls_score_reshape -> rpn_cls_score_reshape
I1109 11:53:42.358319  3493 net.cpp:150] Setting up rpn_cls_score_reshape
I1109 11:53:42.358325  3493 net.cpp:157] Top shape: 1 2 126 14 (3528)
I1109 11:53:42.358330  3493 net.cpp:165] Memory required for data: 116063360
I1109 11:53:42.358346  3493 layer_factory.hpp:77] Creating layer rpn_cls_prob
I1109 11:53:42.358351  3493 net.cpp:106] Creating Layer rpn_cls_prob
I1109 11:53:42.358356  3493 net.cpp:454] rpn_cls_prob <- rpn_cls_score_reshape
I1109 11:53:42.358361  3493 net.cpp:411] rpn_cls_prob -> rpn_cls_prob
I1109 11:53:42.358983  3493 net.cpp:150] Setting up rpn_cls_prob
I1109 11:53:42.358992  3493 net.cpp:157] Top shape: 1 2 126 14 (3528)
I1109 11:53:42.358996  3493 net.cpp:165] Memory required for data: 116077472
I1109 11:53:42.358999  3493 layer_factory.hpp:77] Creating layer rpn_cls_prob_reshape
I1109 11:53:42.359005  3493 net.cpp:106] Creating Layer rpn_cls_prob_reshape
I1109 11:53:42.359009  3493 net.cpp:454] rpn_cls_prob_reshape <- rpn_cls_prob
I1109 11:53:42.359015  3493 net.cpp:411] rpn_cls_prob_reshape -> rpn_cls_prob_reshape
I1109 11:53:42.359040  3493 net.cpp:150] Setting up rpn_cls_prob_reshape
I1109 11:53:42.359045  3493 net.cpp:157] Top shape: 1 18 14 14 (3528)
I1109 11:53:42.359050  3493 net.cpp:165] Memory required for data: 116091584
I1109 11:53:42.359052  3493 layer_factory.hpp:77] Creating layer proposal
I1109 11:53:42.359882  3493 net.cpp:106] Creating Layer proposal
I1109 11:53:42.359891  3493 net.cpp:454] proposal <- rpn_cls_prob_reshape
I1109 11:53:42.359896  3493 net.cpp:454] proposal <- rpn_bbox_pred
I1109 11:53:42.359901  3493 net.cpp:454] proposal <- im_info
I1109 11:53:42.359908  3493 net.cpp:411] proposal -> rois
I1109 11:53:42.359915  3493 net.cpp:411] proposal -> scores
I1109 11:53:42.360635  3493 net.cpp:150] Setting up proposal
I1109 11:53:42.360646  3493 net.cpp:157] Top shape: 1 5 (5)
I1109 11:53:42.360651  3493 net.cpp:157] Top shape: 1 1 1 1 (1)
I1109 11:53:42.360653  3493 net.cpp:165] Memory required for data: 116091608
I1109 11:53:42.360658  3493 net.cpp:228] proposal does not need backward computation.
I1109 11:53:42.360664  3493 net.cpp:228] rpn_cls_prob_reshape does not need backward computation.
I1109 11:53:42.360668  3493 net.cpp:228] rpn_cls_prob does not need backward computation.
I1109 11:53:42.360672  3493 net.cpp:228] rpn_cls_score_reshape does not need backward computation.
…
