…
snapshot: 0
snapshot_prefix: "vgg16_rpn"
average_loss: 100
I1108 22:29:35.909364 17645 solver.cpp:81] Creating training net from train_net file: models/pascal_voc/VGG16/faster_rcnn_alt_opt/stage1_rpn_train.pt
I1108 22:29:35.910472 17645 net.cpp:49] Initializing net from parameters: 
name: "VGG_ILSVRC_16_layers"
state {
  phase: TRAIN
}
layer {
  name: "input-data"
  type: "Python"
  top: "data"
  top: "im_info"
  top: "gt_boxes"
  python_param {
    module: "roi_data_layer.layer"
    layer: "RoIDataLayer"
    param_str: "\'num_classes\': 2"
  }
}
layer {
  name: "conv1_1"
  type: "Convolution"
  bottom: "data"
  top: "conv1_1"
  param {
    lr_mult: 0
    decay_mult: 0
  }
  param {
    lr_mult: 0
    decay_mult: 0
  }
  convolution_param {
    num_output: 64
    pad: 1
    kernel_size: 3
  }
}
layer {
  name: "relu1_1"
  type: "ReLU"
  bottom: "conv1_1"
  top: "conv1_1"
}
layer {
  name: "conv1_2"
  type: "Convolution"
  bottom: "conv1_1"
  top: "conv1_2"
  param {
    lr_mult: 0
    decay_mult: 0
  }
  param {
    lr_mult: 0
    decay_mult: 0
  }
  convolution_param {
    num_output: 64
    pad: 1
    kernel_size: 3
  }
}
layer {
  name: "relu1_2"
  type: "ReLU"
  bottom: "conv1_2"
  top: "conv1_2"
}
layer {
  name: "pool1"
  type: "Pooling"
  bottom: "conv1_2"
  top: "pool1"
  pooling_param {
    pool: MAX
    kernel_size: 2
    stride: 2
  }
}
layer {
  name: "conv2_1"
  type: "Convolution"
  bottom: "pool1"
  top: "conv2_1"
  param {
    lr_mult: 0
    decay_mult: 0
  }
  param {
    lr_mult: 0
    decay_mult: 0
  }
  convolution_param {
    num_output: 128
    pad: 1
    kernel_size: 3
  }
}
layer {
  name: "relu2_1"
  type: "ReLU"
  bottom: "conv2_1"
  top: "conv2_1"
}
layer {
  name: "conv2_2"
  type: "Convolution"
  bottom: "conv2_1"
  top: "conv2_2"
  param {
    lr_mult: 0
    decay_mult: 0
  }
  param {
    lr_mult: 0
    decay_mult: 0
  }
  convolution_param {
    num_output: 128
    pad: 1
    kernel_size: 3
  }
}
layer {
  name: "relu2_2"
  type: "ReLU"
  bottom: "conv2_2"
  top: "conv2_2"
}
layer {
  name: "pool2"
  type: "Pooling"
  bottom: "conv2_2"
  top: "pool2"
  pooling_param {
    pool: MAX
    kernel_size: 2
    stride: 2
  }
}
layer {
  name: "conv3_1"
  type: "Convolution"
  bottom: "pool2"
  top: "conv3_1"
  param {
    lr_mult: 1
  }
  param {
    lr_mult: 2
  }
  convolution_param {
    num_output: 256
    pad: 1
    kernel_size: 3
  }
}
layer {
  name: "relu3_1"
  type: "ReLU"
  bottom: "conv3_1"
  top: "conv3_1"
}
layer {
  name: "conv3_2"
  type: "Convolution"
  bottom: "conv3_1"
  top: "conv3_2"
  param {
    lr_mult: 1
  }
  param {
    lr_mult: 2
  }
  convolution_param {
    num_output: 256
    pad: 1
    kernel_size: 3
  }
}
layer {
  name: "relu3_2"
  type: "ReLU"
  bottom: "conv3_2"
  top: "conv3_2"
}
layer {
  name: "conv3_3"
  type: "Convolution"
  bottom: "conv3_2"
  top: "conv3_3"
  param {
    lr_mult: 1
  }
  param {
    lr_mult: 2
  }
  convolution_param {
    num_output: 256
    pad: 1
    kernel_size: 3
  }
}
layer {
  name: "relu3_3"
  type: "ReLU"
  bottom: "conv3_3"
  top: "conv3_3"
}
layer {
  name: "pool3"
  type: "Pooling"
  bottom: "conv3_3"
  top: "pool3"
  pooling_param {
    pool: MAX
    kernel_size: 2
    stride: 2
  }
}
layer {
  name: "conv4_1"
  type: "Convolution"
  bottom: "pool3"
  top: "conv4_1"
  param {
    lr_mult: 1
  }
  param {
    lr_mult: 2
  }
  convolution_param {
    num_output: 512
    pad: 1
    kernel_size: 3
  }
}
layer {
  name: "relu4_1"
  type: "ReLU"
  bottom: "conv4_1"
  top: "conv4_1"
}
layer {
  name: "conv4_2"
  type: "Convolution"
  bottom: "conv4_1"
  top: "conv4_2"
  param {
    lr_mult: 1
  }
  param {
    lr_mult: 2
  }
  convolution_param {
    num_output: 512
    pad: 1
    kernel_size: 3
  }
}
layer {
  name: "relu4_2"
  type: "ReLU"
  bottom: "conv4_2"
  top: "conv4_2"
}
layer {
  name: "conv4_3"
  type: "Convolution"
  bottom: "conv4_2"
  top: "conv4_3"
  param {
    lr_mult: 1
  }
  param {
    lr_mult: 2
  }
  convolution_param {
    num_output: 512
    pad: 1
    kernel_size: 3
  }
}
layer {
  name: "relu4_3"
  type: "ReLU"
  bottom: "conv4_3"
  top: "conv4_3"
}
layer {
  name: "pool4"
  type: "Pooling"
  bottom: "conv4_3"
  top: "pool4"
  pooling_param {
    pool: MAX
    kernel_size: 2
    stride: 2
  }
}
layer {
  name: "conv5_1"
  type: "Convolution"
  bottom: "pool4"
  top: "conv5_1"
  param {
    lr_mult: 1
  }
  param {
    lr_mult: 2
  }
  convolution_param {
    num_output: 512
    pad: 1
    kernel_size: 3
  }
}
layer {
  name: "relu5_1"
  type: "ReLU"
  bottom: "conv5_1"
  top: "conv5_1"
}
layer {
  name: "conv5_2"
  type: "Convolution"
  bottom: "conv5_1"
  top: "conv5_2"
  param {
    lr_mult: 1
  }
  param {
    lr_mult: 2
  }
  convolution_param {
    num_output: 512
    pad: 1
    kernel_size: 3
  }
}
layer {
  name: "relu5_2"
  type: "ReLU"
  bottom: "conv5_2"
  top: "conv5_2"
}
layer {
  name: "conv5_3"
  type: "Convolution"
  bottom: "conv5_2"
  top: "conv5_3"
  param {
    lr_mult: 1
  }
  param {
    lr_mult: 2
  }
  convolution_param {
    num_output: 512
    pad: 1
    kernel_size: 3
  }
}
layer {
  name: "relu5_3"
  type: "ReLU"
  bottom: "conv5_3"
  top: "conv5_3"
}
layer {
  name: "rpn_conv/3x3"
  type: "Convolution"
  bottom: "conv5_3"
  top: "rpn/output"
  param {
    lr_mult: 1
  }
  param {
    lr_mult: 2
  }
  convolution_param {
    num_output: 512
    pad: 1
    kernel_size: 3
    stride: 1
    weight_filler {
      type: "gaussian"
      std: 0.01
    }
    bias_filler {
      type: "constant"
      value: 0
    }
  }
}
layer {
  name: "rpn_relu/3x3"
  type: "ReLU"
  bottom: "rpn/output"
  top: "rpn/output"
}
layer {
  name: "rpn_cls_score"
  type: "Convolution"
  bottom: "rpn/output"
  top: "rpn_cls_score"
  param {
    lr_mult: 1
  }
  param {
    lr_mult: 2
  }
  convolution_param {
    num_output: 18
    pad: 0
    kernel_size: 1
    stride: 1
    weight_filler {
      type: "gaussian"
      std: 0.01
    }
    bias_filler {
      type: "constant"
      value: 0
    }
  }
}
layer {
  name: "rpn_bbox_pred"
  type: "Convolution"
  bottom: "rpn/output"
  top: "rpn_bbox_pred"
  param {
    lr_mult: 1
  }
  param {
    lr_mult: 2
  }
  convolution_param {
    num_output: 36
    pad: 0
    kernel_size: 1
    stride: 1
    weight_filler {
      type: "gaussian"
      std: 0.01
    }
    bias_filler {
      type: "constant"
      value: 0
    }
  }
}
layer {
  name: "rpn_cls_score_reshape"
  type: "Reshape"
  bottom: "rpn_cls_score"
  top: "rpn_cls_score_reshape"
  reshape_param {
    shape {
      dim: 0
      dim: 2
      dim: -1
      dim: 0
    }
  }
}
layer {
  name: "rpn-data"
  type: "Python"
  bottom: "rpn_cls_score"
  bottom: "gt_boxes"
  bottom: "im_info"
  bottom: "data"
  top: "rpn_labels"
  top: "rpn_bbox_targets"
  top: "rpn_bbox_inside_weights"
  top: "rpn_bbox_outside_weights"
  python_param {
    module: "rpn.anchor_target_layer"
    layer: "AnchorTargetLayer"
    param_str: "\'feat_stride\': 16"
  }
}
layer {
  name: "rpn_loss_cls"
  type: "SoftmaxWithLoss"
  bottom: "rpn_cls_score_reshape"
  bottom: "rpn_labels"
  top: "rpn_cls_loss"
  loss_weight: 1
  propagate_down: true
  propagate_down: false
  loss_param {
    ignore_label: -1
    normalize: true
  }
}
layer {
  name: "rpn_loss_bbox"
  type: "SmoothL1Loss"
  bottom: "rpn_bbox_pred"
  bottom: "rpn_bbox_targets"
  bottom: "rpn_bbox_inside_weights"
  bottom: "rpn_bbox_outside_weights"
  top: "rpn_loss_bbox"
  loss_weight: 1
  smooth_l1_loss_param {
    sigma: 3
  }
}
layer {
  name: "dummy_roi_pool_conv5"
  type: "DummyData"
  top: "dummy_roi_pool_conv5"
  dummy_data_param {
    data_filler {
      type: "constant"
      value: 0
    }
    shape {
      dim: 1
      dim: 25088
    }
  }
}
layer {
  name: "fc6"
  type: "InnerProduct"
  bottom: "dummy_roi_pool_conv5"
  top: "fc6"
  param {
    lr_mult: 0
    decay_mult: 0
  }
  param {
    lr_mult: 0
    decay_mult: 0
  }
  inner_product_param {
    num_output: 4096
  }
}
layer {
  name: "relu6"
  type: "ReLU"
  bottom: "fc6"
  top: "fc6"
}
layer {
  name: "drop6"
  type: "Dropout"
  bottom: "fc6"
  top: "fc6"
  dropout_param {
    dropout_ratio: 0.5
  }
}
layer {
  name: "fc7"
  type: "InnerProduct"
  bottom: "fc6"
  top: "fc7"
  param {
    lr_mult: 0
    decay_mult: 0
  }
  param {
    lr_mult: 0
    decay_mult: 0
  }
  inner_product_param {
    num_output: 4096
  }
}
layer {
  name: "silence_fc7"
  type: "Silence"
  bottom: "fc7"
}
I1108 22:29:35.912164 17645 layer_factory.hpp:77] Creating layer input-data
I1108 22:29:35.913949 17645 net.cpp:106] Creating Layer input-data
I1108 22:29:35.913959 17645 net.cpp:411] input-data -> data
I1108 22:29:35.914575 17645 net.cpp:411] input-data -> im_info
I1108 22:29:35.914607 17645 net.cpp:411] input-data -> gt_boxes
RoiDataLayer: name_to_top: {'gt_boxes': 2, 'data': 0, 'im_info': 1}
I1108 22:29:35.948657 17645 net.cpp:150] Setting up input-data
I1108 22:29:35.948674 17645 net.cpp:157] Top shape: 1 3 600 1000 (1800000)
I1108 22:29:35.948678 17645 net.cpp:157] Top shape: 1 3 (3)
I1108 22:29:35.948695 17645 net.cpp:157] Top shape: 1 4 (4)
I1108 22:29:35.948698 17645 net.cpp:165] Memory required for data: 7200028
I1108 22:29:35.948701 17645 layer_factory.hpp:77] Creating layer data_input-data_0_split
I1108 22:29:35.948721 17645 net.cpp:106] Creating Layer data_input-data_0_split
I1108 22:29:35.948724 17645 net.cpp:454] data_input-data_0_split <- data
I1108 22:29:35.948729 17645 net.cpp:411] data_input-data_0_split -> data_input-data_0_split_0
I1108 22:29:35.948735 17645 net.cpp:411] data_input-data_0_split -> data_input-data_0_split_1
I1108 22:29:35.948798 17645 net.cpp:150] Setting up data_input-data_0_split
I1108 22:29:35.948802 17645 net.cpp:157] Top shape: 1 3 600 1000 (1800000)
I1108 22:29:35.948804 17645 net.cpp:157] Top shape: 1 3 600 1000 (1800000)
I1108 22:29:35.948807 17645 net.cpp:165] Memory required for data: 21600028
I1108 22:29:35.948808 17645 layer_factory.hpp:77] Creating layer conv1_1
I1108 22:29:35.948814 17645 net.cpp:106] Creating Layer conv1_1
I1108 22:29:35.948817 17645 net.cpp:454] conv1_1 <- data_input-data_0_split_0
I1108 22:29:35.948820 17645 net.cpp:411] conv1_1 -> conv1_1
I1108 22:29:36.126042 17645 net.cpp:150] Setting up conv1_1
I1108 22:29:36.126061 17645 net.cpp:157] Top shape: 1 64 600 1000 (38400000)
I1108 22:29:36.126065 17645 net.cpp:165] Memory required for data: 175200028
I1108 22:29:36.126091 17645 layer_factory.hpp:77] Creating layer relu1_1
I1108 22:29:36.126099 17645 net.cpp:106] Creating Layer relu1_1
I1108 22:29:36.126102 17645 net.cpp:454] relu1_1 <- conv1_1
I1108 22:29:36.126106 17645 net.cpp:397] relu1_1 -> conv1_1 (in-place)
I1108 22:29:36.126231 17645 net.cpp:150] Setting up relu1_1
I1108 22:29:36.126237 17645 net.cpp:157] Top shape: 1 64 600 1000 (38400000)
I1108 22:29:36.126240 17645 net.cpp:165] Memory required for data: 328800028
I1108 22:29:36.126241 17645 layer_factory.hpp:77] Creating layer conv1_2
I1108 22:29:36.126248 17645 net.cpp:106] Creating Layer conv1_2
I1108 22:29:36.126266 17645 net.cpp:454] conv1_2 <- conv1_1
I1108 22:29:36.126268 17645 net.cpp:411] conv1_2 -> conv1_2
I1108 22:29:36.129417 17645 net.cpp:150] Setting up conv1_2
I1108 22:29:36.129427 17645 net.cpp:157] Top shape: 1 64 600 1000 (38400000)
I1108 22:29:36.129429 17645 net.cpp:165] Memory required for data: 482400028
I1108 22:29:36.129436 17645 layer_factory.hpp:77] Creating layer relu1_2
I1108 22:29:36.129457 17645 net.cpp:106] Creating Layer relu1_2
I1108 22:29:36.129461 17645 net.cpp:454] relu1_2 <- conv1_2
I1108 22:29:36.129463 17645 net.cpp:397] relu1_2 -> conv1_2 (in-place)
I1108 22:29:36.130023 17645 net.cpp:150] Setting up relu1_2
I1108 22:29:36.130030 17645 net.cpp:157] Top shape: 1 64 600 1000 (38400000)
I1108 22:29:36.130033 17645 net.cpp:165] Memory required for data: 636000028
I1108 22:29:36.130035 17645 layer_factory.hpp:77] Creating layer pool1
I1108 22:29:36.130039 17645 net.cpp:106] Creating Layer pool1
I1108 22:29:36.130041 17645 net.cpp:454] pool1 <- conv1_2
I1108 22:29:36.130045 17645 net.cpp:411] pool1 -> pool1
I1108 22:29:36.130400 17645 net.cpp:150] Setting up pool1
I1108 22:29:36.130406 17645 net.cpp:157] Top shape: 1 64 300 500 (9600000)
I1108 22:29:36.130409 17645 net.cpp:165] Memory required for data: 674400028
I1108 22:29:36.130410 17645 layer_factory.hpp:77] Creating layer conv2_1
I1108 22:29:36.130415 17645 net.cpp:106] Creating Layer conv2_1
I1108 22:29:36.130417 17645 net.cpp:454] conv2_1 <- pool1
I1108 22:29:36.130421 17645 net.cpp:411] conv2_1 -> conv2_1
I1108 22:29:36.132596 17645 net.cpp:150] Setting up conv2_1
I1108 22:29:36.132608 17645 net.cpp:157] Top shape: 1 128 300 500 (19200000)
I1108 22:29:36.132612 17645 net.cpp:165] Memory required for data: 751200028
I1108 22:29:36.132635 17645 layer_factory.hpp:77] Creating layer relu2_1
I1108 22:29:36.132643 17645 net.cpp:106] Creating Layer relu2_1
I1108 22:29:36.132647 17645 net.cpp:454] relu2_1 <- conv2_1
I1108 22:29:36.132652 17645 net.cpp:397] relu2_1 -> conv2_1 (in-place)
I1108 22:29:36.133340 17645 net.cpp:150] Setting up relu2_1
I1108 22:29:36.133364 17645 net.cpp:157] Top shape: 1 128 300 500 (19200000)
I1108 22:29:36.133368 17645 net.cpp:165] Memory required for data: 828000028
I1108 22:29:36.133370 17645 layer_factory.hpp:77] Creating layer conv2_2
I1108 22:29:36.133378 17645 net.cpp:106] Creating Layer conv2_2
I1108 22:29:36.133380 17645 net.cpp:454] conv2_2 <- conv2_1
I1108 22:29:36.133383 17645 net.cpp:411] conv2_2 -> conv2_2
I1108 22:29:36.135488 17645 net.cpp:150] Setting up conv2_2
I1108 22:29:36.135495 17645 net.cpp:157] Top shape: 1 128 300 500 (19200000)
I1108 22:29:36.135499 17645 net.cpp:165] Memory required for data: 904800028
I1108 22:29:36.135502 17645 layer_factory.hpp:77] Creating layer relu2_2
I1108 22:29:36.135521 17645 net.cpp:106] Creating Layer relu2_2
I1108 22:29:36.135524 17645 net.cpp:454] relu2_2 <- conv2_2
I1108 22:29:36.135527 17645 net.cpp:397] relu2_2 -> conv2_2 (in-place)
I1108 22:29:36.135651 17645 net.cpp:150] Setting up relu2_2
I1108 22:29:36.135658 17645 net.cpp:157] Top shape: 1 128 300 500 (19200000)
I1108 22:29:36.135659 17645 net.cpp:165] Memory required for data: 981600028
I1108 22:29:36.135661 17645 layer_factory.hpp:77] Creating layer pool2
I1108 22:29:36.135664 17645 net.cpp:106] Creating Layer pool2
I1108 22:29:36.135666 17645 net.cpp:454] pool2 <- conv2_2
I1108 22:29:36.135670 17645 net.cpp:411] pool2 -> pool2
I1108 22:29:36.135725 17645 net.cpp:150] Setting up pool2
I1108 22:29:36.135728 17645 net.cpp:157] Top shape: 1 128 150 250 (4800000)
I1108 22:29:36.135730 17645 net.cpp:165] Memory required for data: 1000800028
I1108 22:29:36.135732 17645 layer_factory.hpp:77] Creating layer conv3_1
I1108 22:29:36.135737 17645 net.cpp:106] Creating Layer conv3_1
I1108 22:29:36.135740 17645 net.cpp:454] conv3_1 <- pool2
I1108 22:29:36.135741 17645 net.cpp:411] conv3_1 -> conv3_1
I1108 22:29:36.138542 17645 net.cpp:150] Setting up conv3_1
I1108 22:29:36.138553 17645 net.cpp:157] Top shape: 1 256 150 250 (9600000)
I1108 22:29:36.138556 17645 net.cpp:165] Memory required for data: 1039200028
I1108 22:29:36.138562 17645 layer_factory.hpp:77] Creating layer relu3_1
I1108 22:29:36.138567 17645 net.cpp:106] Creating Layer relu3_1
I1108 22:29:36.138571 17645 net.cpp:454] relu3_1 <- conv3_1
I1108 22:29:36.138576 17645 net.cpp:397] relu3_1 -> conv3_1 (in-place)
I1108 22:29:36.138721 17645 net.cpp:150] Setting up relu3_1
I1108 22:29:36.138728 17645 net.cpp:157] Top shape: 1 256 150 250 (9600000)
I1108 22:29:36.138732 17645 net.cpp:165] Memory required for data: 1077600028
I1108 22:29:36.138736 17645 layer_factory.hpp:77] Creating layer conv3_2
I1108 22:29:36.138744 17645 net.cpp:106] Creating Layer conv3_2
I1108 22:29:36.138747 17645 net.cpp:454] conv3_2 <- conv3_1
I1108 22:29:36.138751 17645 net.cpp:411] conv3_2 -> conv3_2
I1108 22:29:36.141552 17645 net.cpp:150] Setting up conv3_2
I1108 22:29:36.141580 17645 net.cpp:157] Top shape: 1 256 150 250 (9600000)
I1108 22:29:36.141583 17645 net.cpp:165] Memory required for data: 1116000028
I1108 22:29:36.141589 17645 layer_factory.hpp:77] Creating layer relu3_2
I1108 22:29:36.141597 17645 net.cpp:106] Creating Layer relu3_2
I1108 22:29:36.141600 17645 net.cpp:454] relu3_2 <- conv3_2
I1108 22:29:36.141604 17645 net.cpp:397] relu3_2 -> conv3_2 (in-place)
I1108 22:29:36.141736 17645 net.cpp:150] Setting up relu3_2
I1108 22:29:36.141741 17645 net.cpp:157] Top shape: 1 256 150 250 (9600000)
I1108 22:29:36.141757 17645 net.cpp:165] Memory required for data: 1154400028
I1108 22:29:36.141760 17645 layer_factory.hpp:77] Creating layer conv3_3
I1108 22:29:36.141767 17645 net.cpp:106] Creating Layer conv3_3
I1108 22:29:36.141768 17645 net.cpp:454] conv3_3 <- conv3_2
I1108 22:29:36.141772 17645 net.cpp:411] conv3_3 -> conv3_3
I1108 22:29:36.144609 17645 net.cpp:150] Setting up conv3_3
I1108 22:29:36.144636 17645 net.cpp:157] Top shape: 1 256 150 250 (9600000)
I1108 22:29:36.144640 17645 net.cpp:165] Memory required for data: 1192800028
I1108 22:29:36.144647 17645 layer_factory.hpp:77] Creating layer relu3_3
I1108 22:29:36.144654 17645 net.cpp:106] Creating Layer relu3_3
I1108 22:29:36.144659 17645 net.cpp:454] relu3_3 <- conv3_3
I1108 22:29:36.144665 17645 net.cpp:397] relu3_3 -> conv3_3 (in-place)
I1108 22:29:36.144873 17645 net.cpp:150] Setting up relu3_3
I1108 22:29:36.144896 17645 net.cpp:157] Top shape: 1 256 150 250 (9600000)
I1108 22:29:36.144899 17645 net.cpp:165] Memory required for data: 1231200028
I1108 22:29:36.144903 17645 layer_factory.hpp:77] Creating layer pool3
I1108 22:29:36.144911 17645 net.cpp:106] Creating Layer pool3
I1108 22:29:36.144914 17645 net.cpp:454] pool3 <- conv3_3
I1108 22:29:36.144919 17645 net.cpp:411] pool3 -> pool3
I1108 22:29:36.144999 17645 net.cpp:150] Setting up pool3
I1108 22:29:36.145005 17645 net.cpp:157] Top shape: 1 256 75 125 (2400000)
I1108 22:29:36.145021 17645 net.cpp:165] Memory required for data: 1240800028
I1108 22:29:36.145025 17645 layer_factory.hpp:77] Creating layer conv4_1
I1108 22:29:36.145046 17645 net.cpp:106] Creating Layer conv4_1
I1108 22:29:36.145051 17645 net.cpp:454] conv4_1 <- pool3
I1108 22:29:36.145071 17645 net.cpp:411] conv4_1 -> conv4_1
I1108 22:29:36.150100 17645 net.cpp:150] Setting up conv4_1
I1108 22:29:36.150117 17645 net.cpp:157] Top shape: 1 512 75 125 (4800000)
I1108 22:29:36.150120 17645 net.cpp:165] Memory required for data: 1260000028
I1108 22:29:36.150126 17645 layer_factory.hpp:77] Creating layer relu4_1
I1108 22:29:36.150133 17645 net.cpp:106] Creating Layer relu4_1
I1108 22:29:36.150136 17645 net.cpp:454] relu4_1 <- conv4_1
I1108 22:29:36.150141 17645 net.cpp:397] relu4_1 -> conv4_1 (in-place)
I1108 22:29:36.150703 17645 net.cpp:150] Setting up relu4_1
I1108 22:29:36.150712 17645 net.cpp:157] Top shape: 1 512 75 125 (4800000)
I1108 22:29:36.150714 17645 net.cpp:165] Memory required for data: 1279200028
I1108 22:29:36.150717 17645 layer_factory.hpp:77] Creating layer conv4_2
I1108 22:29:36.150722 17645 net.cpp:106] Creating Layer conv4_2
I1108 22:29:36.150724 17645 net.cpp:454] conv4_2 <- conv4_1
I1108 22:29:36.150727 17645 net.cpp:411] conv4_2 -> conv4_2
I1108 22:29:36.155143 17645 net.cpp:150] Setting up conv4_2
I1108 22:29:36.155160 17645 net.cpp:157] Top shape: 1 512 75 125 (4800000)
I1108 22:29:36.155163 17645 net.cpp:165] Memory required for data: 1298400028
I1108 22:29:36.155170 17645 layer_factory.hpp:77] Creating layer relu4_2
I1108 22:29:36.155184 17645 net.cpp:106] Creating Layer relu4_2
I1108 22:29:36.155210 17645 net.cpp:454] relu4_2 <- conv4_2
I1108 22:29:36.155215 17645 net.cpp:397] relu4_2 -> conv4_2 (in-place)
I1108 22:29:36.155936 17645 net.cpp:150] Setting up relu4_2
I1108 22:29:36.155961 17645 net.cpp:157] Top shape: 1 512 75 125 (4800000)
I1108 22:29:36.155964 17645 net.cpp:165] Memory required for data: 1317600028
I1108 22:29:36.155966 17645 layer_factory.hpp:77] Creating layer conv4_3
I1108 22:29:36.155977 17645 net.cpp:106] Creating Layer conv4_3
I1108 22:29:36.155979 17645 net.cpp:454] conv4_3 <- conv4_2
I1108 22:29:36.155983 17645 net.cpp:411] conv4_3 -> conv4_3
I1108 22:29:36.161185 17645 net.cpp:150] Setting up conv4_3
I1108 22:29:36.161204 17645 net.cpp:157] Top shape: 1 512 75 125 (4800000)
I1108 22:29:36.161207 17645 net.cpp:165] Memory required for data: 1336800028
I1108 22:29:36.161213 17645 layer_factory.hpp:77] Creating layer relu4_3
I1108 22:29:36.161221 17645 net.cpp:106] Creating Layer relu4_3
I1108 22:29:36.161222 17645 net.cpp:454] relu4_3 <- conv4_3
I1108 22:29:36.161227 17645 net.cpp:397] relu4_3 -> conv4_3 (in-place)
I1108 22:29:36.161340 17645 net.cpp:150] Setting up relu4_3
I1108 22:29:36.161346 17645 net.cpp:157] Top shape: 1 512 75 125 (4800000)
I1108 22:29:36.161348 17645 net.cpp:165] Memory required for data: 1356000028
I1108 22:29:36.161350 17645 layer_factory.hpp:77] Creating layer pool4
I1108 22:29:36.161355 17645 net.cpp:106] Creating Layer pool4
I1108 22:29:36.161357 17645 net.cpp:454] pool4 <- conv4_3
I1108 22:29:36.161360 17645 net.cpp:411] pool4 -> pool4
I1108 22:29:36.161399 17645 net.cpp:150] Setting up pool4
I1108 22:29:36.161404 17645 net.cpp:157] Top shape: 1 512 38 63 (1225728)
I1108 22:29:36.161406 17645 net.cpp:165] Memory required for data: 1360902940
I1108 22:29:36.161407 17645 layer_factory.hpp:77] Creating layer conv5_1
I1108 22:29:36.161413 17645 net.cpp:106] Creating Layer conv5_1
I1108 22:29:36.161415 17645 net.cpp:454] conv5_1 <- pool4
I1108 22:29:36.161418 17645 net.cpp:411] conv5_1 -> conv5_1
I1108 22:29:36.165729 17645 net.cpp:150] Setting up conv5_1
I1108 22:29:36.165745 17645 net.cpp:157] Top shape: 1 512 38 63 (1225728)
I1108 22:29:36.165747 17645 net.cpp:165] Memory required for data: 1365805852
I1108 22:29:36.165753 17645 layer_factory.hpp:77] Creating layer relu5_1
I1108 22:29:36.165762 17645 net.cpp:106] Creating Layer relu5_1
I1108 22:29:36.165766 17645 net.cpp:454] relu5_1 <- conv5_1
I1108 22:29:36.165769 17645 net.cpp:397] relu5_1 -> conv5_1 (in-place)
I1108 22:29:36.165881 17645 net.cpp:150] Setting up relu5_1
I1108 22:29:36.165887 17645 net.cpp:157] Top shape: 1 512 38 63 (1225728)
I1108 22:29:36.165889 17645 net.cpp:165] Memory required for data: 1370708764
I1108 22:29:36.165891 17645 layer_factory.hpp:77] Creating layer conv5_2
I1108 22:29:36.165896 17645 net.cpp:106] Creating Layer conv5_2
I1108 22:29:36.165899 17645 net.cpp:454] conv5_2 <- conv5_1
I1108 22:29:36.165902 17645 net.cpp:411] conv5_2 -> conv5_2
I1108 22:29:36.170960 17645 net.cpp:150] Setting up conv5_2
I1108 22:29:36.170996 17645 net.cpp:157] Top shape: 1 512 38 63 (1225728)
I1108 22:29:36.170999 17645 net.cpp:165] Memory required for data: 1375611676
I1108 22:29:36.171005 17645 layer_factory.hpp:77] Creating layer relu5_2
I1108 22:29:36.171012 17645 net.cpp:106] Creating Layer relu5_2
I1108 22:29:36.171015 17645 net.cpp:454] relu5_2 <- conv5_2
I1108 22:29:36.171020 17645 net.cpp:397] relu5_2 -> conv5_2 (in-place)
I1108 22:29:36.171139 17645 net.cpp:150] Setting up relu5_2
I1108 22:29:36.171144 17645 net.cpp:157] Top shape: 1 512 38 63 (1225728)
I1108 22:29:36.171146 17645 net.cpp:165] Memory required for data: 1380514588
I1108 22:29:36.171149 17645 layer_factory.hpp:77] Creating layer conv5_3
I1108 22:29:36.171154 17645 net.cpp:106] Creating Layer conv5_3
I1108 22:29:36.171157 17645 net.cpp:454] conv5_3 <- conv5_2
I1108 22:29:36.171161 17645 net.cpp:411] conv5_3 -> conv5_3
I1108 22:29:36.175475 17645 net.cpp:150] Setting up conv5_3
I1108 22:29:36.175493 17645 net.cpp:157] Top shape: 1 512 38 63 (1225728)
I1108 22:29:36.175495 17645 net.cpp:165] Memory required for data: 1385417500
I1108 22:29:36.175515 17645 layer_factory.hpp:77] Creating layer relu5_3
I1108 22:29:36.175521 17645 net.cpp:106] Creating Layer relu5_3
I1108 22:29:36.175525 17645 net.cpp:454] relu5_3 <- conv5_3
I1108 22:29:36.175529 17645 net.cpp:397] relu5_3 -> conv5_3 (in-place)
I1108 22:29:36.175654 17645 net.cpp:150] Setting up relu5_3
I1108 22:29:36.175660 17645 net.cpp:157] Top shape: 1 512 38 63 (1225728)
I1108 22:29:36.175662 17645 net.cpp:165] Memory required for data: 1390320412
I1108 22:29:36.175664 17645 layer_factory.hpp:77] Creating layer rpn_conv/3x3
I1108 22:29:36.175673 17645 net.cpp:106] Creating Layer rpn_conv/3x3
I1108 22:29:36.175688 17645 net.cpp:454] rpn_conv/3x3 <- conv5_3
I1108 22:29:36.175693 17645 net.cpp:411] rpn_conv/3x3 -> rpn/output
I1108 22:29:36.228215 17645 net.cpp:150] Setting up rpn_conv/3x3
I1108 22:29:36.228231 17645 net.cpp:157] Top shape: 1 512 38 63 (1225728)
I1108 22:29:36.228235 17645 net.cpp:165] Memory required for data: 1395223324
I1108 22:29:36.228255 17645 layer_factory.hpp:77] Creating layer rpn_relu/3x3
I1108 22:29:36.228261 17645 net.cpp:106] Creating Layer rpn_relu/3x3
I1108 22:29:36.228265 17645 net.cpp:454] rpn_relu/3x3 <- rpn/output
I1108 22:29:36.228269 17645 net.cpp:397] rpn_relu/3x3 -> rpn/output (in-place)
I1108 22:29:36.228866 17645 net.cpp:150] Setting up rpn_relu/3x3
I1108 22:29:36.228874 17645 net.cpp:157] Top shape: 1 512 38 63 (1225728)
I1108 22:29:36.228876 17645 net.cpp:165] Memory required for data: 1400126236
I1108 22:29:36.228878 17645 layer_factory.hpp:77] Creating layer rpn/output_rpn_relu/3x3_0_split
I1108 22:29:36.228883 17645 net.cpp:106] Creating Layer rpn/output_rpn_relu/3x3_0_split
I1108 22:29:36.228884 17645 net.cpp:454] rpn/output_rpn_relu/3x3_0_split <- rpn/output
I1108 22:29:36.228888 17645 net.cpp:411] rpn/output_rpn_relu/3x3_0_split -> rpn/output_rpn_relu/3x3_0_split_0
I1108 22:29:36.228907 17645 net.cpp:411] rpn/output_rpn_relu/3x3_0_split -> rpn/output_rpn_relu/3x3_0_split_1
I1108 22:29:36.228948 17645 net.cpp:150] Setting up rpn/output_rpn_relu/3x3_0_split
I1108 22:29:36.228953 17645 net.cpp:157] Top shape: 1 512 38 63 (1225728)
I1108 22:29:36.228974 17645 net.cpp:157] Top shape: 1 512 38 63 (1225728)
I1108 22:29:36.228976 17645 net.cpp:165] Memory required for data: 1409932060
I1108 22:29:36.228978 17645 layer_factory.hpp:77] Creating layer rpn_cls_score
I1108 22:29:36.228998 17645 net.cpp:106] Creating Layer rpn_cls_score
I1108 22:29:36.229001 17645 net.cpp:454] rpn_cls_score <- rpn/output_rpn_relu/3x3_0_split_0
I1108 22:29:36.229005 17645 net.cpp:411] rpn_cls_score -> rpn_cls_score
I1108 22:29:36.230437 17645 net.cpp:150] Setting up rpn_cls_score
I1108 22:29:36.230446 17645 net.cpp:157] Top shape: 1 18 38 63 (43092)
I1108 22:29:36.230450 17645 net.cpp:165] Memory required for data: 1410104428
I1108 22:29:36.230456 17645 layer_factory.hpp:77] Creating layer rpn_cls_score_rpn_cls_score_0_split
I1108 22:29:36.230475 17645 net.cpp:106] Creating Layer rpn_cls_score_rpn_cls_score_0_split
I1108 22:29:36.230479 17645 net.cpp:454] rpn_cls_score_rpn_cls_score_0_split <- rpn_cls_score
I1108 22:29:36.230484 17645 net.cpp:411] rpn_cls_score_rpn_cls_score_0_split -> rpn_cls_score_rpn_cls_score_0_split_0
I1108 22:29:36.230492 17645 net.cpp:411] rpn_cls_score_rpn_cls_score_0_split -> rpn_cls_score_rpn_cls_score_0_split_1
I1108 22:29:36.230545 17645 net.cpp:150] Setting up rpn_cls_score_rpn_cls_score_0_split
I1108 22:29:36.230572 17645 net.cpp:157] Top shape: 1 18 38 63 (43092)
I1108 22:29:36.230576 17645 net.cpp:157] Top shape: 1 18 38 63 (43092)
I1108 22:29:36.230579 17645 net.cpp:165] Memory required for data: 1410449164
I1108 22:29:36.230583 17645 layer_factory.hpp:77] Creating layer rpn_bbox_pred
I1108 22:29:36.230593 17645 net.cpp:106] Creating Layer rpn_bbox_pred
I1108 22:29:36.230597 17645 net.cpp:454] rpn_bbox_pred <- rpn/output_rpn_relu/3x3_0_split_1
I1108 22:29:36.230615 17645 net.cpp:411] rpn_bbox_pred -> rpn_bbox_pred
I1108 22:29:36.232576 17645 net.cpp:150] Setting up rpn_bbox_pred
I1108 22:29:36.232584 17645 net.cpp:157] Top shape: 1 36 38 63 (86184)
I1108 22:29:36.232587 17645 net.cpp:165] Memory required for data: 1410793900
I1108 22:29:36.232591 17645 layer_factory.hpp:77] Creating layer rpn_cls_score_reshape
I1108 22:29:36.232596 17645 net.cpp:106] Creating Layer rpn_cls_score_reshape
I1108 22:29:36.232614 17645 net.cpp:454] rpn_cls_score_reshape <- rpn_cls_score_rpn_cls_score_0_split_0
I1108 22:29:36.232617 17645 net.cpp:411] rpn_cls_score_reshape -> rpn_cls_score_reshape
I1108 22:29:36.232647 17645 net.cpp:150] Setting up rpn_cls_score_reshape
I1108 22:29:36.232651 17645 net.cpp:157] Top shape: 1 2 342 63 (43092)
I1108 22:29:36.232653 17645 net.cpp:165] Memory required for data: 1410966268
I1108 22:29:36.232656 17645 layer_factory.hpp:77] Creating layer rpn-data
I1108 22:29:36.233609 17645 net.cpp:106] Creating Layer rpn-data
I1108 22:29:36.233618 17645 net.cpp:454] rpn-data <- rpn_cls_score_rpn_cls_score_0_split_1
I1108 22:29:36.233620 17645 net.cpp:454] rpn-data <- gt_boxes
I1108 22:29:36.233623 17645 net.cpp:454] rpn-data <- im_info
I1108 22:29:36.233625 17645 net.cpp:454] rpn-data <- data_input-data_0_split_1
I1108 22:29:36.233628 17645 net.cpp:411] rpn-data -> rpn_labels
I1108 22:29:36.233647 17645 net.cpp:411] rpn-data -> rpn_bbox_targets
I1108 22:29:36.233651 17645 net.cpp:411] rpn-data -> rpn_bbox_inside_weights
I1108 22:29:36.233656 17645 net.cpp:411] rpn-data -> rpn_bbox_outside_weights
I1108 22:29:36.234156 17645 net.cpp:150] Setting up rpn-data
I1108 22:29:36.234179 17645 net.cpp:157] Top shape: 1 1 342 63 (21546)
I1108 22:29:36.234182 17645 net.cpp:157] Top shape: 1 36 38 63 (86184)
I1108 22:29:36.234185 17645 net.cpp:157] Top shape: 1 36 38 63 (86184)
I1108 22:29:36.234187 17645 net.cpp:157] Top shape: 1 36 38 63 (86184)
I1108 22:29:36.234189 17645 net.cpp:165] Memory required for data: 1412086660
I1108 22:29:36.234191 17645 layer_factory.hpp:77] Creating layer rpn_loss_cls
I1108 22:29:36.234197 17645 net.cpp:106] Creating Layer rpn_loss_cls
I1108 22:29:36.234200 17645 net.cpp:454] rpn_loss_cls <- rpn_cls_score_reshape
I1108 22:29:36.234202 17645 net.cpp:454] rpn_loss_cls <- rpn_labels
I1108 22:29:36.234206 17645 net.cpp:411] rpn_loss_cls -> rpn_cls_loss
…
I1108 22:29:36.235863 17645 net.cpp:150] Setting up rpn_loss_bbox
I1108 22:29:36.235867 17645 net.cpp:157] Top shape: (1)
I1108 22:29:36.235884 17645 net.cpp:160]     with loss weight 1
I1108 22:29:36.235887 17645 net.cpp:165] Memory required for data: 1412086668
I1108 22:29:36.235889 17645 layer_factory.hpp:77] Creating layer dummy_roi_pool_conv5
I1108 22:29:36.235894 17645 net.cpp:106] Creating Layer dummy_roi_pool_conv5
I1108 22:29:36.235898 17645 net.cpp:411] dummy_roi_pool_conv5 -> dummy_roi_pool_conv5
I1108 22:29:36.235968 17645 net.cpp:150] Setting up dummy_roi_pool_conv5
I1108 22:29:36.235973 17645 net.cpp:157] Top shape: 1 25088 (25088)
I1108 22:29:36.235990 17645 net.cpp:165] Memory required for data: 1412187020
I1108 22:29:36.235991 17645 layer_factory.hpp:77] Creating layer fc6
I1108 22:29:36.235996 17645 net.cpp:106] Creating Layer fc6
I1108 22:29:36.235998 17645 net.cpp:454] fc6 <- dummy_roi_pool_conv5
I1108 22:29:36.236001 17645 net.cpp:411] fc6 -> fc6
I1108 22:29:36.362964 17645 net.cpp:150] Setting up fc6
I1108 22:29:36.362983 17645 net.cpp:157] Top shape: 1 4096 (4096)
I1108 22:29:36.362985 17645 net.cpp:165] Memory required for data: 1412203404
I1108 22:29:36.363009 17645 layer_factory.hpp:77] Creating layer relu6
I1108 22:29:36.363016 17645 net.cpp:106] Creating Layer relu6
I1108 22:29:36.363020 17645 net.cpp:454] relu6 <- fc6
I1108 22:29:36.363023 17645 net.cpp:397] relu6 -> fc6 (in-place)
I1108 22:29:36.363193 17645 net.cpp:150] Setting up relu6
I1108 22:29:36.363199 17645 net.cpp:157] Top shape: 1 4096 (4096)
I1108 22:29:36.363201 17645 net.cpp:165] Memory required for data: 1412219788
I1108 22:29:36.363204 17645 layer_factory.hpp:77] Creating layer drop6
I1108 22:29:36.363209 17645 net.cpp:106] Creating Layer drop6
I1108 22:29:36.363210 17645 net.cpp:454] drop6 <- fc6
I1108 22:29:36.363214 17645 net.cpp:397] drop6 -> fc6 (in-place)
I1108 22:29:36.363256 17645 net.cpp:150] Setting up drop6
I1108 22:29:36.363260 17645 net.cpp:157] Top shape: 1 4096 (4096)
I1108 22:29:36.363262 17645 net.cpp:165] Memory required for data: 1412236172
I1108 22:29:36.363265 17645 layer_factory.hpp:77] Creating layer fc7
I1108 22:29:36.363268 17645 net.cpp:106] Creating Layer fc7
I1108 22:29:36.363270 17645 net.cpp:454] fc7 <- fc6
I1108 22:29:36.363274 17645 net.cpp:411] fc7 -> fc7
I1108 22:29:36.384194 17645 net.cpp:150] Setting up fc7
I1108 22:29:36.384223 17645 net.cpp:157] Top shape: 1 4096 (4096)
I1108 22:29:36.384227 17645 net.cpp:165] Memory required for data: 1412252556
I1108 22:29:36.384253 17645 layer_factory.hpp:77] Creating layer silence_fc7
I1108 22:29:36.384263 17645 net.cpp:106] Creating Layer silence_fc7
I1108 22:29:36.384268 17645 net.cpp:454] silence_fc7 <- fc7
I1108 22:29:36.384274 17645 net.cpp:150] Setting up silence_fc7
I1108 22:29:36.384279 17645 net.cpp:165] Memory required for data: 1412252556
…
           'SCALES': [600],
           'SNAPSHOT_INFIX': 'stage1',
           'SNAPSHOT_ITERS': 10000,
           'USE_FLIPPED': True,
           'USE_PREFETCH': False},
 'USE_GPU_NMS': True}
Loaded dataset `voc_2007_trainval` for proposal generation
WARNING: Logging before InitGoogleLogging() is written to STDERR
I1108 22:48:45.058259 24154 net.cpp:49] Initializing net from parameters: 
name: "VGG_ILSVRC_16_layers"
input: "data"
input: "im_info"
state {
  phase: TEST
}
input_shape {
  dim: 1
  dim: 3
  dim: 224
  dim: 224
}
input_shape {
  dim: 1
  dim: 3
}
layer {
  name: "conv1_1"
  type: "Convolution"
  bottom: "data"
  top: "conv1_1"
  convolution_param {
    num_output: 64
    pad: 1
    kernel_size: 3
  }
}
layer {
  name: "relu1_1"
  type: "ReLU"
  bottom: "conv1_1"
  top: "conv1_1"
}
layer {
  name: "conv1_2"
  type: "Convolution"
  bottom: "conv1_1"
  top: "conv1_2"
  convolution_param {
    num_output: 64
    pad: 1
    kernel_size: 3
  }
}
layer {
  name: "relu1_2"
  type: "ReLU"
  bottom: "conv1_2"
  top: "conv1_2"
}
layer {
  name: "pool1"
  type: "Pooling"
  bottom: "conv1_2"
  top: "pool1"
  pooling_param {
    pool: MAX
    kernel_size: 2
    stride: 2
  }
}
layer {
  name: "conv2_1"
  type: "Convolution"
  bottom: "pool1"
  top: "conv2_1"
  convolution_param {
    num_output: 128
    pad: 1
    kernel_size: 3
  }
}
layer {
  name: "relu2_1"
  type: "ReLU"
  bottom: "conv2_1"
  top: "conv2_1"
}
layer {
  name: "conv2_2"
  type: "Convolution"
  bottom: "conv2_1"
  top: "conv2_2"
  convolution_param {
    num_output: 128
    pad: 1
    kernel_size: 3
  }
}
layer {
  name: "relu2_2"
  type: "ReLU"
  bottom: "conv2_2"
  top: "conv2_2"
}
layer {
  name: "pool2"
  type: "Pooling"
  bottom: "conv2_2"
  top: "pool2"
  pooling_param {
    pool: MAX
    kernel_size: 2
    stride: 2
  }
}
layer {
  name: "conv3_1"
  type: "Convolution"
  bottom: "pool2"
  top: "conv3_1"
  convolution_param {
    num_output: 256
    pad: 1
    kernel_size: 3
  }
}
layer {
  name: "relu3_1"
  type: "ReLU"
  bottom: "conv3_1"
  top: "conv3_1"
}
layer {
  name: "conv3_2"
  type: "Convolution"
  bottom: "conv3_1"
  top: "conv3_2"
  convolution_param {
    num_output: 256
    pad: 1
    kernel_size: 3
  }
}
layer {
  name: "relu3_2"
  type: "ReLU"
  bottom: "conv3_2"
  top: "conv3_2"
}
layer {
  name: "conv3_3"
  type: "Convolution"
  bottom: "conv3_2"
  top: "conv3_3"
  convolution_param {
    num_output: 256
    pad: 1
    kernel_size: 3
  }
}
layer {
  name: "relu3_3"
  type: "ReLU"
  bottom: "conv3_3"
  top: "conv3_3"
}
layer {
  name: "pool3"
  type: "Pooling"
  bottom: "conv3_3"
  top: "pool3"
  pooling_param {
    pool: MAX
    kernel_size: 2
    stride: 2
  }
}
layer {
  name: "conv4_1"
  type: "Convolution"
  bottom: "pool3"
  top: "conv4_1"
  convolution_param {
    num_output: 512
    pad: 1
    kernel_size: 3
  }
}
layer {
  name: "relu4_1"
  type: "ReLU"
  bottom: "conv4_1"
  top: "conv4_1"
}
layer {
  name: "conv4_2"
  type: "Convolution"
  bottom: "conv4_1"
  top: "conv4_2"
  convolution_param {
    num_output: 512
    pad: 1
    kernel_size: 3
  }
}
layer {
  name: "relu4_2"
  type: "ReLU"
  bottom: "conv4_2"
  top: "conv4_2"
}
layer {
  name: "conv4_3"
  type: "Convolution"
  bottom: "conv4_2"
  top: "conv4_3"
  convolution_param {
    num_output: 512
    pad: 1
    kernel_size: 3
  }
}
layer {
  name: "relu4_3"
  type: "ReLU"
  bottom: "conv4_3"
  top: "conv4_3"
}
layer {
  name: "pool4"
  type: "Pooling"
  bottom: "conv4_3"
  top: "pool4"
  pooling_param {
    pool: MAX
    kernel_size: 2
    stride: 2
  }
}
layer {
  name: "conv5_1"
  type: "Convolution"
  bottom: "pool4"
  top: "conv5_1"
  convolution_param {
    num_output: 512
    pad: 1
    kernel_size: 3
  }
}
layer {
  name: "relu5_1"
  type: "ReLU"
  bottom: "conv5_1"
  top: "conv5_1"
}
layer {
  name: "conv5_2"
  type: "Convolution"
  bottom: "conv5_1"
  top: "conv5_2"
  convolution_param {
    num_output: 512
    pad: 1
    kernel_size: 3
  }
}
layer {
  name: "relu5_2"
  type: "ReLU"
  bottom: "conv5_2"
  top: "conv5_2"
}
layer {
  name: "conv5_3"
  type: "Convolution"
  bottom: "conv5_2"
  top: "conv5_3"
  convolution_param {
    num_output: 512
    pad: 1
    kernel_size: 3
  }
}
layer {
  name: "relu5_3"
  type: "ReLU"
  bottom: "conv5_3"
  top: "conv5_3"
}
layer {
  name: "rpn_conv/3x3"
  type: "Convolution"
  bottom: "conv5_3"
  top: "rpn/output"
  convolution_param {
    num_output: 512
    pad: 1
    kernel_size: 3
    stride: 1
  }
}
layer {
  name: "rpn_relu/3x3"
  type: "ReLU"
  bottom: "rpn/output"
  top: "rpn/output"
}
layer {
  name: "rpn_cls_score"
  type: "Convolution"
  bottom: "rpn/output"
  top: "rpn_cls_score"
  convolution_param {
    num_output: 18
    pad: 0
    kernel_size: 1
    stride: 1
  }
}
layer {
  name: "rpn_bbox_pred"
  type: "Convolution"
  bottom: "rpn/output"
  top: "rpn_bbox_pred"
  convolution_param {
    num_output: 36
    pad: 0
    kernel_size: 1
    stride: 1
  }
}
layer {
  name: "rpn_cls_score_reshape"
  type: "Reshape"
  bottom: "rpn_cls_score"
  top: "rpn_cls_score_reshape"
  reshape_param {
    shape {
      dim: 0
      dim: 2
      dim: -1
      dim: 0
    }
  }
}
layer {
  name: "rpn_cls_prob"
  type: "Softmax"
  bottom: "rpn_cls_score_reshape"
  top: "rpn_cls_prob"
}
layer {
  name: "rpn_cls_prob_reshape"
  type: "Reshape"
  bottom: "rpn_cls_prob"
  top: "rpn_cls_prob_reshape"
  reshape_param {
    shape {
      dim: 0
      dim: 18
      dim: -1
      dim: 0
    }
  }
}
layer {
  name: "proposal"
  type: "Python"
  bottom: "rpn_cls_prob_reshape"
  bottom: "rpn_bbox_pred"
  bottom: "im_info"
  top: "rois"
  top: "scores"
  python_param {
    module: "rpn.proposal_layer"
    layer: "ProposalLayer"
    param_str: "\'feat_stride\': 16"
  }
}
I1108 22:48:45.058358 24154 net.cpp:413] Input 0 -> data
I1108 22:48:45.065917 24154 net.cpp:413] Input 1 -> im_info
I1108 22:48:45.065959 24154 layer_factory.hpp:77] Creating layer conv1_1
I1108 22:48:45.065979 24154 net.cpp:106] Creating Layer conv1_1
I1108 22:48:45.065982 24154 net.cpp:454] conv1_1 <- data
I1108 22:48:45.065989 24154 net.cpp:411] conv1_1 -> conv1_1
I1108 22:48:45.245410 24154 net.cpp:150] Setting up conv1_1
I1108 22:48:45.245429 24154 net.cpp:157] Top shape: 1 64 224 224 (3211264)
I1108 22:48:45.245432 24154 net.cpp:165] Memory required for data: 12845056
I1108 22:48:45.245446 24154 layer_factory.hpp:77] Creating layer relu1_1
I1108 22:48:45.245455 24154 net.cpp:106] Creating Layer relu1_1
I1108 22:48:45.245457 24154 net.cpp:454] relu1_1 <- conv1_1
I1108 22:48:45.245460 24154 net.cpp:397] relu1_1 -> conv1_1 (in-place)
I1108 22:48:45.245615 24154 net.cpp:150] Setting up relu1_1
I1108 22:48:45.245621 24154 net.cpp:157] Top shape: 1 64 224 224 (3211264)
I1108 22:48:45.245623 24154 net.cpp:165] Memory required for data: 25690112
I1108 22:48:45.245625 24154 layer_factory.hpp:77] Creating layer conv1_2
I1108 22:48:45.245631 24154 net.cpp:106] Creating Layer conv1_2
I1108 22:48:45.245635 24154 net.cpp:454] conv1_2 <- conv1_1
I1108 22:48:45.245636 24154 net.cpp:411] conv1_2 -> conv1_2
I1108 22:48:45.246731 24154 net.cpp:150] Setting up conv1_2
I1108 22:48:45.246739 24154 net.cpp:157] Top shape: 1 64 224 224 (3211264)
I1108 22:48:45.246742 24154 net.cpp:165] Memory required for data: 38535168
I1108 22:48:45.246747 24154 layer_factory.hpp:77] Creating layer relu1_2
I1108 22:48:45.246752 24154 net.cpp:106] Creating Layer relu1_2
I1108 22:48:45.246753 24154 net.cpp:454] relu1_2 <- conv1_2
I1108 22:48:45.246757 24154 net.cpp:397] relu1_2 -> conv1_2 (in-place)
I1108 22:48:45.247370 24154 net.cpp:150] Setting up relu1_2
I1108 22:48:45.247378 24154 net.cpp:157] Top shape: 1 64 224 224 (3211264)
I1108 22:48:45.247380 24154 net.cpp:165] Memory required for data: 51380224
I1108 22:48:45.247383 24154 layer_factory.hpp:77] Creating layer pool1
I1108 22:48:45.247388 24154 net.cpp:106] Creating Layer pool1
I1108 22:48:45.247390 24154 net.cpp:454] pool1 <- conv1_2
I1108 22:48:45.247393 24154 net.cpp:411] pool1 -> pool1
I1108 22:48:45.247450 24154 net.cpp:150] Setting up pool1
I1108 22:48:45.247470 24154 net.cpp:157] Top shape: 1 64 112 112 (802816)
I1108 22:48:45.247473 24154 net.cpp:165] Memory required for data: 54591488
I1108 22:48:45.247474 24154 layer_factory.hpp:77] Creating layer conv2_1
I1108 22:48:45.247479 24154 net.cpp:106] Creating Layer conv2_1
I1108 22:48:45.247481 24154 net.cpp:454] conv2_1 <- pool1
I1108 22:48:45.247484 24154 net.cpp:411] conv2_1 -> conv2_1
I1108 22:48:45.249887 24154 net.cpp:150] Setting up conv2_1
I1108 22:48:45.249902 24154 net.cpp:157] Top shape: 1 128 112 112 (1605632)
I1108 22:48:45.249904 24154 net.cpp:165] Memory required for data: 61014016
I1108 22:48:45.249912 24154 layer_factory.hpp:77] Creating layer relu2_1
I1108 22:48:45.249917 24154 net.cpp:106] Creating Layer relu2_1
I1108 22:48:45.249920 24154 net.cpp:454] relu2_1 <- conv2_1
I1108 22:48:45.249924 24154 net.cpp:397] relu2_1 -> conv2_1 (in-place)
I1108 22:48:45.250504 24154 net.cpp:150] Setting up relu2_1
I1108 22:48:45.250512 24154 net.cpp:157] Top shape: 1 128 112 112 (1605632)
I1108 22:48:45.250514 24154 net.cpp:165] Memory required for data: 67436544
I1108 22:48:45.250517 24154 layer_factory.hpp:77] Creating layer conv2_2
I1108 22:48:45.250524 24154 net.cpp:106] Creating Layer conv2_2
I1108 22:48:45.250525 24154 net.cpp:454] conv2_2 <- conv2_1
I1108 22:48:45.250530 24154 net.cpp:411] conv2_2 -> conv2_2
I1108 22:48:45.252120 24154 net.cpp:150] Setting up conv2_2
I1108 22:48:45.252128 24154 net.cpp:157] Top shape: 1 128 112 112 (1605632)
I1108 22:48:45.252131 24154 net.cpp:165] Memory required for data: 73859072
I1108 22:48:45.252136 24154 layer_factory.hpp:77] Creating layer relu2_2
I1108 22:48:45.252142 24154 net.cpp:106] Creating Layer relu2_2
I1108 22:48:45.252144 24154 net.cpp:454] relu2_2 <- conv2_2
I1108 22:48:45.252147 24154 net.cpp:397] relu2_2 -> conv2_2 (in-place)
I1108 22:48:45.252286 24154 net.cpp:150] Setting up relu2_2
I1108 22:48:45.252293 24154 net.cpp:157] Top shape: 1 128 112 112 (1605632)
I1108 22:48:45.252295 24154 net.cpp:165] Memory required for data: 80281600
I1108 22:48:45.252297 24154 layer_factory.hpp:77] Creating layer pool2
I1108 22:48:45.252301 24154 net.cpp:106] Creating Layer pool2
I1108 22:48:45.252303 24154 net.cpp:454] pool2 <- conv2_2
I1108 22:48:45.252306 24154 net.cpp:411] pool2 -> pool2
I1108 22:48:45.252359 24154 net.cpp:150] Setting up pool2
I1108 22:48:45.252377 24154 net.cpp:157] Top shape: 1 128 56 56 (401408)
I1108 22:48:45.252379 24154 net.cpp:165] Memory required for data: 81887232
I1108 22:48:45.252380 24154 layer_factory.hpp:77] Creating layer conv3_1
I1108 22:48:45.252400 24154 net.cpp:106] Creating Layer conv3_1
I1108 22:48:45.252403 24154 net.cpp:454] conv3_1 <- pool2
I1108 22:48:45.252405 24154 net.cpp:411] conv3_1 -> conv3_1
I1108 22:48:45.254067 24154 net.cpp:150] Setting up conv3_1
I1108 22:48:45.254077 24154 net.cpp:157] Top shape: 1 256 56 56 (802816)
I1108 22:48:45.254079 24154 net.cpp:165] Memory required for data: 85098496
I1108 22:48:45.254086 24154 layer_factory.hpp:77] Creating layer relu3_1
I1108 22:48:45.254089 24154 net.cpp:106] Creating Layer relu3_1
I1108 22:48:45.254091 24154 net.cpp:454] relu3_1 <- conv3_1
I1108 22:48:45.254096 24154 net.cpp:397] relu3_1 -> conv3_1 (in-place)
I1108 22:48:45.254209 24154 net.cpp:150] Setting up relu3_1
I1108 22:48:45.254215 24154 net.cpp:157] Top shape: 1 256 56 56 (802816)
I1108 22:48:45.254216 24154 net.cpp:165] Memory required for data: 88309760
I1108 22:48:45.254218 24154 layer_factory.hpp:77] Creating layer conv3_2
I1108 22:48:45.254226 24154 net.cpp:106] Creating Layer conv3_2
I1108 22:48:45.254228 24154 net.cpp:454] conv3_2 <- conv3_1
I1108 22:48:45.254231 24154 net.cpp:411] conv3_2 -> conv3_2
I1108 22:48:45.257529 24154 net.cpp:150] Setting up conv3_2
I1108 22:48:45.257561 24154 net.cpp:157] Top shape: 1 256 56 56 (802816)
I1108 22:48:45.257565 24154 net.cpp:165] Memory required for data: 91521024
I1108 22:48:45.257575 24154 layer_factory.hpp:77] Creating layer relu3_2
I1108 22:48:45.257582 24154 net.cpp:106] Creating Layer relu3_2
I1108 22:48:45.257586 24154 net.cpp:454] relu3_2 <- conv3_2
I1108 22:48:45.257591 24154 net.cpp:397] relu3_2 -> conv3_2 (in-place)
I1108 22:48:45.257726 24154 net.cpp:150] Setting up relu3_2
I1108 22:48:45.257732 24154 net.cpp:157] Top shape: 1 256 56 56 (802816)
I1108 22:48:45.257735 24154 net.cpp:165] Memory required for data: 94732288
I1108 22:48:45.257737 24154 layer_factory.hpp:77] Creating layer conv3_3
I1108 22:48:45.257758 24154 net.cpp:106] Creating Layer conv3_3
I1108 22:48:45.257761 24154 net.cpp:454] conv3_3 <- conv3_2
I1108 22:48:45.257763 24154 net.cpp:411] conv3_3 -> conv3_3
I1108 22:48:45.260696 24154 net.cpp:150] Setting up conv3_3
I1108 22:48:45.260715 24154 net.cpp:157] Top shape: 1 256 56 56 (802816)
I1108 22:48:45.260717 24154 net.cpp:165] Memory required for data: 97943552
I1108 22:48:45.260725 24154 layer_factory.hpp:77] Creating layer relu3_3
I1108 22:48:45.260731 24154 net.cpp:106] Creating Layer relu3_3
I1108 22:48:45.260735 24154 net.cpp:454] relu3_3 <- conv3_3
I1108 22:48:45.260738 24154 net.cpp:397] relu3_3 -> conv3_3 (in-place)
I1108 22:48:45.260886 24154 net.cpp:150] Setting up relu3_3
I1108 22:48:45.260892 24154 net.cpp:157] Top shape: 1 256 56 56 (802816)
I1108 22:48:45.260895 24154 net.cpp:165] Memory required for data: 101154816
I1108 22:48:45.260896 24154 layer_factory.hpp:77] Creating layer pool3
I1108 22:48:45.260902 24154 net.cpp:106] Creating Layer pool3
I1108 22:48:45.260905 24154 net.cpp:454] pool3 <- conv3_3
I1108 22:48:45.260907 24154 net.cpp:411] pool3 -> pool3
I1108 22:48:45.260979 24154 net.cpp:150] Setting up pool3
I1108 22:48:45.260983 24154 net.cpp:157] Top shape: 1 256 28 28 (200704)
I1108 22:48:45.260999 24154 net.cpp:165] Memory required for data: 101957632
I1108 22:48:45.261001 24154 layer_factory.hpp:77] Creating layer conv4_1
I1108 22:48:45.261008 24154 net.cpp:106] Creating Layer conv4_1
I1108 22:48:45.261023 24154 net.cpp:454] conv4_1 <- pool3
I1108 22:48:45.261026 24154 net.cpp:411] conv4_1 -> conv4_1
I1108 22:48:45.265084 24154 net.cpp:150] Setting up conv4_1
I1108 22:48:45.265100 24154 net.cpp:157] Top shape: 1 512 28 28 (401408)
I1108 22:48:45.265103 24154 net.cpp:165] Memory required for data: 103563264
I1108 22:48:45.265110 24154 layer_factory.hpp:77] Creating layer relu4_1
I1108 22:48:45.265116 24154 net.cpp:106] Creating Layer relu4_1
I1108 22:48:45.265120 24154 net.cpp:454] relu4_1 <- conv4_1
I1108 22:48:45.265123 24154 net.cpp:397] relu4_1 -> conv4_1 (in-place)
I1108 22:48:45.265714 24154 net.cpp:150] Setting up relu4_1
I1108 22:48:45.265722 24154 net.cpp:157] Top shape: 1 512 28 28 (401408)
I1108 22:48:45.265725 24154 net.cpp:165] Memory required for data: 105168896
I1108 22:48:45.265727 24154 layer_factory.hpp:77] Creating layer conv4_2
I1108 22:48:45.265733 24154 net.cpp:106] Creating Layer conv4_2
I1108 22:48:45.265736 24154 net.cpp:454] conv4_2 <- conv4_1
I1108 22:48:45.265740 24154 net.cpp:411] conv4_2 -> conv4_2
I1108 22:48:45.270965 24154 net.cpp:150] Setting up conv4_2
I1108 22:48:45.270998 24154 net.cpp:157] Top shape: 1 512 28 28 (401408)
I1108 22:48:45.271003 24154 net.cpp:165] Memory required for data: 106774528
I1108 22:48:45.271011 24154 layer_factory.hpp:77] Creating layer relu4_2
I1108 22:48:45.271019 24154 net.cpp:106] Creating Layer relu4_2
I1108 22:48:45.271023 24154 net.cpp:454] relu4_2 <- conv4_2
I1108 22:48:45.271042 24154 net.cpp:397] relu4_2 -> conv4_2 (in-place)
I1108 22:48:45.271644 24154 net.cpp:150] Setting up relu4_2
I1108 22:48:45.271668 24154 net.cpp:157] Top shape: 1 512 28 28 (401408)
I1108 22:48:45.271670 24154 net.cpp:165] Memory required for data: 108380160
I1108 22:48:45.271673 24154 layer_factory.hpp:77] Creating layer conv4_3
I1108 22:48:45.271680 24154 net.cpp:106] Creating Layer conv4_3
I1108 22:48:45.271682 24154 net.cpp:454] conv4_3 <- conv4_2
I1108 22:48:45.271685 24154 net.cpp:411] conv4_3 -> conv4_3
I1108 22:48:45.276513 24154 net.cpp:150] Setting up conv4_3
I1108 22:48:45.276535 24154 net.cpp:157] Top shape: 1 512 28 28 (401408)
I1108 22:48:45.276540 24154 net.cpp:165] Memory required for data: 109985792
I1108 22:48:45.276548 24154 layer_factory.hpp:77] Creating layer relu4_3
I1108 22:48:45.276557 24154 net.cpp:106] Creating Layer relu4_3
I1108 22:48:45.276576 24154 net.cpp:454] relu4_3 <- conv4_3
I1108 22:48:45.276584 24154 net.cpp:397] relu4_3 -> conv4_3 (in-place)
I1108 22:48:45.276710 24154 net.cpp:150] Setting up relu4_3
I1108 22:48:45.276716 24154 net.cpp:157] Top shape: 1 512 28 28 (401408)
I1108 22:48:45.276721 24154 net.cpp:165] Memory required for data: 111591424
I1108 22:48:45.276723 24154 layer_factory.hpp:77] Creating layer pool4
I1108 22:48:45.276729 24154 net.cpp:106] Creating Layer pool4
I1108 22:48:45.276737 24154 net.cpp:454] pool4 <- conv4_3
I1108 22:48:45.276747 24154 net.cpp:411] pool4 -> pool4
I1108 22:48:45.276796 24154 net.cpp:150] Setting up pool4
I1108 22:48:45.276803 24154 net.cpp:157] Top shape: 1 512 14 14 (100352)
I1108 22:48:45.276805 24154 net.cpp:165] Memory required for data: 111992832
I1108 22:48:45.276809 24154 layer_factory.hpp:77] Creating layer conv5_1
I1108 22:48:45.276818 24154 net.cpp:106] Creating Layer conv5_1
I1108 22:48:45.276823 24154 net.cpp:454] conv5_1 <- pool4
I1108 22:48:45.276828 24154 net.cpp:411] conv5_1 -> conv5_1
I1108 22:48:45.282061 24154 net.cpp:150] Setting up conv5_1
I1108 22:48:45.282105 24154 net.cpp:157] Top shape: 1 512 14 14 (100352)
I1108 22:48:45.282110 24154 net.cpp:165] Memory required for data: 112394240
I1108 22:48:45.282121 24154 layer_factory.hpp:77] Creating layer relu5_1
I1108 22:48:45.282136 24154 net.cpp:106] Creating Layer relu5_1
I1108 22:48:45.282143 24154 net.cpp:454] relu5_1 <- conv5_1
I1108 22:48:45.282151 24154 net.cpp:397] relu5_1 -> conv5_1 (in-place)
I1108 22:48:45.282325 24154 net.cpp:150] Setting up relu5_1
I1108 22:48:45.282331 24154 net.cpp:157] Top shape: 1 512 14 14 (100352)
I1108 22:48:45.282348 24154 net.cpp:165] Memory required for data: 112795648
I1108 22:48:45.282351 24154 layer_factory.hpp:77] Creating layer conv5_2
I1108 22:48:45.282356 24154 net.cpp:106] Creating Layer conv5_2
I1108 22:48:45.282359 24154 net.cpp:454] conv5_2 <- conv5_1
I1108 22:48:45.282363 24154 net.cpp:411] conv5_2 -> conv5_2
I1108 22:48:45.286821 24154 net.cpp:150] Setting up conv5_2
I1108 22:48:45.286852 24154 net.cpp:157] Top shape: 1 512 14 14 (100352)
I1108 22:48:45.286855 24154 net.cpp:165] Memory required for data: 113197056
I1108 22:48:45.286862 24154 layer_factory.hpp:77] Creating layer relu5_2
I1108 22:48:45.286870 24154 net.cpp:106] Creating Layer relu5_2
I1108 22:48:45.286872 24154 net.cpp:454] relu5_2 <- conv5_2
I1108 22:48:45.286877 24154 net.cpp:397] relu5_2 -> conv5_2 (in-place)
I1108 22:48:45.286998 24154 net.cpp:150] Setting up relu5_2
I1108 22:48:45.287004 24154 net.cpp:157] Top shape: 1 512 14 14 (100352)
I1108 22:48:45.287008 24154 net.cpp:165] Memory required for data: 113598464
I1108 22:48:45.287009 24154 layer_factory.hpp:77] Creating layer conv5_3
I1108 22:48:45.287014 24154 net.cpp:106] Creating Layer conv5_3
I1108 22:48:45.287017 24154 net.cpp:454] conv5_3 <- conv5_2
I1108 22:48:45.287020 24154 net.cpp:411] conv5_3 -> conv5_3
I1108 22:48:45.291501 24154 net.cpp:150] Setting up conv5_3
I1108 22:48:45.291532 24154 net.cpp:157] Top shape: 1 512 14 14 (100352)
I1108 22:48:45.291535 24154 net.cpp:165] Memory required for data: 113999872
I1108 22:48:45.291543 24154 layer_factory.hpp:77] Creating layer relu5_3
I1108 22:48:45.291550 24154 net.cpp:106] Creating Layer relu5_3
I1108 22:48:45.291553 24154 net.cpp:454] relu5_3 <- conv5_3
I1108 22:48:45.291558 24154 net.cpp:397] relu5_3 -> conv5_3 (in-place)
I1108 22:48:45.291692 24154 net.cpp:150] Setting up relu5_3
I1108 22:48:45.291698 24154 net.cpp:157] Top shape: 1 512 14 14 (100352)
I1108 22:48:45.291714 24154 net.cpp:165] Memory required for data: 114401280
I1108 22:48:45.291716 24154 layer_factory.hpp:77] Creating layer rpn_conv/3x3
I1108 22:48:45.291723 24154 net.cpp:106] Creating Layer rpn_conv/3x3
I1108 22:48:45.291725 24154 net.cpp:454] rpn_conv/3x3 <- conv5_3
I1108 22:48:45.291729 24154 net.cpp:411] rpn_conv/3x3 -> rpn/output
I1108 22:48:45.297221 24154 net.cpp:150] Setting up rpn_conv/3x3
I1108 22:48:45.297255 24154 net.cpp:157] Top shape: 1 512 14 14 (100352)
I1108 22:48:45.297258 24154 net.cpp:165] Memory required for data: 114802688
I1108 22:48:45.297266 24154 layer_factory.hpp:77] Creating layer rpn_relu/3x3
I1108 22:48:45.297272 24154 net.cpp:106] Creating Layer rpn_relu/3x3
I1108 22:48:45.297276 24154 net.cpp:454] rpn_relu/3x3 <- rpn/output
I1108 22:48:45.297281 24154 net.cpp:397] rpn_relu/3x3 -> rpn/output (in-place)
I1108 22:48:45.297907 24154 net.cpp:150] Setting up rpn_relu/3x3
I1108 22:48:45.297931 24154 net.cpp:157] Top shape: 1 512 14 14 (100352)
I1108 22:48:45.297935 24154 net.cpp:165] Memory required for data: 115204096
I1108 22:48:45.297936 24154 layer_factory.hpp:77] Creating layer rpn/output_rpn_relu/3x3_0_split
I1108 22:48:45.297941 24154 net.cpp:106] Creating Layer rpn/output_rpn_relu/3x3_0_split
I1108 22:48:45.297945 24154 net.cpp:454] rpn/output_rpn_relu/3x3_0_split <- rpn/output
I1108 22:48:45.297950 24154 net.cpp:411] rpn/output_rpn_relu/3x3_0_split -> rpn/output_rpn_relu/3x3_0_split_0
I1108 22:48:45.297953 24154 net.cpp:411] rpn/output_rpn_relu/3x3_0_split -> rpn/output_rpn_relu/3x3_0_split_1
I1108 22:48:45.298014 24154 net.cpp:150] Setting up rpn/output_rpn_relu/3x3_0_split
I1108 22:48:45.298019 24154 net.cpp:157] Top shape: 1 512 14 14 (100352)
I1108 22:48:45.298036 24154 net.cpp:157] Top shape: 1 512 14 14 (100352)
I1108 22:48:45.298038 24154 net.cpp:165] Memory required for data: 116006912
I1108 22:48:45.298040 24154 layer_factory.hpp:77] Creating layer rpn_cls_score
I1108 22:48:45.298046 24154 net.cpp:106] Creating Layer rpn_cls_score
I1108 22:48:45.298048 24154 net.cpp:454] rpn_cls_score <- rpn/output_rpn_relu/3x3_0_split_0
I1108 22:48:45.298054 24154 net.cpp:411] rpn_cls_score -> rpn_cls_score
I1108 22:48:45.299201 24154 net.cpp:150] Setting up rpn_cls_score
I1108 22:48:45.299213 24154 net.cpp:157] Top shape: 1 18 14 14 (3528)
I1108 22:48:45.299216 24154 net.cpp:165] Memory required for data: 116021024
I1108 22:48:45.299224 24154 layer_factory.hpp:77] Creating layer rpn_bbox_pred
I1108 22:48:45.299233 24154 net.cpp:106] Creating Layer rpn_bbox_pred
I1108 22:48:45.299238 24154 net.cpp:454] rpn_bbox_pred <- rpn/output_rpn_relu/3x3_0_split_1
I1108 22:48:45.299244 24154 net.cpp:411] rpn_bbox_pred -> rpn_bbox_pred
I1108 22:48:45.300477 24154 net.cpp:150] Setting up rpn_bbox_pred
I1108 22:48:45.300500 24154 net.cpp:157] Top shape: 1 36 14 14 (7056)
I1108 22:48:45.300504 24154 net.cpp:165] Memory required for data: 116049248
I1108 22:48:45.300526 24154 layer_factory.hpp:77] Creating layer rpn_cls_score_reshape
I1108 22:48:45.300535 24154 net.cpp:106] Creating Layer rpn_cls_score_reshape
I1108 22:48:45.300539 24154 net.cpp:454] rpn_cls_score_reshape <- rpn_cls_score
I1108 22:48:45.300557 24154 net.cpp:411] rpn_cls_score_reshape -> rpn_cls_score_reshape
I1108 22:48:45.300624 24154 net.cpp:150] Setting up rpn_cls_score_reshape
I1108 22:48:45.300631 24154 net.cpp:157] Top shape: 1 2 126 14 (3528)
I1108 22:48:45.300634 24154 net.cpp:165] Memory required for data: 116063360
I1108 22:48:45.300652 24154 layer_factory.hpp:77] Creating layer rpn_cls_prob
I1108 22:48:45.300659 24154 net.cpp:106] Creating Layer rpn_cls_prob
I1108 22:48:45.300663 24154 net.cpp:454] rpn_cls_prob <- rpn_cls_score_reshape
I1108 22:48:45.300668 24154 net.cpp:411] rpn_cls_prob -> rpn_cls_prob
I1108 22:48:45.301563 24154 net.cpp:150] Setting up rpn_cls_prob
I1108 22:48:45.301586 24154 net.cpp:157] Top shape: 1 2 126 14 (3528)
I1108 22:48:45.301599 24154 net.cpp:165] Memory required for data: 116077472
I1108 22:48:45.301605 24154 layer_factory.hpp:77] Creating layer rpn_cls_prob_reshape
I1108 22:48:45.301612 24154 net.cpp:106] Creating Layer rpn_cls_prob_reshape
I1108 22:48:45.301617 24154 net.cpp:454] rpn_cls_prob_reshape <- rpn_cls_prob
I1108 22:48:45.301623 24154 net.cpp:411] rpn_cls_prob_reshape -> rpn_cls_prob_reshape
I1108 22:48:45.301657 24154 net.cpp:150] Setting up rpn_cls_prob_reshape
I1108 22:48:45.301664 24154 net.cpp:157] Top shape: 1 18 14 14 (3528)
I1108 22:48:45.301668 24154 net.cpp:165] Memory required for data: 116091584
I1108 22:48:45.301672 24154 layer_factory.hpp:77] Creating layer proposal
I1108 22:48:45.304930 24154 net.cpp:106] Creating Layer proposal
I1108 22:48:45.304944 24154 net.cpp:454] proposal <- rpn_cls_prob_reshape
I1108 22:48:45.304951 24154 net.cpp:454] proposal <- rpn_bbox_pred
I1108 22:48:45.304955 24154 net.cpp:454] proposal <- im_info
I1108 22:48:45.304962 24154 net.cpp:411] proposal -> rois
I1108 22:48:45.304975 24154 net.cpp:411] proposal -> scores
I1108 22:48:45.306241 24154 net.cpp:150] Setting up proposal
I1108 22:48:45.306255 24154 net.cpp:157] Top shape: 1 5 (5)
I1108 22:48:45.306260 24154 net.cpp:157] Top shape: 1 1 1 1 (1)
I1108 22:48:45.306264 24154 net.cpp:165] Memory required for data: 116091608
I1108 22:48:45.306270 24154 net.cpp:228] proposal does not need backward computation.
I1108 22:48:45.306277 24154 net.cpp:228] rpn_cls_prob_reshape does not need backward computation.
I1108 22:48:45.306282 24154 net.cpp:228] rpn_cls_prob does not need backward computation.
I1108 22:48:45.306285 24154 net.cpp:228] rpn_cls_score_reshape does not need backward computation.
…
