…
snapshot: 0
snapshot_prefix: "vgg16_rpn"
average_loss: 100
I1109 09:53:02.398165  2860 solver.cpp:81] Creating training net from train_net file: models/pascal_voc/VGG16/faster_rcnn_alt_opt/stage1_rpn_train.pt
I1109 09:53:02.399523  2860 net.cpp:49] Initializing net from parameters: 
name: "VGG_ILSVRC_16_layers"
state {
  phase: TRAIN
}
layer {
  name: "input-data"
  type: "Python"
  top: "data"
  top: "im_info"
  top: "gt_boxes"
  python_param {
    module: "roi_data_layer.layer"
    layer: "RoIDataLayer"
    param_str: "\'num_classes\': 2"
  }
}
layer {
  name: "conv1_1"
  type: "Convolution"
  bottom: "data"
  top: "conv1_1"
  param {
    lr_mult: 0
    decay_mult: 0
  }
  param {
    lr_mult: 0
    decay_mult: 0
  }
  convolution_param {
    num_output: 64
    pad: 1
    kernel_size: 3
  }
}
layer {
  name: "relu1_1"
  type: "ReLU"
  bottom: "conv1_1"
  top: "conv1_1"
}
layer {
  name: "conv1_2"
  type: "Convolution"
  bottom: "conv1_1"
  top: "conv1_2"
  param {
    lr_mult: 0
    decay_mult: 0
  }
  param {
    lr_mult: 0
    decay_mult: 0
  }
  convolution_param {
    num_output: 64
    pad: 1
    kernel_size: 3
  }
}
layer {
  name: "relu1_2"
  type: "ReLU"
  bottom: "conv1_2"
  top: "conv1_2"
}
layer {
  name: "pool1"
  type: "Pooling"
  bottom: "conv1_2"
  top: "pool1"
  pooling_param {
    pool: MAX
    kernel_size: 2
    stride: 2
  }
}
layer {
  name: "conv2_1"
  type: "Convolution"
  bottom: "pool1"
  top: "conv2_1"
  param {
    lr_mult: 0
    decay_mult: 0
  }
  param {
    lr_mult: 0
    decay_mult: 0
  }
  convolution_param {
    num_output: 128
    pad: 1
    kernel_size: 3
  }
}
layer {
  name: "relu2_1"
  type: "ReLU"
  bottom: "conv2_1"
  top: "conv2_1"
}
layer {
  name: "conv2_2"
  type: "Convolution"
  bottom: "conv2_1"
  top: "conv2_2"
  param {
    lr_mult: 0
    decay_mult: 0
  }
  param {
    lr_mult: 0
    decay_mult: 0
  }
  convolution_param {
    num_output: 128
    pad: 1
    kernel_size: 3
  }
}
layer {
  name: "relu2_2"
  type: "ReLU"
  bottom: "conv2_2"
  top: "conv2_2"
}
layer {
  name: "pool2"
  type: "Pooling"
  bottom: "conv2_2"
  top: "pool2"
  pooling_param {
    pool: MAX
    kernel_size: 2
    stride: 2
  }
}
layer {
  name: "conv3_1"
  type: "Convolution"
  bottom: "pool2"
  top: "conv3_1"
  param {
    lr_mult: 1
  }
  param {
    lr_mult: 2
  }
  convolution_param {
    num_output: 256
    pad: 1
    kernel_size: 3
  }
}
layer {
  name: "relu3_1"
  type: "ReLU"
  bottom: "conv3_1"
  top: "conv3_1"
}
layer {
  name: "conv3_2"
  type: "Convolution"
  bottom: "conv3_1"
  top: "conv3_2"
  param {
    lr_mult: 1
  }
  param {
    lr_mult: 2
  }
  convolution_param {
    num_output: 256
    pad: 1
    kernel_size: 3
  }
}
layer {
  name: "relu3_2"
  type: "ReLU"
  bottom: "conv3_2"
  top: "conv3_2"
}
layer {
  name: "conv3_3"
  type: "Convolution"
  bottom: "conv3_2"
  top: "conv3_3"
  param {
    lr_mult: 1
  }
  param {
    lr_mult: 2
  }
  convolution_param {
    num_output: 256
    pad: 1
    kernel_size: 3
  }
}
layer {
  name: "relu3_3"
  type: "ReLU"
  bottom: "conv3_3"
  top: "conv3_3"
}
layer {
  name: "pool3"
  type: "Pooling"
  bottom: "conv3_3"
  top: "pool3"
  pooling_param {
    pool: MAX
    kernel_size: 2
    stride: 2
  }
}
layer {
  name: "conv4_1"
  type: "Convolution"
  bottom: "pool3"
  top: "conv4_1"
  param {
    lr_mult: 1
  }
  param {
    lr_mult: 2
  }
  convolution_param {
    num_output: 512
    pad: 1
    kernel_size: 3
  }
}
layer {
  name: "relu4_1"
  type: "ReLU"
  bottom: "conv4_1"
  top: "conv4_1"
}
layer {
  name: "conv4_2"
  type: "Convolution"
  bottom: "conv4_1"
  top: "conv4_2"
  param {
    lr_mult: 1
  }
  param {
    lr_mult: 2
  }
  convolution_param {
    num_output: 512
    pad: 1
    kernel_size: 3
  }
}
layer {
  name: "relu4_2"
  type: "ReLU"
  bottom: "conv4_2"
  top: "conv4_2"
}
layer {
  name: "conv4_3"
  type: "Convolution"
  bottom: "conv4_2"
  top: "conv4_3"
  param {
    lr_mult: 1
  }
  param {
    lr_mult: 2
  }
  convolution_param {
    num_output: 512
    pad: 1
    kernel_size: 3
  }
}
layer {
  name: "relu4_3"
  type: "ReLU"
  bottom: "conv4_3"
  top: "conv4_3"
}
layer {
  name: "pool4"
  type: "Pooling"
  bottom: "conv4_3"
  top: "pool4"
  pooling_param {
    pool: MAX
    kernel_size: 2
    stride: 2
  }
}
layer {
  name: "conv5_1"
  type: "Convolution"
  bottom: "pool4"
  top: "conv5_1"
  param {
    lr_mult: 1
  }
  param {
    lr_mult: 2
  }
  convolution_param {
    num_output: 512
    pad: 1
    kernel_size: 3
  }
}
layer {
  name: "relu5_1"
  type: "ReLU"
  bottom: "conv5_1"
  top: "conv5_1"
}
layer {
  name: "conv5_2"
  type: "Convolution"
  bottom: "conv5_1"
  top: "conv5_2"
  param {
    lr_mult: 1
  }
  param {
    lr_mult: 2
  }
  convolution_param {
    num_output: 512
    pad: 1
    kernel_size: 3
  }
}
layer {
  name: "relu5_2"
  type: "ReLU"
  bottom: "conv5_2"
  top: "conv5_2"
}
layer {
  name: "conv5_3"
  type: "Convolution"
  bottom: "conv5_2"
  top: "conv5_3"
  param {
    lr_mult: 1
  }
  param {
    lr_mult: 2
  }
  convolution_param {
    num_output: 512
    pad: 1
    kernel_size: 3
  }
}
layer {
  name: "relu5_3"
  type: "ReLU"
  bottom: "conv5_3"
  top: "conv5_3"
}
layer {
  name: "rpn_conv/3x3"
  type: "Convolution"
  bottom: "conv5_3"
  top: "rpn/output"
  param {
    lr_mult: 1
  }
  param {
    lr_mult: 2
  }
  convolution_param {
    num_output: 512
    pad: 1
    kernel_size: 3
    stride: 1
    weight_filler {
      type: "gaussian"
      std: 0.01
    }
    bias_filler {
      type: "constant"
      value: 0
    }
  }
}
layer {
  name: "rpn_relu/3x3"
  type: "ReLU"
  bottom: "rpn/output"
  top: "rpn/output"
}
layer {
  name: "rpn_cls_score"
  type: "Convolution"
  bottom: "rpn/output"
  top: "rpn_cls_score"
  param {
    lr_mult: 1
  }
  param {
    lr_mult: 2
  }
  convolution_param {
    num_output: 18
    pad: 0
    kernel_size: 1
    stride: 1
    weight_filler {
      type: "gaussian"
      std: 0.01
    }
    bias_filler {
      type: "constant"
      value: 0
    }
  }
}
layer {
  name: "rpn_bbox_pred"
  type: "Convolution"
  bottom: "rpn/output"
  top: "rpn_bbox_pred"
  param {
    lr_mult: 1
  }
  param {
    lr_mult: 2
  }
  convolution_param {
    num_output: 36
    pad: 0
    kernel_size: 1
    stride: 1
    weight_filler {
      type: "gaussian"
      std: 0.01
    }
    bias_filler {
      type: "constant"
      value: 0
    }
  }
}
layer {
  name: "rpn_cls_score_reshape"
  type: "Reshape"
  bottom: "rpn_cls_score"
  top: "rpn_cls_score_reshape"
  reshape_param {
    shape {
      dim: 0
      dim: 2
      dim: -1
      dim: 0
    }
  }
}
layer {
  name: "rpn-data"
  type: "Python"
  bottom: "rpn_cls_score"
  bottom: "gt_boxes"
  bottom: "im_info"
  bottom: "data"
  top: "rpn_labels"
  top: "rpn_bbox_targets"
  top: "rpn_bbox_inside_weights"
  top: "rpn_bbox_outside_weights"
  python_param {
    module: "rpn.anchor_target_layer"
    layer: "AnchorTargetLayer"
    param_str: "\'feat_stride\': 16"
  }
}
layer {
  name: "rpn_loss_cls"
  type: "SoftmaxWithLoss"
  bottom: "rpn_cls_score_reshape"
  bottom: "rpn_labels"
  top: "rpn_cls_loss"
  loss_weight: 1
  propagate_down: true
  propagate_down: false
  loss_param {
    ignore_label: -1
    normalize: true
  }
}
layer {
  name: "rpn_loss_bbox"
  type: "SmoothL1Loss"
  bottom: "rpn_bbox_pred"
  bottom: "rpn_bbox_targets"
  bottom: "rpn_bbox_inside_weights"
  bottom: "rpn_bbox_outside_weights"
  top: "rpn_loss_bbox"
  loss_weight: 1
  smooth_l1_loss_param {
    sigma: 3
  }
}
layer {
  name: "dummy_roi_pool_conv5"
  type: "DummyData"
  top: "dummy_roi_pool_conv5"
  dummy_data_param {
    data_filler {
      type: "constant"
      value: 0
    }
    shape {
      dim: 1
      dim: 25088
    }
  }
}
layer {
  name: "fc6"
  type: "InnerProduct"
  bottom: "dummy_roi_pool_conv5"
  top: "fc6"
  param {
    lr_mult: 0
    decay_mult: 0
  }
  param {
    lr_mult: 0
    decay_mult: 0
  }
  inner_product_param {
    num_output: 4096
  }
}
layer {
  name: "relu6"
  type: "ReLU"
  bottom: "fc6"
  top: "fc6"
}
layer {
  name: "drop6"
  type: "Dropout"
  bottom: "fc6"
  top: "fc6"
  dropout_param {
    dropout_ratio: 0.5
  }
}
layer {
  name: "fc7"
  type: "InnerProduct"
  bottom: "fc6"
  top: "fc7"
  param {
    lr_mult: 0
    decay_mult: 0
  }
  param {
    lr_mult: 0
    decay_mult: 0
  }
  inner_product_param {
    num_output: 4096
  }
}
layer {
  name: "silence_fc7"
  type: "Silence"
  bottom: "fc7"
}
I1109 09:53:02.400677  2860 layer_factory.hpp:77] Creating layer input-data
I1109 09:53:02.402627  2860 net.cpp:106] Creating Layer input-data
I1109 09:53:02.402635  2860 net.cpp:411] input-data -> data
I1109 09:53:02.403745  2860 net.cpp:411] input-data -> im_info
I1109 09:53:02.403780  2860 net.cpp:411] input-data -> gt_boxes
RoiDataLayer: name_to_top: {'gt_boxes': 2, 'data': 0, 'im_info': 1}
I1109 09:53:02.435214  2860 net.cpp:150] Setting up input-data
I1109 09:53:02.435230  2860 net.cpp:157] Top shape: 1 3 600 1000 (1800000)
I1109 09:53:02.435235  2860 net.cpp:157] Top shape: 1 3 (3)
I1109 09:53:02.435240  2860 net.cpp:157] Top shape: 1 4 (4)
I1109 09:53:02.435245  2860 net.cpp:165] Memory required for data: 7200028
I1109 09:53:02.435251  2860 layer_factory.hpp:77] Creating layer data_input-data_0_split
I1109 09:53:02.435261  2860 net.cpp:106] Creating Layer data_input-data_0_split
I1109 09:53:02.435264  2860 net.cpp:454] data_input-data_0_split <- data
I1109 09:53:02.435271  2860 net.cpp:411] data_input-data_0_split -> data_input-data_0_split_0
I1109 09:53:02.435278  2860 net.cpp:411] data_input-data_0_split -> data_input-data_0_split_1
I1109 09:53:02.435343  2860 net.cpp:150] Setting up data_input-data_0_split
I1109 09:53:02.435348  2860 net.cpp:157] Top shape: 1 3 600 1000 (1800000)
I1109 09:53:02.435353  2860 net.cpp:157] Top shape: 1 3 600 1000 (1800000)
I1109 09:53:02.435371  2860 net.cpp:165] Memory required for data: 21600028
I1109 09:53:02.435374  2860 layer_factory.hpp:77] Creating layer conv1_1
I1109 09:53:02.435396  2860 net.cpp:106] Creating Layer conv1_1
I1109 09:53:02.435400  2860 net.cpp:454] conv1_1 <- data_input-data_0_split_0
I1109 09:53:02.435405  2860 net.cpp:411] conv1_1 -> conv1_1
I1109 09:53:02.835770  2860 net.cpp:150] Setting up conv1_1
I1109 09:53:02.835789  2860 net.cpp:157] Top shape: 1 64 600 1000 (38400000)
I1109 09:53:02.835793  2860 net.cpp:165] Memory required for data: 175200028
I1109 09:53:02.836257  2860 layer_factory.hpp:77] Creating layer relu1_1
I1109 09:53:02.836266  2860 net.cpp:106] Creating Layer relu1_1
I1109 09:53:02.836269  2860 net.cpp:454] relu1_1 <- conv1_1
I1109 09:53:02.836273  2860 net.cpp:397] relu1_1 -> conv1_1 (in-place)
I1109 09:53:02.836410  2860 net.cpp:150] Setting up relu1_1
I1109 09:53:02.836416  2860 net.cpp:157] Top shape: 1 64 600 1000 (38400000)
I1109 09:53:02.836419  2860 net.cpp:165] Memory required for data: 328800028
I1109 09:53:02.836421  2860 layer_factory.hpp:77] Creating layer conv1_2
I1109 09:53:02.836427  2860 net.cpp:106] Creating Layer conv1_2
I1109 09:53:02.836444  2860 net.cpp:454] conv1_2 <- conv1_1
I1109 09:53:02.836447  2860 net.cpp:411] conv1_2 -> conv1_2
I1109 09:53:02.838974  2860 net.cpp:150] Setting up conv1_2
I1109 09:53:02.838984  2860 net.cpp:157] Top shape: 1 64 600 1000 (38400000)
I1109 09:53:02.838987  2860 net.cpp:165] Memory required for data: 482400028
I1109 09:53:02.838994  2860 layer_factory.hpp:77] Creating layer relu1_2
I1109 09:53:02.839012  2860 net.cpp:106] Creating Layer relu1_2
I1109 09:53:02.839015  2860 net.cpp:454] relu1_2 <- conv1_2
I1109 09:53:02.839018  2860 net.cpp:397] relu1_2 -> conv1_2 (in-place)
I1109 09:53:02.839573  2860 net.cpp:150] Setting up relu1_2
I1109 09:53:02.839581  2860 net.cpp:157] Top shape: 1 64 600 1000 (38400000)
I1109 09:53:02.839584  2860 net.cpp:165] Memory required for data: 636000028
I1109 09:53:02.839586  2860 layer_factory.hpp:77] Creating layer pool1
I1109 09:53:02.839591  2860 net.cpp:106] Creating Layer pool1
I1109 09:53:02.839593  2860 net.cpp:454] pool1 <- conv1_2
I1109 09:53:02.839612  2860 net.cpp:411] pool1 -> pool1
I1109 09:53:02.839903  2860 net.cpp:150] Setting up pool1
I1109 09:53:02.839910  2860 net.cpp:157] Top shape: 1 64 300 500 (9600000)
I1109 09:53:02.839911  2860 net.cpp:165] Memory required for data: 674400028
I1109 09:53:02.839913  2860 layer_factory.hpp:77] Creating layer conv2_1
I1109 09:53:02.839918  2860 net.cpp:106] Creating Layer conv2_1
I1109 09:53:02.839920  2860 net.cpp:454] conv2_1 <- pool1
I1109 09:53:02.839938  2860 net.cpp:411] conv2_1 -> conv2_1
I1109 09:53:02.841580  2860 net.cpp:150] Setting up conv2_1
I1109 09:53:02.841590  2860 net.cpp:157] Top shape: 1 128 300 500 (19200000)
I1109 09:53:02.841593  2860 net.cpp:165] Memory required for data: 751200028
I1109 09:53:02.841598  2860 layer_factory.hpp:77] Creating layer relu2_1
I1109 09:53:02.841617  2860 net.cpp:106] Creating Layer relu2_1
I1109 09:53:02.841620  2860 net.cpp:454] relu2_1 <- conv2_1
I1109 09:53:02.841624  2860 net.cpp:397] relu2_1 -> conv2_1 (in-place)
I1109 09:53:02.842165  2860 net.cpp:150] Setting up relu2_1
I1109 09:53:02.842173  2860 net.cpp:157] Top shape: 1 128 300 500 (19200000)
I1109 09:53:02.842175  2860 net.cpp:165] Memory required for data: 828000028
I1109 09:53:02.842177  2860 layer_factory.hpp:77] Creating layer conv2_2
I1109 09:53:02.842182  2860 net.cpp:106] Creating Layer conv2_2
I1109 09:53:02.842200  2860 net.cpp:454] conv2_2 <- conv2_1
I1109 09:53:02.842202  2860 net.cpp:411] conv2_2 -> conv2_2
I1109 09:53:02.844156  2860 net.cpp:150] Setting up conv2_2
I1109 09:53:02.844166  2860 net.cpp:157] Top shape: 1 128 300 500 (19200000)
I1109 09:53:02.844167  2860 net.cpp:165] Memory required for data: 904800028
I1109 09:53:02.844172  2860 layer_factory.hpp:77] Creating layer relu2_2
I1109 09:53:02.844175  2860 net.cpp:106] Creating Layer relu2_2
I1109 09:53:02.844192  2860 net.cpp:454] relu2_2 <- conv2_2
I1109 09:53:02.844195  2860 net.cpp:397] relu2_2 -> conv2_2 (in-place)
I1109 09:53:02.844314  2860 net.cpp:150] Setting up relu2_2
I1109 09:53:02.844321  2860 net.cpp:157] Top shape: 1 128 300 500 (19200000)
I1109 09:53:02.844322  2860 net.cpp:165] Memory required for data: 981600028
I1109 09:53:02.844324  2860 layer_factory.hpp:77] Creating layer pool2
I1109 09:53:02.844328  2860 net.cpp:106] Creating Layer pool2
I1109 09:53:02.844331  2860 net.cpp:454] pool2 <- conv2_2
I1109 09:53:02.844348  2860 net.cpp:411] pool2 -> pool2
I1109 09:53:02.844383  2860 net.cpp:150] Setting up pool2
I1109 09:53:02.844388  2860 net.cpp:157] Top shape: 1 128 150 250 (4800000)
I1109 09:53:02.844389  2860 net.cpp:165] Memory required for data: 1000800028
I1109 09:53:02.844391  2860 layer_factory.hpp:77] Creating layer conv3_1
I1109 09:53:02.844395  2860 net.cpp:106] Creating Layer conv3_1
I1109 09:53:02.844398  2860 net.cpp:454] conv3_1 <- pool2
I1109 09:53:02.844401  2860 net.cpp:411] conv3_1 -> conv3_1
I1109 09:53:02.846628  2860 net.cpp:150] Setting up conv3_1
I1109 09:53:02.846637  2860 net.cpp:157] Top shape: 1 256 150 250 (9600000)
I1109 09:53:02.846640  2860 net.cpp:165] Memory required for data: 1039200028
I1109 09:53:02.846647  2860 layer_factory.hpp:77] Creating layer relu3_1
I1109 09:53:02.846650  2860 net.cpp:106] Creating Layer relu3_1
I1109 09:53:02.846653  2860 net.cpp:454] relu3_1 <- conv3_1
I1109 09:53:02.846655  2860 net.cpp:397] relu3_1 -> conv3_1 (in-place)
I1109 09:53:02.846796  2860 net.cpp:150] Setting up relu3_1
I1109 09:53:02.846802  2860 net.cpp:157] Top shape: 1 256 150 250 (9600000)
I1109 09:53:02.846804  2860 net.cpp:165] Memory required for data: 1077600028
I1109 09:53:02.846807  2860 layer_factory.hpp:77] Creating layer conv3_2
I1109 09:53:02.846812  2860 net.cpp:106] Creating Layer conv3_2
I1109 09:53:02.846813  2860 net.cpp:454] conv3_2 <- conv3_1
I1109 09:53:02.846817  2860 net.cpp:411] conv3_2 -> conv3_2
I1109 09:53:02.849575  2860 net.cpp:150] Setting up conv3_2
I1109 09:53:02.849606  2860 net.cpp:157] Top shape: 1 256 150 250 (9600000)
I1109 09:53:02.849609  2860 net.cpp:165] Memory required for data: 1116000028
I1109 09:53:02.849618  2860 layer_factory.hpp:77] Creating layer relu3_2
I1109 09:53:02.849627  2860 net.cpp:106] Creating Layer relu3_2
I1109 09:53:02.849632  2860 net.cpp:454] relu3_2 <- conv3_2
I1109 09:53:02.849637  2860 net.cpp:397] relu3_2 -> conv3_2 (in-place)
I1109 09:53:02.849761  2860 net.cpp:150] Setting up relu3_2
I1109 09:53:02.849767  2860 net.cpp:157] Top shape: 1 256 150 250 (9600000)
I1109 09:53:02.849771  2860 net.cpp:165] Memory required for data: 1154400028
I1109 09:53:02.849773  2860 layer_factory.hpp:77] Creating layer conv3_3
I1109 09:53:02.849793  2860 net.cpp:106] Creating Layer conv3_3
I1109 09:53:02.849797  2860 net.cpp:454] conv3_3 <- conv3_2
I1109 09:53:02.849800  2860 net.cpp:411] conv3_3 -> conv3_3
I1109 09:53:02.852252  2860 net.cpp:150] Setting up conv3_3
I1109 09:53:02.852262  2860 net.cpp:157] Top shape: 1 256 150 250 (9600000)
I1109 09:53:02.852264  2860 net.cpp:165] Memory required for data: 1192800028
I1109 09:53:02.852269  2860 layer_factory.hpp:77] Creating layer relu3_3
I1109 09:53:02.852273  2860 net.cpp:106] Creating Layer relu3_3
I1109 09:53:02.852277  2860 net.cpp:454] relu3_3 <- conv3_3
I1109 09:53:02.852279  2860 net.cpp:397] relu3_3 -> conv3_3 (in-place)
I1109 09:53:02.852416  2860 net.cpp:150] Setting up relu3_3
I1109 09:53:02.852421  2860 net.cpp:157] Top shape: 1 256 150 250 (9600000)
I1109 09:53:02.852423  2860 net.cpp:165] Memory required for data: 1231200028
I1109 09:53:02.852425  2860 layer_factory.hpp:77] Creating layer pool3
I1109 09:53:02.852429  2860 net.cpp:106] Creating Layer pool3
I1109 09:53:02.852432  2860 net.cpp:454] pool3 <- conv3_3
I1109 09:53:02.852435  2860 net.cpp:411] pool3 -> pool3
I1109 09:53:02.852500  2860 net.cpp:150] Setting up pool3
I1109 09:53:02.852505  2860 net.cpp:157] Top shape: 1 256 75 125 (2400000)
I1109 09:53:02.852521  2860 net.cpp:165] Memory required for data: 1240800028
I1109 09:53:02.852524  2860 layer_factory.hpp:77] Creating layer conv4_1
I1109 09:53:02.852529  2860 net.cpp:106] Creating Layer conv4_1
I1109 09:53:02.852543  2860 net.cpp:454] conv4_1 <- pool3
I1109 09:53:02.852546  2860 net.cpp:411] conv4_1 -> conv4_1
I1109 09:53:02.857049  2860 net.cpp:150] Setting up conv4_1
I1109 09:53:02.857066  2860 net.cpp:157] Top shape: 1 512 75 125 (4800000)
I1109 09:53:02.857069  2860 net.cpp:165] Memory required for data: 1260000028
I1109 09:53:02.857089  2860 layer_factory.hpp:77] Creating layer relu4_1
I1109 09:53:02.857096  2860 net.cpp:106] Creating Layer relu4_1
I1109 09:53:02.857100  2860 net.cpp:454] relu4_1 <- conv4_1
I1109 09:53:02.857103  2860 net.cpp:397] relu4_1 -> conv4_1 (in-place)
I1109 09:53:02.857661  2860 net.cpp:150] Setting up relu4_1
I1109 09:53:02.857669  2860 net.cpp:157] Top shape: 1 512 75 125 (4800000)
I1109 09:53:02.857671  2860 net.cpp:165] Memory required for data: 1279200028
I1109 09:53:02.857673  2860 layer_factory.hpp:77] Creating layer conv4_2
I1109 09:53:02.857679  2860 net.cpp:106] Creating Layer conv4_2
I1109 09:53:02.857682  2860 net.cpp:454] conv4_2 <- conv4_1
I1109 09:53:02.857700  2860 net.cpp:411] conv4_2 -> conv4_2
I1109 09:53:02.861688  2860 net.cpp:150] Setting up conv4_2
I1109 09:53:02.861707  2860 net.cpp:157] Top shape: 1 512 75 125 (4800000)
I1109 09:53:02.861711  2860 net.cpp:165] Memory required for data: 1298400028
I1109 09:53:02.861732  2860 layer_factory.hpp:77] Creating layer relu4_2
I1109 09:53:02.861739  2860 net.cpp:106] Creating Layer relu4_2
I1109 09:53:02.861742  2860 net.cpp:454] relu4_2 <- conv4_2
I1109 09:53:02.861747  2860 net.cpp:397] relu4_2 -> conv4_2 (in-place)
I1109 09:53:02.862371  2860 net.cpp:150] Setting up relu4_2
I1109 09:53:02.862380  2860 net.cpp:157] Top shape: 1 512 75 125 (4800000)
I1109 09:53:02.862383  2860 net.cpp:165] Memory required for data: 1317600028
I1109 09:53:02.862385  2860 layer_factory.hpp:77] Creating layer conv4_3
I1109 09:53:02.862392  2860 net.cpp:106] Creating Layer conv4_3
I1109 09:53:02.862395  2860 net.cpp:454] conv4_3 <- conv4_2
I1109 09:53:02.862398  2860 net.cpp:411] conv4_3 -> conv4_3
I1109 09:53:02.866734  2860 net.cpp:150] Setting up conv4_3
I1109 09:53:02.866752  2860 net.cpp:157] Top shape: 1 512 75 125 (4800000)
I1109 09:53:02.866755  2860 net.cpp:165] Memory required for data: 1336800028
I1109 09:53:02.866776  2860 layer_factory.hpp:77] Creating layer relu4_3
I1109 09:53:02.866783  2860 net.cpp:106] Creating Layer relu4_3
I1109 09:53:02.866787  2860 net.cpp:454] relu4_3 <- conv4_3
I1109 09:53:02.866791  2860 net.cpp:397] relu4_3 -> conv4_3 (in-place)
I1109 09:53:02.866909  2860 net.cpp:150] Setting up relu4_3
I1109 09:53:02.866914  2860 net.cpp:157] Top shape: 1 512 75 125 (4800000)
I1109 09:53:02.866916  2860 net.cpp:165] Memory required for data: 1356000028
I1109 09:53:02.866919  2860 layer_factory.hpp:77] Creating layer pool4
I1109 09:53:02.866924  2860 net.cpp:106] Creating Layer pool4
I1109 09:53:02.866925  2860 net.cpp:454] pool4 <- conv4_3
I1109 09:53:02.866943  2860 net.cpp:411] pool4 -> pool4
I1109 09:53:02.866981  2860 net.cpp:150] Setting up pool4
I1109 09:53:02.866986  2860 net.cpp:157] Top shape: 1 512 38 63 (1225728)
I1109 09:53:02.866987  2860 net.cpp:165] Memory required for data: 1360902940
I1109 09:53:02.866991  2860 layer_factory.hpp:77] Creating layer conv5_1
I1109 09:53:02.866996  2860 net.cpp:106] Creating Layer conv5_1
I1109 09:53:02.866997  2860 net.cpp:454] conv5_1 <- pool4
I1109 09:53:02.867000  2860 net.cpp:411] conv5_1 -> conv5_1
I1109 09:53:02.871048  2860 net.cpp:150] Setting up conv5_1
I1109 09:53:02.871065  2860 net.cpp:157] Top shape: 1 512 38 63 (1225728)
I1109 09:53:02.871068  2860 net.cpp:165] Memory required for data: 1365805852
I1109 09:53:02.871088  2860 layer_factory.hpp:77] Creating layer relu5_1
I1109 09:53:02.871096  2860 net.cpp:106] Creating Layer relu5_1
I1109 09:53:02.871100  2860 net.cpp:454] relu5_1 <- conv5_1
I1109 09:53:02.871104  2860 net.cpp:397] relu5_1 -> conv5_1 (in-place)
I1109 09:53:02.871230  2860 net.cpp:150] Setting up relu5_1
I1109 09:53:02.871237  2860 net.cpp:157] Top shape: 1 512 38 63 (1225728)
I1109 09:53:02.871238  2860 net.cpp:165] Memory required for data: 1370708764
I1109 09:53:02.871240  2860 layer_factory.hpp:77] Creating layer conv5_2
I1109 09:53:02.871246  2860 net.cpp:106] Creating Layer conv5_2
I1109 09:53:02.871263  2860 net.cpp:454] conv5_2 <- conv5_1
I1109 09:53:02.871268  2860 net.cpp:411] conv5_2 -> conv5_2
I1109 09:53:02.875347  2860 net.cpp:150] Setting up conv5_2
I1109 09:53:02.875365  2860 net.cpp:157] Top shape: 1 512 38 63 (1225728)
I1109 09:53:02.875368  2860 net.cpp:165] Memory required for data: 1375611676
I1109 09:53:02.875375  2860 layer_factory.hpp:77] Creating layer relu5_2
I1109 09:53:02.875381  2860 net.cpp:106] Creating Layer relu5_2
I1109 09:53:02.875385  2860 net.cpp:454] relu5_2 <- conv5_2
I1109 09:53:02.875388  2860 net.cpp:397] relu5_2 -> conv5_2 (in-place)
I1109 09:53:02.875501  2860 net.cpp:150] Setting up relu5_2
I1109 09:53:02.875507  2860 net.cpp:157] Top shape: 1 512 38 63 (1225728)
I1109 09:53:02.875509  2860 net.cpp:165] Memory required for data: 1380514588
I1109 09:53:02.875511  2860 layer_factory.hpp:77] Creating layer conv5_3
I1109 09:53:02.875517  2860 net.cpp:106] Creating Layer conv5_3
I1109 09:53:02.875520  2860 net.cpp:454] conv5_3 <- conv5_2
I1109 09:53:02.875524  2860 net.cpp:411] conv5_3 -> conv5_3
I1109 09:53:02.879542  2860 net.cpp:150] Setting up conv5_3
I1109 09:53:02.879560  2860 net.cpp:157] Top shape: 1 512 38 63 (1225728)
I1109 09:53:02.879564  2860 net.cpp:165] Memory required for data: 1385417500
I1109 09:53:02.879570  2860 layer_factory.hpp:77] Creating layer relu5_3
I1109 09:53:02.879577  2860 net.cpp:106] Creating Layer relu5_3
I1109 09:53:02.879581  2860 net.cpp:454] relu5_3 <- conv5_3
I1109 09:53:02.879585  2860 net.cpp:397] relu5_3 -> conv5_3 (in-place)
I1109 09:53:02.879698  2860 net.cpp:150] Setting up relu5_3
I1109 09:53:02.879704  2860 net.cpp:157] Top shape: 1 512 38 63 (1225728)
I1109 09:53:02.879706  2860 net.cpp:165] Memory required for data: 1390320412
I1109 09:53:02.879709  2860 layer_factory.hpp:77] Creating layer rpn_conv/3x3
I1109 09:53:02.879717  2860 net.cpp:106] Creating Layer rpn_conv/3x3
I1109 09:53:02.879719  2860 net.cpp:454] rpn_conv/3x3 <- conv5_3
I1109 09:53:02.879724  2860 net.cpp:411] rpn_conv/3x3 -> rpn/output
I1109 09:53:02.929579  2860 net.cpp:150] Setting up rpn_conv/3x3
I1109 09:53:02.929597  2860 net.cpp:157] Top shape: 1 512 38 63 (1225728)
I1109 09:53:02.929600  2860 net.cpp:165] Memory required for data: 1395223324
I1109 09:53:02.929621  2860 layer_factory.hpp:77] Creating layer rpn_relu/3x3
I1109 09:53:02.929627  2860 net.cpp:106] Creating Layer rpn_relu/3x3
I1109 09:53:02.929630  2860 net.cpp:454] rpn_relu/3x3 <- rpn/output
I1109 09:53:02.929635  2860 net.cpp:397] rpn_relu/3x3 -> rpn/output (in-place)
I1109 09:53:02.930219  2860 net.cpp:150] Setting up rpn_relu/3x3
I1109 09:53:02.930227  2860 net.cpp:157] Top shape: 1 512 38 63 (1225728)
I1109 09:53:02.930230  2860 net.cpp:165] Memory required for data: 1400126236
I1109 09:53:02.930233  2860 layer_factory.hpp:77] Creating layer rpn/output_rpn_relu/3x3_0_split
I1109 09:53:02.930236  2860 net.cpp:106] Creating Layer rpn/output_rpn_relu/3x3_0_split
I1109 09:53:02.930239  2860 net.cpp:454] rpn/output_rpn_relu/3x3_0_split <- rpn/output
I1109 09:53:02.930256  2860 net.cpp:411] rpn/output_rpn_relu/3x3_0_split -> rpn/output_rpn_relu/3x3_0_split_0
I1109 09:53:02.930260  2860 net.cpp:411] rpn/output_rpn_relu/3x3_0_split -> rpn/output_rpn_relu/3x3_0_split_1
I1109 09:53:02.930305  2860 net.cpp:150] Setting up rpn/output_rpn_relu/3x3_0_split
I1109 09:53:02.930311  2860 net.cpp:157] Top shape: 1 512 38 63 (1225728)
I1109 09:53:02.930315  2860 net.cpp:157] Top shape: 1 512 38 63 (1225728)
I1109 09:53:02.930315  2860 net.cpp:165] Memory required for data: 1409932060
I1109 09:53:02.930317  2860 layer_factory.hpp:77] Creating layer rpn_cls_score
I1109 09:53:02.930325  2860 net.cpp:106] Creating Layer rpn_cls_score
I1109 09:53:02.930351  2860 net.cpp:454] rpn_cls_score <- rpn/output_rpn_relu/3x3_0_split_0
I1109 09:53:02.930356  2860 net.cpp:411] rpn_cls_score -> rpn_cls_score
I1109 09:53:02.931650  2860 net.cpp:150] Setting up rpn_cls_score
I1109 09:53:02.931658  2860 net.cpp:157] Top shape: 1 18 38 63 (43092)
I1109 09:53:02.931661  2860 net.cpp:165] Memory required for data: 1410104428
I1109 09:53:02.931665  2860 layer_factory.hpp:77] Creating layer rpn_cls_score_rpn_cls_score_0_split
I1109 09:53:02.931669  2860 net.cpp:106] Creating Layer rpn_cls_score_rpn_cls_score_0_split
I1109 09:53:02.931673  2860 net.cpp:454] rpn_cls_score_rpn_cls_score_0_split <- rpn_cls_score
I1109 09:53:02.931690  2860 net.cpp:411] rpn_cls_score_rpn_cls_score_0_split -> rpn_cls_score_rpn_cls_score_0_split_0
I1109 09:53:02.931694  2860 net.cpp:411] rpn_cls_score_rpn_cls_score_0_split -> rpn_cls_score_rpn_cls_score_0_split_1
I1109 09:53:02.931730  2860 net.cpp:150] Setting up rpn_cls_score_rpn_cls_score_0_split
I1109 09:53:02.931735  2860 net.cpp:157] Top shape: 1 18 38 63 (43092)
I1109 09:53:02.931737  2860 net.cpp:157] Top shape: 1 18 38 63 (43092)
I1109 09:53:02.931740  2860 net.cpp:165] Memory required for data: 1410449164
I1109 09:53:02.931741  2860 layer_factory.hpp:77] Creating layer rpn_bbox_pred
I1109 09:53:02.931747  2860 net.cpp:106] Creating Layer rpn_bbox_pred
I1109 09:53:02.931749  2860 net.cpp:454] rpn_bbox_pred <- rpn/output_rpn_relu/3x3_0_split_1
I1109 09:53:02.931753  2860 net.cpp:411] rpn_bbox_pred -> rpn_bbox_pred
I1109 09:53:02.933197  2860 net.cpp:150] Setting up rpn_bbox_pred
I1109 09:53:02.933205  2860 net.cpp:157] Top shape: 1 36 38 63 (86184)
I1109 09:53:02.933208  2860 net.cpp:165] Memory required for data: 1410793900
I1109 09:53:02.933212  2860 layer_factory.hpp:77] Creating layer rpn_cls_score_reshape
I1109 09:53:02.933218  2860 net.cpp:106] Creating Layer rpn_cls_score_reshape
I1109 09:53:02.933233  2860 net.cpp:454] rpn_cls_score_reshape <- rpn_cls_score_rpn_cls_score_0_split_0
I1109 09:53:02.933238  2860 net.cpp:411] rpn_cls_score_reshape -> rpn_cls_score_reshape
I1109 09:53:02.933264  2860 net.cpp:150] Setting up rpn_cls_score_reshape
I1109 09:53:02.933269  2860 net.cpp:157] Top shape: 1 2 342 63 (43092)
I1109 09:53:02.933270  2860 net.cpp:165] Memory required for data: 1410966268
I1109 09:53:02.933272  2860 layer_factory.hpp:77] Creating layer rpn-data
I1109 09:53:02.934610  2860 net.cpp:106] Creating Layer rpn-data
I1109 09:53:02.934619  2860 net.cpp:454] rpn-data <- rpn_cls_score_rpn_cls_score_0_split_1
I1109 09:53:02.934623  2860 net.cpp:454] rpn-data <- gt_boxes
I1109 09:53:02.934625  2860 net.cpp:454] rpn-data <- im_info
I1109 09:53:02.934628  2860 net.cpp:454] rpn-data <- data_input-data_0_split_1
I1109 09:53:02.934645  2860 net.cpp:411] rpn-data -> rpn_labels
I1109 09:53:02.934650  2860 net.cpp:411] rpn-data -> rpn_bbox_targets
I1109 09:53:02.934654  2860 net.cpp:411] rpn-data -> rpn_bbox_inside_weights
I1109 09:53:02.934659  2860 net.cpp:411] rpn-data -> rpn_bbox_outside_weights
I1109 09:53:02.935158  2860 net.cpp:150] Setting up rpn-data
I1109 09:53:02.935183  2860 net.cpp:157] Top shape: 1 1 342 63 (21546)
I1109 09:53:02.935185  2860 net.cpp:157] Top shape: 1 36 38 63 (86184)
I1109 09:53:02.935189  2860 net.cpp:157] Top shape: 1 36 38 63 (86184)
I1109 09:53:02.935191  2860 net.cpp:157] Top shape: 1 36 38 63 (86184)
I1109 09:53:02.935194  2860 net.cpp:165] Memory required for data: 1412086660
I1109 09:53:02.935195  2860 layer_factory.hpp:77] Creating layer rpn_loss_cls
I1109 09:53:02.935200  2860 net.cpp:106] Creating Layer rpn_loss_cls
I1109 09:53:02.935204  2860 net.cpp:454] rpn_loss_cls <- rpn_cls_score_reshape
I1109 09:53:02.935206  2860 net.cpp:454] rpn_loss_cls <- rpn_labels
I1109 09:53:02.935210  2860 net.cpp:411] rpn_loss_cls -> rpn_cls_loss
…
I1109 09:53:02.936781  2860 net.cpp:150] Setting up rpn_loss_bbox
I1109 09:53:02.936786  2860 net.cpp:157] Top shape: (1)
I1109 09:53:02.936789  2860 net.cpp:160]     with loss weight 1
I1109 09:53:02.936792  2860 net.cpp:165] Memory required for data: 1412086668
I1109 09:53:02.936794  2860 layer_factory.hpp:77] Creating layer dummy_roi_pool_conv5
I1109 09:53:02.936800  2860 net.cpp:106] Creating Layer dummy_roi_pool_conv5
I1109 09:53:02.936803  2860 net.cpp:411] dummy_roi_pool_conv5 -> dummy_roi_pool_conv5
I1109 09:53:02.936861  2860 net.cpp:150] Setting up dummy_roi_pool_conv5
I1109 09:53:02.936866  2860 net.cpp:157] Top shape: 1 25088 (25088)
I1109 09:53:02.936869  2860 net.cpp:165] Memory required for data: 1412187020
I1109 09:53:02.936872  2860 layer_factory.hpp:77] Creating layer fc6
I1109 09:53:02.936875  2860 net.cpp:106] Creating Layer fc6
I1109 09:53:02.936878  2860 net.cpp:454] fc6 <- dummy_roi_pool_conv5
I1109 09:53:02.936882  2860 net.cpp:411] fc6 -> fc6
I1109 09:53:03.052043  2860 net.cpp:150] Setting up fc6
I1109 09:53:03.052062  2860 net.cpp:157] Top shape: 1 4096 (4096)
I1109 09:53:03.052064  2860 net.cpp:165] Memory required for data: 1412203404
I1109 09:53:03.052089  2860 layer_factory.hpp:77] Creating layer relu6
I1109 09:53:03.052095  2860 net.cpp:106] Creating Layer relu6
I1109 09:53:03.052099  2860 net.cpp:454] relu6 <- fc6
I1109 09:53:03.052103  2860 net.cpp:397] relu6 -> fc6 (in-place)
I1109 09:53:03.052268  2860 net.cpp:150] Setting up relu6
I1109 09:53:03.052273  2860 net.cpp:157] Top shape: 1 4096 (4096)
I1109 09:53:03.052275  2860 net.cpp:165] Memory required for data: 1412219788
I1109 09:53:03.052278  2860 layer_factory.hpp:77] Creating layer drop6
I1109 09:53:03.052281  2860 net.cpp:106] Creating Layer drop6
I1109 09:53:03.052284  2860 net.cpp:454] drop6 <- fc6
I1109 09:53:03.052301  2860 net.cpp:397] drop6 -> fc6 (in-place)
I1109 09:53:03.052328  2860 net.cpp:150] Setting up drop6
I1109 09:53:03.052333  2860 net.cpp:157] Top shape: 1 4096 (4096)
I1109 09:53:03.052335  2860 net.cpp:165] Memory required for data: 1412236172
I1109 09:53:03.052337  2860 layer_factory.hpp:77] Creating layer fc7
I1109 09:53:03.052341  2860 net.cpp:106] Creating Layer fc7
I1109 09:53:03.052343  2860 net.cpp:454] fc7 <- fc6
I1109 09:53:03.052346  2860 net.cpp:411] fc7 -> fc7
I1109 09:53:03.072244  2860 net.cpp:150] Setting up fc7
I1109 09:53:03.072263  2860 net.cpp:157] Top shape: 1 4096 (4096)
I1109 09:53:03.072266  2860 net.cpp:165] Memory required for data: 1412252556
I1109 09:53:03.072288  2860 layer_factory.hpp:77] Creating layer silence_fc7
I1109 09:53:03.072293  2860 net.cpp:106] Creating Layer silence_fc7
I1109 09:53:03.072296  2860 net.cpp:454] silence_fc7 <- fc7
I1109 09:53:03.072301  2860 net.cpp:150] Setting up silence_fc7
I1109 09:53:03.072304  2860 net.cpp:165] Memory required for data: 1412252556
…
           'SCALES': [600],
           'SNAPSHOT_INFIX': 'stage1',
           'SNAPSHOT_ITERS': 10000,
           'USE_FLIPPED': True,
           'USE_PREFETCH': False},
 'USE_GPU_NMS': True}
Loaded dataset `voc_2007_trainval` for proposal generation
WARNING: Logging before InitGoogleLogging() is written to STDERR
I1109 10:12:09.898653  8086 net.cpp:49] Initializing net from parameters: 
name: "VGG_ILSVRC_16_layers"
input: "data"
input: "im_info"
state {
  phase: TEST
}
input_shape {
  dim: 1
  dim: 3
  dim: 224
  dim: 224
}
input_shape {
  dim: 1
  dim: 3
}
layer {
  name: "conv1_1"
  type: "Convolution"
  bottom: "data"
  top: "conv1_1"
  convolution_param {
    num_output: 64
    pad: 1
    kernel_size: 3
  }
}
layer {
  name: "relu1_1"
  type: "ReLU"
  bottom: "conv1_1"
  top: "conv1_1"
}
layer {
  name: "conv1_2"
  type: "Convolution"
  bottom: "conv1_1"
  top: "conv1_2"
  convolution_param {
    num_output: 64
    pad: 1
    kernel_size: 3
  }
}
layer {
  name: "relu1_2"
  type: "ReLU"
  bottom: "conv1_2"
  top: "conv1_2"
}
layer {
  name: "pool1"
  type: "Pooling"
  bottom: "conv1_2"
  top: "pool1"
  pooling_param {
    pool: MAX
    kernel_size: 2
    stride: 2
  }
}
layer {
  name: "conv2_1"
  type: "Convolution"
  bottom: "pool1"
  top: "conv2_1"
  convolution_param {
    num_output: 128
    pad: 1
    kernel_size: 3
  }
}
layer {
  name: "relu2_1"
  type: "ReLU"
  bottom: "conv2_1"
  top: "conv2_1"
}
layer {
  name: "conv2_2"
  type: "Convolution"
  bottom: "conv2_1"
  top: "conv2_2"
  convolution_param {
    num_output: 128
    pad: 1
    kernel_size: 3
  }
}
layer {
  name: "relu2_2"
  type: "ReLU"
  bottom: "conv2_2"
  top: "conv2_2"
}
layer {
  name: "pool2"
  type: "Pooling"
  bottom: "conv2_2"
  top: "pool2"
  pooling_param {
    pool: MAX
    kernel_size: 2
    stride: 2
  }
}
layer {
  name: "conv3_1"
  type: "Convolution"
  bottom: "pool2"
  top: "conv3_1"
  convolution_param {
    num_output: 256
    pad: 1
    kernel_size: 3
  }
}
layer {
  name: "relu3_1"
  type: "ReLU"
  bottom: "conv3_1"
  top: "conv3_1"
}
layer {
  name: "conv3_2"
  type: "Convolution"
  bottom: "conv3_1"
  top: "conv3_2"
  convolution_param {
    num_output: 256
    pad: 1
    kernel_size: 3
  }
}
layer {
  name: "relu3_2"
  type: "ReLU"
  bottom: "conv3_2"
  top: "conv3_2"
}
layer {
  name: "conv3_3"
  type: "Convolution"
  bottom: "conv3_2"
  top: "conv3_3"
  convolution_param {
    num_output: 256
    pad: 1
    kernel_size: 3
  }
}
layer {
  name: "relu3_3"
  type: "ReLU"
  bottom: "conv3_3"
  top: "conv3_3"
}
layer {
  name: "pool3"
  type: "Pooling"
  bottom: "conv3_3"
  top: "pool3"
  pooling_param {
    pool: MAX
    kernel_size: 2
    stride: 2
  }
}
layer {
  name: "conv4_1"
  type: "Convolution"
  bottom: "pool3"
  top: "conv4_1"
  convolution_param {
    num_output: 512
    pad: 1
    kernel_size: 3
  }
}
layer {
  name: "relu4_1"
  type: "ReLU"
  bottom: "conv4_1"
  top: "conv4_1"
}
layer {
  name: "conv4_2"
  type: "Convolution"
  bottom: "conv4_1"
  top: "conv4_2"
  convolution_param {
    num_output: 512
    pad: 1
    kernel_size: 3
  }
}
layer {
  name: "relu4_2"
  type: "ReLU"
  bottom: "conv4_2"
  top: "conv4_2"
}
layer {
  name: "conv4_3"
  type: "Convolution"
  bottom: "conv4_2"
  top: "conv4_3"
  convolution_param {
    num_output: 512
    pad: 1
    kernel_size: 3
  }
}
layer {
  name: "relu4_3"
  type: "ReLU"
  bottom: "conv4_3"
  top: "conv4_3"
}
layer {
  name: "pool4"
  type: "Pooling"
  bottom: "conv4_3"
  top: "pool4"
  pooling_param {
    pool: MAX
    kernel_size: 2
    stride: 2
  }
}
layer {
  name: "conv5_1"
  type: "Convolution"
  bottom: "pool4"
  top: "conv5_1"
  convolution_param {
    num_output: 512
    pad: 1
    kernel_size: 3
  }
}
layer {
  name: "relu5_1"
  type: "ReLU"
  bottom: "conv5_1"
  top: "conv5_1"
}
layer {
  name: "conv5_2"
  type: "Convolution"
  bottom: "conv5_1"
  top: "conv5_2"
  convolution_param {
    num_output: 512
    pad: 1
    kernel_size: 3
  }
}
layer {
  name: "relu5_2"
  type: "ReLU"
  bottom: "conv5_2"
  top: "conv5_2"
}
layer {
  name: "conv5_3"
  type: "Convolution"
  bottom: "conv5_2"
  top: "conv5_3"
  convolution_param {
    num_output: 512
    pad: 1
    kernel_size: 3
  }
}
layer {
  name: "relu5_3"
  type: "ReLU"
  bottom: "conv5_3"
  top: "conv5_3"
}
layer {
  name: "rpn_conv/3x3"
  type: "Convolution"
  bottom: "conv5_3"
  top: "rpn/output"
  convolution_param {
    num_output: 512
    pad: 1
    kernel_size: 3
    stride: 1
  }
}
layer {
  name: "rpn_relu/3x3"
  type: "ReLU"
  bottom: "rpn/output"
  top: "rpn/output"
}
layer {
  name: "rpn_cls_score"
  type: "Convolution"
  bottom: "rpn/output"
  top: "rpn_cls_score"
  convolution_param {
    num_output: 18
    pad: 0
    kernel_size: 1
    stride: 1
  }
}
layer {
  name: "rpn_bbox_pred"
  type: "Convolution"
  bottom: "rpn/output"
  top: "rpn_bbox_pred"
  convolution_param {
    num_output: 36
    pad: 0
    kernel_size: 1
    stride: 1
  }
}
layer {
  name: "rpn_cls_score_reshape"
  type: "Reshape"
  bottom: "rpn_cls_score"
  top: "rpn_cls_score_reshape"
  reshape_param {
    shape {
      dim: 0
      dim: 2
      dim: -1
      dim: 0
    }
  }
}
layer {
  name: "rpn_cls_prob"
  type: "Softmax"
  bottom: "rpn_cls_score_reshape"
  top: "rpn_cls_prob"
}
layer {
  name: "rpn_cls_prob_reshape"
  type: "Reshape"
  bottom: "rpn_cls_prob"
  top: "rpn_cls_prob_reshape"
  reshape_param {
    shape {
      dim: 0
      dim: 18
      dim: -1
      dim: 0
    }
  }
}
layer {
  name: "proposal"
  type: "Python"
  bottom: "rpn_cls_prob_reshape"
  bottom: "rpn_bbox_pred"
  bottom: "im_info"
  top: "rois"
  top: "scores"
  python_param {
    module: "rpn.proposal_layer"
    layer: "ProposalLayer"
    param_str: "\'feat_stride\': 16"
  }
}
I1109 10:12:09.898761  8086 net.cpp:413] Input 0 -> data
I1109 10:12:09.905849  8086 net.cpp:413] Input 1 -> im_info
I1109 10:12:09.905889  8086 layer_factory.hpp:77] Creating layer conv1_1
I1109 10:12:09.905905  8086 net.cpp:106] Creating Layer conv1_1
I1109 10:12:09.905907  8086 net.cpp:454] conv1_1 <- data
I1109 10:12:09.905911  8086 net.cpp:411] conv1_1 -> conv1_1
I1109 10:12:10.070605  8086 net.cpp:150] Setting up conv1_1
I1109 10:12:10.070623  8086 net.cpp:157] Top shape: 1 64 224 224 (3211264)
I1109 10:12:10.070626  8086 net.cpp:165] Memory required for data: 12845056
I1109 10:12:10.070654  8086 layer_factory.hpp:77] Creating layer relu1_1
I1109 10:12:10.070663  8086 net.cpp:106] Creating Layer relu1_1
I1109 10:12:10.070667  8086 net.cpp:454] relu1_1 <- conv1_1
I1109 10:12:10.070670  8086 net.cpp:397] relu1_1 -> conv1_1 (in-place)
I1109 10:12:10.070791  8086 net.cpp:150] Setting up relu1_1
I1109 10:12:10.070797  8086 net.cpp:157] Top shape: 1 64 224 224 (3211264)
I1109 10:12:10.070799  8086 net.cpp:165] Memory required for data: 25690112
I1109 10:12:10.070801  8086 layer_factory.hpp:77] Creating layer conv1_2
I1109 10:12:10.070806  8086 net.cpp:106] Creating Layer conv1_2
I1109 10:12:10.070808  8086 net.cpp:454] conv1_2 <- conv1_1
I1109 10:12:10.070827  8086 net.cpp:411] conv1_2 -> conv1_2
I1109 10:12:10.071800  8086 net.cpp:150] Setting up conv1_2
I1109 10:12:10.071810  8086 net.cpp:157] Top shape: 1 64 224 224 (3211264)
I1109 10:12:10.071812  8086 net.cpp:165] Memory required for data: 38535168
I1109 10:12:10.071817  8086 layer_factory.hpp:77] Creating layer relu1_2
I1109 10:12:10.071835  8086 net.cpp:106] Creating Layer relu1_2
I1109 10:12:10.071838  8086 net.cpp:454] relu1_2 <- conv1_2
I1109 10:12:10.071841  8086 net.cpp:397] relu1_2 -> conv1_2 (in-place)
I1109 10:12:10.072379  8086 net.cpp:150] Setting up relu1_2
I1109 10:12:10.072387  8086 net.cpp:157] Top shape: 1 64 224 224 (3211264)
I1109 10:12:10.072389  8086 net.cpp:165] Memory required for data: 51380224
I1109 10:12:10.072392  8086 layer_factory.hpp:77] Creating layer pool1
I1109 10:12:10.072397  8086 net.cpp:106] Creating Layer pool1
I1109 10:12:10.072413  8086 net.cpp:454] pool1 <- conv1_2
I1109 10:12:10.072417  8086 net.cpp:411] pool1 -> pool1
I1109 10:12:10.072454  8086 net.cpp:150] Setting up pool1
I1109 10:12:10.072459  8086 net.cpp:157] Top shape: 1 64 112 112 (802816)
I1109 10:12:10.072461  8086 net.cpp:165] Memory required for data: 54591488
I1109 10:12:10.072463  8086 layer_factory.hpp:77] Creating layer conv2_1
I1109 10:12:10.072468  8086 net.cpp:106] Creating Layer conv2_1
I1109 10:12:10.072469  8086 net.cpp:454] conv2_1 <- pool1
I1109 10:12:10.072474  8086 net.cpp:411] conv2_1 -> conv2_1
I1109 10:12:10.074651  8086 net.cpp:150] Setting up conv2_1
I1109 10:12:10.074658  8086 net.cpp:157] Top shape: 1 128 112 112 (1605632)
I1109 10:12:10.074661  8086 net.cpp:165] Memory required for data: 61014016
I1109 10:12:10.074667  8086 layer_factory.hpp:77] Creating layer relu2_1
I1109 10:12:10.074687  8086 net.cpp:106] Creating Layer relu2_1
I1109 10:12:10.074688  8086 net.cpp:454] relu2_1 <- conv2_1
I1109 10:12:10.074692  8086 net.cpp:397] relu2_1 -> conv2_1 (in-place)
I1109 10:12:10.075233  8086 net.cpp:150] Setting up relu2_1
I1109 10:12:10.075242  8086 net.cpp:157] Top shape: 1 128 112 112 (1605632)
I1109 10:12:10.075243  8086 net.cpp:165] Memory required for data: 67436544
I1109 10:12:10.075245  8086 layer_factory.hpp:77] Creating layer conv2_2
I1109 10:12:10.075250  8086 net.cpp:106] Creating Layer conv2_2
I1109 10:12:10.075253  8086 net.cpp:454] conv2_2 <- conv2_1
I1109 10:12:10.075270  8086 net.cpp:411] conv2_2 -> conv2_2
I1109 10:12:10.076699  8086 net.cpp:150] Setting up conv2_2
I1109 10:12:10.076709  8086 net.cpp:157] Top shape: 1 128 112 112 (1605632)
I1109 10:12:10.076710  8086 net.cpp:165] Memory required for data: 73859072
I1109 10:12:10.076715  8086 layer_factory.hpp:77] Creating layer relu2_2
I1109 10:12:10.076733  8086 net.cpp:106] Creating Layer relu2_2
I1109 10:12:10.076736  8086 net.cpp:454] relu2_2 <- conv2_2
I1109 10:12:10.076740  8086 net.cpp:397] relu2_2 -> conv2_2 (in-place)
I1109 10:12:10.076850  8086 net.cpp:150] Setting up relu2_2
I1109 10:12:10.076856  8086 net.cpp:157] Top shape: 1 128 112 112 (1605632)
I1109 10:12:10.076858  8086 net.cpp:165] Memory required for data: 80281600
I1109 10:12:10.076860  8086 layer_factory.hpp:77] Creating layer pool2
I1109 10:12:10.076864  8086 net.cpp:106] Creating Layer pool2
I1109 10:12:10.076865  8086 net.cpp:454] pool2 <- conv2_2
I1109 10:12:10.076869  8086 net.cpp:411] pool2 -> pool2
I1109 10:12:10.076917  8086 net.cpp:150] Setting up pool2
I1109 10:12:10.076921  8086 net.cpp:157] Top shape: 1 128 56 56 (401408)
I1109 10:12:10.076923  8086 net.cpp:165] Memory required for data: 81887232
I1109 10:12:10.076925  8086 layer_factory.hpp:77] Creating layer conv3_1
I1109 10:12:10.076930  8086 net.cpp:106] Creating Layer conv3_1
I1109 10:12:10.076931  8086 net.cpp:454] conv3_1 <- pool2
I1109 10:12:10.076934  8086 net.cpp:411] conv3_1 -> conv3_1
I1109 10:12:10.078475  8086 net.cpp:150] Setting up conv3_1
I1109 10:12:10.078483  8086 net.cpp:157] Top shape: 1 256 56 56 (802816)
I1109 10:12:10.078486  8086 net.cpp:165] Memory required for data: 85098496
I1109 10:12:10.078492  8086 layer_factory.hpp:77] Creating layer relu3_1
I1109 10:12:10.078510  8086 net.cpp:106] Creating Layer relu3_1
I1109 10:12:10.078512  8086 net.cpp:454] relu3_1 <- conv3_1
I1109 10:12:10.078516  8086 net.cpp:397] relu3_1 -> conv3_1 (in-place)
I1109 10:12:10.078629  8086 net.cpp:150] Setting up relu3_1
I1109 10:12:10.078634  8086 net.cpp:157] Top shape: 1 256 56 56 (802816)
I1109 10:12:10.078636  8086 net.cpp:165] Memory required for data: 88309760
I1109 10:12:10.078639  8086 layer_factory.hpp:77] Creating layer conv3_2
I1109 10:12:10.078644  8086 net.cpp:106] Creating Layer conv3_2
I1109 10:12:10.078645  8086 net.cpp:454] conv3_2 <- conv3_1
I1109 10:12:10.078662  8086 net.cpp:411] conv3_2 -> conv3_2
I1109 10:12:10.080914  8086 net.cpp:150] Setting up conv3_2
I1109 10:12:10.080921  8086 net.cpp:157] Top shape: 1 256 56 56 (802816)
I1109 10:12:10.080924  8086 net.cpp:165] Memory required for data: 91521024
I1109 10:12:10.080929  8086 layer_factory.hpp:77] Creating layer relu3_2
I1109 10:12:10.080947  8086 net.cpp:106] Creating Layer relu3_2
I1109 10:12:10.080950  8086 net.cpp:454] relu3_2 <- conv3_2
I1109 10:12:10.080953  8086 net.cpp:397] relu3_2 -> conv3_2 (in-place)
I1109 10:12:10.081054  8086 net.cpp:150] Setting up relu3_2
I1109 10:12:10.081060  8086 net.cpp:157] Top shape: 1 256 56 56 (802816)
I1109 10:12:10.081063  8086 net.cpp:165] Memory required for data: 94732288
I1109 10:12:10.081065  8086 layer_factory.hpp:77] Creating layer conv3_3
I1109 10:12:10.081069  8086 net.cpp:106] Creating Layer conv3_3
I1109 10:12:10.081071  8086 net.cpp:454] conv3_3 <- conv3_2
I1109 10:12:10.081074  8086 net.cpp:411] conv3_3 -> conv3_3
I1109 10:12:10.083753  8086 net.cpp:150] Setting up conv3_3
I1109 10:12:10.083770  8086 net.cpp:157] Top shape: 1 256 56 56 (802816)
I1109 10:12:10.083775  8086 net.cpp:165] Memory required for data: 97943552
I1109 10:12:10.083796  8086 layer_factory.hpp:77] Creating layer relu3_3
I1109 10:12:10.083803  8086 net.cpp:106] Creating Layer relu3_3
I1109 10:12:10.083807  8086 net.cpp:454] relu3_3 <- conv3_3
I1109 10:12:10.083812  8086 net.cpp:397] relu3_3 -> conv3_3 (in-place)
I1109 10:12:10.083971  8086 net.cpp:150] Setting up relu3_3
I1109 10:12:10.083982  8086 net.cpp:157] Top shape: 1 256 56 56 (802816)
I1109 10:12:10.083987  8086 net.cpp:165] Memory required for data: 101154816
I1109 10:12:10.083992  8086 layer_factory.hpp:77] Creating layer pool3
I1109 10:12:10.084000  8086 net.cpp:106] Creating Layer pool3
I1109 10:12:10.084007  8086 net.cpp:454] pool3 <- conv3_3
I1109 10:12:10.084014  8086 net.cpp:411] pool3 -> pool3
I1109 10:12:10.084074  8086 net.cpp:150] Setting up pool3
I1109 10:12:10.084080  8086 net.cpp:157] Top shape: 1 256 28 28 (200704)
I1109 10:12:10.084084  8086 net.cpp:165] Memory required for data: 101957632
I1109 10:12:10.084086  8086 layer_factory.hpp:77] Creating layer conv4_1
I1109 10:12:10.084092  8086 net.cpp:106] Creating Layer conv4_1
I1109 10:12:10.084096  8086 net.cpp:454] conv4_1 <- pool3
I1109 10:12:10.084100  8086 net.cpp:411] conv4_1 -> conv4_1
I1109 10:12:10.087776  8086 net.cpp:150] Setting up conv4_1
I1109 10:12:10.087792  8086 net.cpp:157] Top shape: 1 512 28 28 (401408)
I1109 10:12:10.087795  8086 net.cpp:165] Memory required for data: 103563264
I1109 10:12:10.087816  8086 layer_factory.hpp:77] Creating layer relu4_1
I1109 10:12:10.087822  8086 net.cpp:106] Creating Layer relu4_1
I1109 10:12:10.087826  8086 net.cpp:454] relu4_1 <- conv4_1
I1109 10:12:10.087831  8086 net.cpp:397] relu4_1 -> conv4_1 (in-place)
I1109 10:12:10.088382  8086 net.cpp:150] Setting up relu4_1
I1109 10:12:10.088390  8086 net.cpp:157] Top shape: 1 512 28 28 (401408)
I1109 10:12:10.088392  8086 net.cpp:165] Memory required for data: 105168896
I1109 10:12:10.088395  8086 layer_factory.hpp:77] Creating layer conv4_2
I1109 10:12:10.088402  8086 net.cpp:106] Creating Layer conv4_2
I1109 10:12:10.088418  8086 net.cpp:454] conv4_2 <- conv4_1
I1109 10:12:10.088421  8086 net.cpp:411] conv4_2 -> conv4_2
I1109 10:12:10.092440  8086 net.cpp:150] Setting up conv4_2
I1109 10:12:10.092458  8086 net.cpp:157] Top shape: 1 512 28 28 (401408)
I1109 10:12:10.092460  8086 net.cpp:165] Memory required for data: 106774528
I1109 10:12:10.092483  8086 layer_factory.hpp:77] Creating layer relu4_2
I1109 10:12:10.092490  8086 net.cpp:106] Creating Layer relu4_2
I1109 10:12:10.092494  8086 net.cpp:454] relu4_2 <- conv4_2
I1109 10:12:10.092499  8086 net.cpp:397] relu4_2 -> conv4_2 (in-place)
I1109 10:12:10.093060  8086 net.cpp:150] Setting up relu4_2
I1109 10:12:10.093068  8086 net.cpp:157] Top shape: 1 512 28 28 (401408)
I1109 10:12:10.093071  8086 net.cpp:165] Memory required for data: 108380160
I1109 10:12:10.093073  8086 layer_factory.hpp:77] Creating layer conv4_3
I1109 10:12:10.093080  8086 net.cpp:106] Creating Layer conv4_3
I1109 10:12:10.093081  8086 net.cpp:454] conv4_3 <- conv4_2
I1109 10:12:10.093099  8086 net.cpp:411] conv4_3 -> conv4_3
I1109 10:12:10.097163  8086 net.cpp:150] Setting up conv4_3
I1109 10:12:10.097182  8086 net.cpp:157] Top shape: 1 512 28 28 (401408)
I1109 10:12:10.097184  8086 net.cpp:165] Memory required for data: 109985792
I1109 10:12:10.097192  8086 layer_factory.hpp:77] Creating layer relu4_3
I1109 10:12:10.097198  8086 net.cpp:106] Creating Layer relu4_3
I1109 10:12:10.097203  8086 net.cpp:454] relu4_3 <- conv4_3
I1109 10:12:10.097206  8086 net.cpp:397] relu4_3 -> conv4_3 (in-place)
I1109 10:12:10.097344  8086 net.cpp:150] Setting up relu4_3
I1109 10:12:10.097350  8086 net.cpp:157] Top shape: 1 512 28 28 (401408)
I1109 10:12:10.097352  8086 net.cpp:165] Memory required for data: 111591424
I1109 10:12:10.097354  8086 layer_factory.hpp:77] Creating layer pool4
I1109 10:12:10.097358  8086 net.cpp:106] Creating Layer pool4
I1109 10:12:10.097360  8086 net.cpp:454] pool4 <- conv4_3
I1109 10:12:10.097364  8086 net.cpp:411] pool4 -> pool4
I1109 10:12:10.097416  8086 net.cpp:150] Setting up pool4
I1109 10:12:10.097434  8086 net.cpp:157] Top shape: 1 512 14 14 (100352)
I1109 10:12:10.097436  8086 net.cpp:165] Memory required for data: 111992832
I1109 10:12:10.097439  8086 layer_factory.hpp:77] Creating layer conv5_1
I1109 10:12:10.097443  8086 net.cpp:106] Creating Layer conv5_1
I1109 10:12:10.097445  8086 net.cpp:454] conv5_1 <- pool4
I1109 10:12:10.097448  8086 net.cpp:411] conv5_1 -> conv5_1
I1109 10:12:10.101632  8086 net.cpp:150] Setting up conv5_1
I1109 10:12:10.101651  8086 net.cpp:157] Top shape: 1 512 14 14 (100352)
I1109 10:12:10.101655  8086 net.cpp:165] Memory required for data: 112394240
I1109 10:12:10.101660  8086 layer_factory.hpp:77] Creating layer relu5_1
I1109 10:12:10.101667  8086 net.cpp:106] Creating Layer relu5_1
I1109 10:12:10.101671  8086 net.cpp:454] relu5_1 <- conv5_1
I1109 10:12:10.101675  8086 net.cpp:397] relu5_1 -> conv5_1 (in-place)
I1109 10:12:10.101819  8086 net.cpp:150] Setting up relu5_1
I1109 10:12:10.101825  8086 net.cpp:157] Top shape: 1 512 14 14 (100352)
I1109 10:12:10.101827  8086 net.cpp:165] Memory required for data: 112795648
I1109 10:12:10.101845  8086 layer_factory.hpp:77] Creating layer conv5_2
I1109 10:12:10.101850  8086 net.cpp:106] Creating Layer conv5_2
I1109 10:12:10.101852  8086 net.cpp:454] conv5_2 <- conv5_1
I1109 10:12:10.101856  8086 net.cpp:411] conv5_2 -> conv5_2
I1109 10:12:10.105932  8086 net.cpp:150] Setting up conv5_2
I1109 10:12:10.105952  8086 net.cpp:157] Top shape: 1 512 14 14 (100352)
I1109 10:12:10.105954  8086 net.cpp:165] Memory required for data: 113197056
I1109 10:12:10.105960  8086 layer_factory.hpp:77] Creating layer relu5_2
I1109 10:12:10.105967  8086 net.cpp:106] Creating Layer relu5_2
I1109 10:12:10.105970  8086 net.cpp:454] relu5_2 <- conv5_2
I1109 10:12:10.105974  8086 net.cpp:397] relu5_2 -> conv5_2 (in-place)
I1109 10:12:10.106106  8086 net.cpp:150] Setting up relu5_2
I1109 10:12:10.106112  8086 net.cpp:157] Top shape: 1 512 14 14 (100352)
I1109 10:12:10.106115  8086 net.cpp:165] Memory required for data: 113598464
I1109 10:12:10.106117  8086 layer_factory.hpp:77] Creating layer conv5_3
I1109 10:12:10.106123  8086 net.cpp:106] Creating Layer conv5_3
I1109 10:12:10.106125  8086 net.cpp:454] conv5_3 <- conv5_2
I1109 10:12:10.106129  8086 net.cpp:411] conv5_3 -> conv5_3
I1109 10:12:10.110199  8086 net.cpp:150] Setting up conv5_3
I1109 10:12:10.110234  8086 net.cpp:157] Top shape: 1 512 14 14 (100352)
I1109 10:12:10.110236  8086 net.cpp:165] Memory required for data: 113999872
I1109 10:12:10.110242  8086 layer_factory.hpp:77] Creating layer relu5_3
I1109 10:12:10.110249  8086 net.cpp:106] Creating Layer relu5_3
I1109 10:12:10.110254  8086 net.cpp:454] relu5_3 <- conv5_3
I1109 10:12:10.110257  8086 net.cpp:397] relu5_3 -> conv5_3 (in-place)
I1109 10:12:10.110397  8086 net.cpp:150] Setting up relu5_3
I1109 10:12:10.110404  8086 net.cpp:157] Top shape: 1 512 14 14 (100352)
I1109 10:12:10.110421  8086 net.cpp:165] Memory required for data: 114401280
I1109 10:12:10.110424  8086 layer_factory.hpp:77] Creating layer rpn_conv/3x3
I1109 10:12:10.110430  8086 net.cpp:106] Creating Layer rpn_conv/3x3
I1109 10:12:10.110431  8086 net.cpp:454] rpn_conv/3x3 <- conv5_3
I1109 10:12:10.110435  8086 net.cpp:411] rpn_conv/3x3 -> rpn/output
I1109 10:12:10.114471  8086 net.cpp:150] Setting up rpn_conv/3x3
I1109 10:12:10.114490  8086 net.cpp:157] Top shape: 1 512 14 14 (100352)
I1109 10:12:10.114492  8086 net.cpp:165] Memory required for data: 114802688
I1109 10:12:10.114498  8086 layer_factory.hpp:77] Creating layer rpn_relu/3x3
I1109 10:12:10.114506  8086 net.cpp:106] Creating Layer rpn_relu/3x3
I1109 10:12:10.114508  8086 net.cpp:454] rpn_relu/3x3 <- rpn/output
I1109 10:12:10.114512  8086 net.cpp:397] rpn_relu/3x3 -> rpn/output (in-place)
I1109 10:12:10.115123  8086 net.cpp:150] Setting up rpn_relu/3x3
I1109 10:12:10.115131  8086 net.cpp:157] Top shape: 1 512 14 14 (100352)
I1109 10:12:10.115134  8086 net.cpp:165] Memory required for data: 115204096
I1109 10:12:10.115136  8086 layer_factory.hpp:77] Creating layer rpn/output_rpn_relu/3x3_0_split
I1109 10:12:10.115142  8086 net.cpp:106] Creating Layer rpn/output_rpn_relu/3x3_0_split
I1109 10:12:10.115144  8086 net.cpp:454] rpn/output_rpn_relu/3x3_0_split <- rpn/output
I1109 10:12:10.115147  8086 net.cpp:411] rpn/output_rpn_relu/3x3_0_split -> rpn/output_rpn_relu/3x3_0_split_0
I1109 10:12:10.115152  8086 net.cpp:411] rpn/output_rpn_relu/3x3_0_split -> rpn/output_rpn_relu/3x3_0_split_1
I1109 10:12:10.115196  8086 net.cpp:150] Setting up rpn/output_rpn_relu/3x3_0_split
I1109 10:12:10.115201  8086 net.cpp:157] Top shape: 1 512 14 14 (100352)
I1109 10:12:10.115205  8086 net.cpp:157] Top shape: 1 512 14 14 (100352)
I1109 10:12:10.115206  8086 net.cpp:165] Memory required for data: 116006912
I1109 10:12:10.115208  8086 layer_factory.hpp:77] Creating layer rpn_cls_score
I1109 10:12:10.115213  8086 net.cpp:106] Creating Layer rpn_cls_score
I1109 10:12:10.115216  8086 net.cpp:454] rpn_cls_score <- rpn/output_rpn_relu/3x3_0_split_0
I1109 10:12:10.115219  8086 net.cpp:411] rpn_cls_score -> rpn_cls_score
I1109 10:12:10.116304  8086 net.cpp:150] Setting up rpn_cls_score
I1109 10:12:10.116312  8086 net.cpp:157] Top shape: 1 18 14 14 (3528)
I1109 10:12:10.116315  8086 net.cpp:165] Memory required for data: 116021024
I1109 10:12:10.116319  8086 layer_factory.hpp:77] Creating layer rpn_bbox_pred
I1109 10:12:10.116324  8086 net.cpp:106] Creating Layer rpn_bbox_pred
I1109 10:12:10.116328  8086 net.cpp:454] rpn_bbox_pred <- rpn/output_rpn_relu/3x3_0_split_1
I1109 10:12:10.116331  8086 net.cpp:411] rpn_bbox_pred -> rpn_bbox_pred
I1109 10:12:10.117419  8086 net.cpp:150] Setting up rpn_bbox_pred
I1109 10:12:10.117426  8086 net.cpp:157] Top shape: 1 36 14 14 (7056)
I1109 10:12:10.117429  8086 net.cpp:165] Memory required for data: 116049248
I1109 10:12:10.117434  8086 layer_factory.hpp:77] Creating layer rpn_cls_score_reshape
I1109 10:12:10.117439  8086 net.cpp:106] Creating Layer rpn_cls_score_reshape
I1109 10:12:10.117440  8086 net.cpp:454] rpn_cls_score_reshape <- rpn_cls_score
I1109 10:12:10.117444  8086 net.cpp:411] rpn_cls_score_reshape -> rpn_cls_score_reshape
I1109 10:12:10.117485  8086 net.cpp:150] Setting up rpn_cls_score_reshape
I1109 10:12:10.117488  8086 net.cpp:157] Top shape: 1 2 126 14 (3528)
I1109 10:12:10.117491  8086 net.cpp:165] Memory required for data: 116063360
I1109 10:12:10.117492  8086 layer_factory.hpp:77] Creating layer rpn_cls_prob
I1109 10:12:10.117511  8086 net.cpp:106] Creating Layer rpn_cls_prob
I1109 10:12:10.117512  8086 net.cpp:454] rpn_cls_prob <- rpn_cls_score_reshape
I1109 10:12:10.117514  8086 net.cpp:411] rpn_cls_prob -> rpn_cls_prob
I1109 10:12:10.118175  8086 net.cpp:150] Setting up rpn_cls_prob
I1109 10:12:10.118182  8086 net.cpp:157] Top shape: 1 2 126 14 (3528)
I1109 10:12:10.118199  8086 net.cpp:165] Memory required for data: 116077472
I1109 10:12:10.118201  8086 layer_factory.hpp:77] Creating layer rpn_cls_prob_reshape
I1109 10:12:10.118206  8086 net.cpp:106] Creating Layer rpn_cls_prob_reshape
I1109 10:12:10.118208  8086 net.cpp:454] rpn_cls_prob_reshape <- rpn_cls_prob
I1109 10:12:10.118212  8086 net.cpp:411] rpn_cls_prob_reshape -> rpn_cls_prob_reshape
I1109 10:12:10.118237  8086 net.cpp:150] Setting up rpn_cls_prob_reshape
I1109 10:12:10.118240  8086 net.cpp:157] Top shape: 1 18 14 14 (3528)
I1109 10:12:10.118255  8086 net.cpp:165] Memory required for data: 116091584
I1109 10:12:10.118257  8086 layer_factory.hpp:77] Creating layer proposal
I1109 10:12:10.121925  8086 net.cpp:106] Creating Layer proposal
I1109 10:12:10.121933  8086 net.cpp:454] proposal <- rpn_cls_prob_reshape
I1109 10:12:10.121937  8086 net.cpp:454] proposal <- rpn_bbox_pred
I1109 10:12:10.121940  8086 net.cpp:454] proposal <- im_info
I1109 10:12:10.121943  8086 net.cpp:411] proposal -> rois
I1109 10:12:10.121948  8086 net.cpp:411] proposal -> scores
I1109 10:12:10.123172  8086 net.cpp:150] Setting up proposal
I1109 10:12:10.123181  8086 net.cpp:157] Top shape: 1 5 (5)
I1109 10:12:10.123185  8086 net.cpp:157] Top shape: 1 1 1 1 (1)
I1109 10:12:10.123188  8086 net.cpp:165] Memory required for data: 116091608
I1109 10:12:10.123189  8086 net.cpp:228] proposal does not need backward computation.
I1109 10:12:10.123193  8086 net.cpp:228] rpn_cls_prob_reshape does not need backward computation.
I1109 10:12:10.123194  8086 net.cpp:228] rpn_cls_prob does not need backward computation.
I1109 10:12:10.123196  8086 net.cpp:228] rpn_cls_score_reshape does not need backward computation.
…
