…
snapshot: 0
snapshot_prefix: "vgg16_rpn"
average_loss: 100
I0620 17:12:00.072932 28731 solver.cpp:81] Creating training net from train_net file: models/pascal_voc/VGG16/faster_rcnn_alt_opt/stage1_rpn_train.pt
I0620 17:12:00.073552 28731 net.cpp:49] Initializing net from parameters: 
name: "VGG_ILSVRC_16_layers"
state {
  phase: TRAIN
}
layer {
  name: "input-data"
  type: "Python"
  top: "data"
  top: "im_info"
  top: "gt_boxes"
  python_param {
    module: "roi_data_layer.layer"
    layer: "RoIDataLayer"
    param_str: "\'num_classes\': 2"
  }
}
layer {
  name: "conv1_1"
  type: "Convolution"
  bottom: "data"
  top: "conv1_1"
  param {
    lr_mult: 0
    decay_mult: 0
  }
  param {
    lr_mult: 0
    decay_mult: 0
  }
  convolution_param {
    num_output: 64
    pad: 1
    kernel_size: 3
  }
}
layer {
  name: "relu1_1"
  type: "ReLU"
  bottom: "conv1_1"
  top: "conv1_1"
}
layer {
  name: "conv1_2"
  type: "Convolution"
  bottom: "conv1_1"
  top: "conv1_2"
  param {
    lr_mult: 0
    decay_mult: 0
  }
  param {
    lr_mult: 0
    decay_mult: 0
  }
  convolution_param {
    num_output: 64
    pad: 1
    kernel_size: 3
  }
}
layer {
  name: "relu1_2"
  type: "ReLU"
  bottom: "conv1_2"
  top: "conv1_2"
}
layer {
  name: "pool1"
  type: "Pooling"
  bottom: "conv1_2"
  top: "pool1"
  pooling_param {
    pool: MAX
    kernel_size: 2
    stride: 2
  }
}
layer {
  name: "conv2_1"
  type: "Convolution"
  bottom: "pool1"
  top: "conv2_1"
  param {
    lr_mult: 0
    decay_mult: 0
  }
  param {
    lr_mult: 0
    decay_mult: 0
  }
  convolution_param {
    num_output: 128
    pad: 1
    kernel_size: 3
  }
}
layer {
  name: "relu2_1"
  type: "ReLU"
  bottom: "conv2_1"
  top: "conv2_1"
}
layer {
  name: "conv2_2"
  type: "Convolution"
  bottom: "conv2_1"
  top: "conv2_2"
  param {
    lr_mult: 0
    decay_mult: 0
  }
  param {
    lr_mult: 0
    decay_mult: 0
  }
  convolution_param {
    num_output: 128
    pad: 1
    kernel_size: 3
  }
}
layer {
  name: "relu2_2"
  type: "ReLU"
  bottom: "conv2_2"
  top: "conv2_2"
}
layer {
  name: "pool2"
  type: "Pooling"
  bottom: "conv2_2"
  top: "pool2"
  pooling_param {
    pool: MAX
    kernel_size: 2
    stride: 2
  }
}
layer {
  name: "conv3_1"
  type: "Convolution"
  bottom: "pool2"
  top: "conv3_1"
  param {
    lr_mult: 1
  }
  param {
    lr_mult: 2
  }
  convolution_param {
    num_output: 256
    pad: 1
    kernel_size: 3
  }
}
layer {
  name: "relu3_1"
  type: "ReLU"
  bottom: "conv3_1"
  top: "conv3_1"
}
layer {
  name: "conv3_2"
  type: "Convolution"
  bottom: "conv3_1"
  top: "conv3_2"
  param {
    lr_mult: 1
  }
  param {
    lr_mult: 2
  }
  convolution_param {
    num_output: 256
    pad: 1
    kernel_size: 3
  }
}
layer {
  name: "relu3_2"
  type: "ReLU"
  bottom: "conv3_2"
  top: "conv3_2"
}
layer {
  name: "conv3_3"
  type: "Convolution"
  bottom: "conv3_2"
  top: "conv3_3"
  param {
    lr_mult: 1
  }
  param {
    lr_mult: 2
  }
  convolution_param {
    num_output: 256
    pad: 1
    kernel_size: 3
  }
}
layer {
  name: "relu3_3"
  type: "ReLU"
  bottom: "conv3_3"
  top: "conv3_3"
}
layer {
  name: "pool3"
  type: "Pooling"
  bottom: "conv3_3"
  top: "pool3"
  pooling_param {
    pool: MAX
    kernel_size: 2
    stride: 2
  }
}
layer {
  name: "conv4_1"
  type: "Convolution"
  bottom: "pool3"
  top: "conv4_1"
  param {
    lr_mult: 1
  }
  param {
    lr_mult: 2
  }
  convolution_param {
    num_output: 512
    pad: 1
    kernel_size: 3
  }
}
layer {
  name: "relu4_1"
  type: "ReLU"
  bottom: "conv4_1"
  top: "conv4_1"
}
layer {
  name: "conv4_2"
  type: "Convolution"
  bottom: "conv4_1"
  top: "conv4_2"
  param {
    lr_mult: 1
  }
  param {
    lr_mult: 2
  }
  convolution_param {
    num_output: 512
    pad: 1
    kernel_size: 3
  }
}
layer {
  name: "relu4_2"
  type: "ReLU"
  bottom: "conv4_2"
  top: "conv4_2"
}
layer {
  name: "conv4_3"
  type: "Convolution"
  bottom: "conv4_2"
  top: "conv4_3"
  param {
    lr_mult: 1
  }
  param {
    lr_mult: 2
  }
  convolution_param {
    num_output: 512
    pad: 1
    kernel_size: 3
  }
}
layer {
  name: "relu4_3"
  type: "ReLU"
  bottom: "conv4_3"
  top: "conv4_3"
}
layer {
  name: "pool4"
  type: "Pooling"
  bottom: "conv4_3"
  top: "pool4"
  pooling_param {
    pool: MAX
    kernel_size: 2
    stride: 2
  }
}
layer {
  name: "conv5_1"
  type: "Convolution"
  bottom: "pool4"
  top: "conv5_1"
  param {
    lr_mult: 1
  }
  param {
    lr_mult: 2
  }
  convolution_param {
    num_output: 512
    pad: 1
    kernel_size: 3
  }
}
layer {
  name: "relu5_1"
  type: "ReLU"
  bottom: "conv5_1"
  top: "conv5_1"
}
layer {
  name: "conv5_2"
  type: "Convolution"
  bottom: "conv5_1"
  top: "conv5_2"
  param {
    lr_mult: 1
  }
  param {
    lr_mult: 2
  }
  convolution_param {
    num_output: 512
    pad: 1
    kernel_size: 3
  }
}
layer {
  name: "relu5_2"
  type: "ReLU"
  bottom: "conv5_2"
  top: "conv5_2"
}
layer {
  name: "conv5_3"
  type: "Convolution"
  bottom: "conv5_2"
  top: "conv5_3"
  param {
    lr_mult: 1
  }
  param {
    lr_mult: 2
  }
  convolution_param {
    num_output: 512
    pad: 1
    kernel_size: 3
  }
}
layer {
  name: "relu5_3"
  type: "ReLU"
  bottom: "conv5_3"
  top: "conv5_3"
}
layer {
  name: "rpn_conv/3x3"
  type: "Convolution"
  bottom: "conv5_3"
  top: "rpn/output"
  param {
    lr_mult: 1
  }
  param {
    lr_mult: 2
  }
  convolution_param {
    num_output: 512
    pad: 1
    kernel_size: 3
    stride: 1
    weight_filler {
      type: "gaussian"
      std: 0.01
    }
    bias_filler {
      type: "constant"
      value: 0
    }
  }
}
layer {
  name: "rpn_relu/3x3"
  type: "ReLU"
  bottom: "rpn/output"
  top: "rpn/output"
}
layer {
  name: "rpn_cls_score"
  type: "Convolution"
  bottom: "rpn/output"
  top: "rpn_cls_score"
  param {
    lr_mult: 1
  }
  param {
    lr_mult: 2
  }
  convolution_param {
    num_output: 18
    pad: 0
    kernel_size: 1
    stride: 1
    weight_filler {
      type: "gaussian"
      std: 0.01
    }
    bias_filler {
      type: "constant"
      value: 0
    }
  }
}
layer {
  name: "rpn_bbox_pred"
  type: "Convolution"
  bottom: "rpn/output"
  top: "rpn_bbox_pred"
  param {
    lr_mult: 1
  }
  param {
    lr_mult: 2
  }
  convolution_param {
    num_output: 36
    pad: 0
    kernel_size: 1
    stride: 1
    weight_filler {
      type: "gaussian"
      std: 0.01
    }
    bias_filler {
      type: "constant"
      value: 0
    }
  }
}
layer {
  name: "rpn_cls_score_reshape"
  type: "Reshape"
  bottom: "rpn_cls_score"
  top: "rpn_cls_score_reshape"
  reshape_param {
    shape {
      dim: 0
      dim: 2
      dim: -1
      dim: 0
    }
  }
}
layer {
  name: "rpn-data"
  type: "Python"
  bottom: "rpn_cls_score"
  bottom: "gt_boxes"
  bottom: "im_info"
  bottom: "data"
  top: "rpn_labels"
  top: "rpn_bbox_targets"
  top: "rpn_bbox_inside_weights"
  top: "rpn_bbox_outside_weights"
  python_param {
    module: "rpn.anchor_target_layer"
    layer: "AnchorTargetLayer"
    param_str: "\'feat_stride\': 16"
  }
}
layer {
  name: "rpn_loss_cls"
  type: "SoftmaxWithLoss"
  bottom: "rpn_cls_score_reshape"
  bottom: "rpn_labels"
  top: "rpn_cls_loss"
  loss_weight: 1
  propagate_down: true
  propagate_down: false
  loss_param {
    ignore_label: -1
    normalize: true
  }
}
layer {
  name: "rpn_loss_bbox"
  type: "SmoothL1Loss"
  bottom: "rpn_bbox_pred"
  bottom: "rpn_bbox_targets"
  bottom: "rpn_bbox_inside_weights"
  bottom: "rpn_bbox_outside_weights"
  top: "rpn_loss_bbox"
  loss_weight: 1
  smooth_l1_loss_param {
    sigma: 3
  }
}
layer {
  name: "dummy_roi_pool_conv5"
  type: "DummyData"
  top: "dummy_roi_pool_conv5"
  dummy_data_param {
    data_filler {
      type: "constant"
      value: 0
    }
    shape {
      dim: 1
      dim: 25088
    }
  }
}
layer {
  name: "fc6"
  type: "InnerProduct"
  bottom: "dummy_roi_pool_conv5"
  top: "fc6"
  param {
    lr_mult: 0
    decay_mult: 0
  }
  param {
    lr_mult: 0
    decay_mult: 0
  }
  inner_product_param {
    num_output: 4096
  }
}
layer {
  name: "relu6"
  type: "ReLU"
  bottom: "fc6"
  top: "fc6"
}
layer {
  name: "drop6"
  type: "Dropout"
  bottom: "fc6"
  top: "fc6"
  dropout_param {
    dropout_ratio: 0.5
  }
}
layer {
  name: "fc7"
  type: "InnerProduct"
  bottom: "fc6"
  top: "fc7"
  param {
    lr_mult: 0
    decay_mult: 0
  }
  param {
    lr_mult: 0
    decay_mult: 0
  }
  inner_product_param {
    num_output: 4096
  }
}
layer {
  name: "silence_fc7"
  type: "Silence"
  bottom: "fc7"
}
I0620 17:12:00.073695 28731 layer_factory.hpp:77] Creating layer input-data
I0620 17:12:00.074117 28731 net.cpp:106] Creating Layer input-data
I0620 17:12:00.074124 28731 net.cpp:411] input-data -> data
I0620 17:12:00.074134 28731 net.cpp:411] input-data -> im_info
I0620 17:12:00.074153 28731 net.cpp:411] input-data -> gt_boxes
RoiDataLayer: name_to_top: {'gt_boxes': 2, 'data': 0, 'im_info': 1}
I0620 17:12:00.081035 28731 net.cpp:150] Setting up input-data
I0620 17:12:00.081069 28731 net.cpp:157] Top shape: 1 3 600 1000 (1800000)
I0620 17:12:00.081074 28731 net.cpp:157] Top shape: 1 3 (3)
I0620 17:12:00.081076 28731 net.cpp:157] Top shape: 1 4 (4)
I0620 17:12:00.081079 28731 net.cpp:165] Memory required for data: 7200028
I0620 17:12:00.081084 28731 layer_factory.hpp:77] Creating layer data_input-data_0_split
I0620 17:12:00.081109 28731 net.cpp:106] Creating Layer data_input-data_0_split
I0620 17:12:00.081127 28731 net.cpp:454] data_input-data_0_split <- data
I0620 17:12:00.081133 28731 net.cpp:411] data_input-data_0_split -> data_input-data_0_split_0
I0620 17:12:00.081140 28731 net.cpp:411] data_input-data_0_split -> data_input-data_0_split_1
I0620 17:12:00.081174 28731 net.cpp:150] Setting up data_input-data_0_split
I0620 17:12:00.081193 28731 net.cpp:157] Top shape: 1 3 600 1000 (1800000)
I0620 17:12:00.081197 28731 net.cpp:157] Top shape: 1 3 600 1000 (1800000)
I0620 17:12:00.081202 28731 net.cpp:165] Memory required for data: 21600028
I0620 17:12:00.081205 28731 layer_factory.hpp:77] Creating layer conv1_1
I0620 17:12:00.081243 28731 net.cpp:106] Creating Layer conv1_1
I0620 17:12:00.081248 28731 net.cpp:454] conv1_1 <- data_input-data_0_split_0
I0620 17:12:00.081250 28731 net.cpp:411] conv1_1 -> conv1_1
I0620 17:12:00.612603 28731 net.cpp:150] Setting up conv1_1
I0620 17:12:00.612623 28731 net.cpp:157] Top shape: 1 64 600 1000 (38400000)
I0620 17:12:00.612627 28731 net.cpp:165] Memory required for data: 175200028
I0620 17:12:00.612661 28731 layer_factory.hpp:77] Creating layer relu1_1
I0620 17:12:00.612670 28731 net.cpp:106] Creating Layer relu1_1
I0620 17:12:00.612678 28731 net.cpp:454] relu1_1 <- conv1_1
I0620 17:12:00.612684 28731 net.cpp:397] relu1_1 -> conv1_1 (in-place)
I0620 17:12:00.612804 28731 net.cpp:150] Setting up relu1_1
I0620 17:12:00.612812 28731 net.cpp:157] Top shape: 1 64 600 1000 (38400000)
I0620 17:12:00.612814 28731 net.cpp:165] Memory required for data: 328800028
I0620 17:12:00.612818 28731 layer_factory.hpp:77] Creating layer conv1_2
I0620 17:12:00.612826 28731 net.cpp:106] Creating Layer conv1_2
I0620 17:12:00.612829 28731 net.cpp:454] conv1_2 <- conv1_1
I0620 17:12:00.612833 28731 net.cpp:411] conv1_2 -> conv1_2
I0620 17:12:00.614892 28731 net.cpp:150] Setting up conv1_2
I0620 17:12:00.614903 28731 net.cpp:157] Top shape: 1 64 600 1000 (38400000)
I0620 17:12:00.614907 28731 net.cpp:165] Memory required for data: 482400028
I0620 17:12:00.614912 28731 layer_factory.hpp:77] Creating layer relu1_2
I0620 17:12:00.614931 28731 net.cpp:106] Creating Layer relu1_2
I0620 17:12:00.614934 28731 net.cpp:454] relu1_2 <- conv1_2
I0620 17:12:00.614938 28731 net.cpp:397] relu1_2 -> conv1_2 (in-place)
I0620 17:12:00.615046 28731 net.cpp:150] Setting up relu1_2
I0620 17:12:00.615052 28731 net.cpp:157] Top shape: 1 64 600 1000 (38400000)
I0620 17:12:00.615054 28731 net.cpp:165] Memory required for data: 636000028
I0620 17:12:00.615056 28731 layer_factory.hpp:77] Creating layer pool1
I0620 17:12:00.615061 28731 net.cpp:106] Creating Layer pool1
I0620 17:12:00.615062 28731 net.cpp:454] pool1 <- conv1_2
I0620 17:12:00.615079 28731 net.cpp:411] pool1 -> pool1
I0620 17:12:00.615108 28731 net.cpp:150] Setting up pool1
I0620 17:12:00.615111 28731 net.cpp:157] Top shape: 1 64 300 500 (9600000)
I0620 17:12:00.615113 28731 net.cpp:165] Memory required for data: 674400028
I0620 17:12:00.615115 28731 layer_factory.hpp:77] Creating layer conv2_1
I0620 17:12:00.615120 28731 net.cpp:106] Creating Layer conv2_1
I0620 17:12:00.615123 28731 net.cpp:454] conv2_1 <- pool1
I0620 17:12:00.615125 28731 net.cpp:411] conv2_1 -> conv2_1
I0620 17:12:00.616849 28731 net.cpp:150] Setting up conv2_1
I0620 17:12:00.616859 28731 net.cpp:157] Top shape: 1 128 300 500 (19200000)
I0620 17:12:00.616863 28731 net.cpp:165] Memory required for data: 751200028
I0620 17:12:00.616868 28731 layer_factory.hpp:77] Creating layer relu2_1
I0620 17:12:00.616886 28731 net.cpp:106] Creating Layer relu2_1
I0620 17:12:00.616888 28731 net.cpp:454] relu2_1 <- conv2_1
I0620 17:12:00.616891 28731 net.cpp:397] relu2_1 -> conv2_1 (in-place)
I0620 17:12:00.617365 28731 net.cpp:150] Setting up relu2_1
I0620 17:12:00.617372 28731 net.cpp:157] Top shape: 1 128 300 500 (19200000)
I0620 17:12:00.617375 28731 net.cpp:165] Memory required for data: 828000028
I0620 17:12:00.617377 28731 layer_factory.hpp:77] Creating layer conv2_2
I0620 17:12:00.617382 28731 net.cpp:106] Creating Layer conv2_2
I0620 17:12:00.617384 28731 net.cpp:454] conv2_2 <- conv2_1
I0620 17:12:00.617401 28731 net.cpp:411] conv2_2 -> conv2_2
I0620 17:12:00.618690 28731 net.cpp:150] Setting up conv2_2
I0620 17:12:00.618697 28731 net.cpp:157] Top shape: 1 128 300 500 (19200000)
I0620 17:12:00.618700 28731 net.cpp:165] Memory required for data: 904800028
I0620 17:12:00.618705 28731 layer_factory.hpp:77] Creating layer relu2_2
I0620 17:12:00.618708 28731 net.cpp:106] Creating Layer relu2_2
I0620 17:12:00.618724 28731 net.cpp:454] relu2_2 <- conv2_2
I0620 17:12:00.618728 28731 net.cpp:397] relu2_2 -> conv2_2 (in-place)
I0620 17:12:00.618839 28731 net.cpp:150] Setting up relu2_2
I0620 17:12:00.618845 28731 net.cpp:157] Top shape: 1 128 300 500 (19200000)
I0620 17:12:00.618847 28731 net.cpp:165] Memory required for data: 981600028
I0620 17:12:00.618849 28731 layer_factory.hpp:77] Creating layer pool2
I0620 17:12:00.618854 28731 net.cpp:106] Creating Layer pool2
I0620 17:12:00.618855 28731 net.cpp:454] pool2 <- conv2_2
I0620 17:12:00.618858 28731 net.cpp:411] pool2 -> pool2
I0620 17:12:00.618897 28731 net.cpp:150] Setting up pool2
I0620 17:12:00.618901 28731 net.cpp:157] Top shape: 1 128 150 250 (4800000)
I0620 17:12:00.618903 28731 net.cpp:165] Memory required for data: 1000800028
I0620 17:12:00.618906 28731 layer_factory.hpp:77] Creating layer conv3_1
I0620 17:12:00.618909 28731 net.cpp:106] Creating Layer conv3_1
I0620 17:12:00.618912 28731 net.cpp:454] conv3_1 <- pool2
I0620 17:12:00.618916 28731 net.cpp:411] conv3_1 -> conv3_1
I0620 17:12:00.620724 28731 net.cpp:150] Setting up conv3_1
I0620 17:12:00.620733 28731 net.cpp:157] Top shape: 1 256 150 250 (9600000)
I0620 17:12:00.620735 28731 net.cpp:165] Memory required for data: 1039200028
I0620 17:12:00.620740 28731 layer_factory.hpp:77] Creating layer relu3_1
I0620 17:12:00.620759 28731 net.cpp:106] Creating Layer relu3_1
I0620 17:12:00.620761 28731 net.cpp:454] relu3_1 <- conv3_1
I0620 17:12:00.620764 28731 net.cpp:397] relu3_1 -> conv3_1 (in-place)
I0620 17:12:00.620877 28731 net.cpp:150] Setting up relu3_1
I0620 17:12:00.620883 28731 net.cpp:157] Top shape: 1 256 150 250 (9600000)
I0620 17:12:00.620885 28731 net.cpp:165] Memory required for data: 1077600028
I0620 17:12:00.620887 28731 layer_factory.hpp:77] Creating layer conv3_2
I0620 17:12:00.620892 28731 net.cpp:106] Creating Layer conv3_2
I0620 17:12:00.620893 28731 net.cpp:454] conv3_2 <- conv3_1
I0620 17:12:00.620896 28731 net.cpp:411] conv3_2 -> conv3_2
I0620 17:12:00.622781 28731 net.cpp:150] Setting up conv3_2
I0620 17:12:00.622790 28731 net.cpp:157] Top shape: 1 256 150 250 (9600000)
I0620 17:12:00.622793 28731 net.cpp:165] Memory required for data: 1116000028
I0620 17:12:00.622797 28731 layer_factory.hpp:77] Creating layer relu3_2
I0620 17:12:00.622802 28731 net.cpp:106] Creating Layer relu3_2
I0620 17:12:00.622803 28731 net.cpp:454] relu3_2 <- conv3_2
I0620 17:12:00.622807 28731 net.cpp:397] relu3_2 -> conv3_2 (in-place)
I0620 17:12:00.622922 28731 net.cpp:150] Setting up relu3_2
I0620 17:12:00.622928 28731 net.cpp:157] Top shape: 1 256 150 250 (9600000)
I0620 17:12:00.622931 28731 net.cpp:165] Memory required for data: 1154400028
I0620 17:12:00.622932 28731 layer_factory.hpp:77] Creating layer conv3_3
I0620 17:12:00.622937 28731 net.cpp:106] Creating Layer conv3_3
I0620 17:12:00.622939 28731 net.cpp:454] conv3_3 <- conv3_2
I0620 17:12:00.622957 28731 net.cpp:411] conv3_3 -> conv3_3
I0620 17:12:00.625107 28731 net.cpp:150] Setting up conv3_3
I0620 17:12:00.625120 28731 net.cpp:157] Top shape: 1 256 150 250 (9600000)
I0620 17:12:00.625123 28731 net.cpp:165] Memory required for data: 1192800028
I0620 17:12:00.625129 28731 layer_factory.hpp:77] Creating layer relu3_3
I0620 17:12:00.625134 28731 net.cpp:106] Creating Layer relu3_3
I0620 17:12:00.625138 28731 net.cpp:454] relu3_3 <- conv3_3
I0620 17:12:00.625141 28731 net.cpp:397] relu3_3 -> conv3_3 (in-place)
I0620 17:12:00.625277 28731 net.cpp:150] Setting up relu3_3
I0620 17:12:00.625283 28731 net.cpp:157] Top shape: 1 256 150 250 (9600000)
I0620 17:12:00.625299 28731 net.cpp:165] Memory required for data: 1231200028
I0620 17:12:00.625303 28731 layer_factory.hpp:77] Creating layer pool3
I0620 17:12:00.625308 28731 net.cpp:106] Creating Layer pool3
I0620 17:12:00.625311 28731 net.cpp:454] pool3 <- conv3_3
I0620 17:12:00.625318 28731 net.cpp:411] pool3 -> pool3
I0620 17:12:00.625363 28731 net.cpp:150] Setting up pool3
I0620 17:12:00.625367 28731 net.cpp:157] Top shape: 1 256 75 125 (2400000)
I0620 17:12:00.625385 28731 net.cpp:165] Memory required for data: 1240800028
I0620 17:12:00.625386 28731 layer_factory.hpp:77] Creating layer conv4_1
I0620 17:12:00.625391 28731 net.cpp:106] Creating Layer conv4_1
I0620 17:12:00.625396 28731 net.cpp:454] conv4_1 <- pool3
I0620 17:12:00.625401 28731 net.cpp:411] conv4_1 -> conv4_1
I0620 17:12:00.629467 28731 net.cpp:150] Setting up conv4_1
I0620 17:12:00.629487 28731 net.cpp:157] Top shape: 1 512 75 125 (4800000)
I0620 17:12:00.629489 28731 net.cpp:165] Memory required for data: 1260000028
I0620 17:12:00.629511 28731 layer_factory.hpp:77] Creating layer relu4_1
I0620 17:12:00.629518 28731 net.cpp:106] Creating Layer relu4_1
I0620 17:12:00.629521 28731 net.cpp:454] relu4_1 <- conv4_1
I0620 17:12:00.629525 28731 net.cpp:397] relu4_1 -> conv4_1 (in-place)
I0620 17:12:00.629664 28731 net.cpp:150] Setting up relu4_1
I0620 17:12:00.629673 28731 net.cpp:157] Top shape: 1 512 75 125 (4800000)
I0620 17:12:00.629674 28731 net.cpp:165] Memory required for data: 1279200028
I0620 17:12:00.629676 28731 layer_factory.hpp:77] Creating layer conv4_2
I0620 17:12:00.629681 28731 net.cpp:106] Creating Layer conv4_2
I0620 17:12:00.629698 28731 net.cpp:454] conv4_2 <- conv4_1
I0620 17:12:00.629703 28731 net.cpp:411] conv4_2 -> conv4_2
I0620 17:12:00.633671 28731 net.cpp:150] Setting up conv4_2
I0620 17:12:00.633692 28731 net.cpp:157] Top shape: 1 512 75 125 (4800000)
I0620 17:12:00.633693 28731 net.cpp:165] Memory required for data: 1298400028
I0620 17:12:00.633716 28731 layer_factory.hpp:77] Creating layer relu4_2
I0620 17:12:00.633723 28731 net.cpp:106] Creating Layer relu4_2
I0620 17:12:00.633726 28731 net.cpp:454] relu4_2 <- conv4_2
I0620 17:12:00.633730 28731 net.cpp:397] relu4_2 -> conv4_2 (in-place)
I0620 17:12:00.634237 28731 net.cpp:150] Setting up relu4_2
I0620 17:12:00.634244 28731 net.cpp:157] Top shape: 1 512 75 125 (4800000)
I0620 17:12:00.634246 28731 net.cpp:165] Memory required for data: 1317600028
I0620 17:12:00.634249 28731 layer_factory.hpp:77] Creating layer conv4_3
I0620 17:12:00.634255 28731 net.cpp:106] Creating Layer conv4_3
I0620 17:12:00.634272 28731 net.cpp:454] conv4_3 <- conv4_2
I0620 17:12:00.634276 28731 net.cpp:411] conv4_3 -> conv4_3
I0620 17:12:00.638027 28731 net.cpp:150] Setting up conv4_3
I0620 17:12:00.638051 28731 net.cpp:157] Top shape: 1 512 75 125 (4800000)
I0620 17:12:00.638053 28731 net.cpp:165] Memory required for data: 1336800028
I0620 17:12:00.638062 28731 layer_factory.hpp:77] Creating layer relu4_3
I0620 17:12:00.638070 28731 net.cpp:106] Creating Layer relu4_3
I0620 17:12:00.638074 28731 net.cpp:454] relu4_3 <- conv4_3
I0620 17:12:00.638078 28731 net.cpp:397] relu4_3 -> conv4_3 (in-place)
I0620 17:12:00.638217 28731 net.cpp:150] Setting up relu4_3
I0620 17:12:00.638227 28731 net.cpp:157] Top shape: 1 512 75 125 (4800000)
I0620 17:12:00.638231 28731 net.cpp:165] Memory required for data: 1356000028
I0620 17:12:00.638236 28731 layer_factory.hpp:77] Creating layer pool4
I0620 17:12:00.638243 28731 net.cpp:106] Creating Layer pool4
I0620 17:12:00.638247 28731 net.cpp:454] pool4 <- conv4_3
I0620 17:12:00.638252 28731 net.cpp:411] pool4 -> pool4
I0620 17:12:00.638290 28731 net.cpp:150] Setting up pool4
I0620 17:12:00.638296 28731 net.cpp:157] Top shape: 1 512 38 63 (1225728)
I0620 17:12:00.638300 28731 net.cpp:165] Memory required for data: 1360902940
I0620 17:12:00.638303 28731 layer_factory.hpp:77] Creating layer conv5_1
I0620 17:12:00.638311 28731 net.cpp:106] Creating Layer conv5_1
I0620 17:12:00.638315 28731 net.cpp:454] conv5_1 <- pool4
I0620 17:12:00.638320 28731 net.cpp:411] conv5_1 -> conv5_1
I0620 17:12:00.642392 28731 net.cpp:150] Setting up conv5_1
I0620 17:12:00.642427 28731 net.cpp:157] Top shape: 1 512 38 63 (1225728)
I0620 17:12:00.642431 28731 net.cpp:165] Memory required for data: 1365805852
I0620 17:12:00.642437 28731 layer_factory.hpp:77] Creating layer relu5_1
I0620 17:12:00.642447 28731 net.cpp:106] Creating Layer relu5_1
I0620 17:12:00.642452 28731 net.cpp:454] relu5_1 <- conv5_1
I0620 17:12:00.642458 28731 net.cpp:397] relu5_1 -> conv5_1 (in-place)
I0620 17:12:00.642588 28731 net.cpp:150] Setting up relu5_1
I0620 17:12:00.642594 28731 net.cpp:157] Top shape: 1 512 38 63 (1225728)
I0620 17:12:00.642596 28731 net.cpp:165] Memory required for data: 1370708764
I0620 17:12:00.642599 28731 layer_factory.hpp:77] Creating layer conv5_2
I0620 17:12:00.642606 28731 net.cpp:106] Creating Layer conv5_2
I0620 17:12:00.642608 28731 net.cpp:454] conv5_2 <- conv5_1
I0620 17:12:00.642611 28731 net.cpp:411] conv5_2 -> conv5_2
I0620 17:12:00.646317 28731 net.cpp:150] Setting up conv5_2
I0620 17:12:00.646337 28731 net.cpp:157] Top shape: 1 512 38 63 (1225728)
I0620 17:12:00.646339 28731 net.cpp:165] Memory required for data: 1375611676
I0620 17:12:00.646359 28731 layer_factory.hpp:77] Creating layer relu5_2
I0620 17:12:00.646366 28731 net.cpp:106] Creating Layer relu5_2
I0620 17:12:00.646370 28731 net.cpp:454] relu5_2 <- conv5_2
I0620 17:12:00.646374 28731 net.cpp:397] relu5_2 -> conv5_2 (in-place)
I0620 17:12:00.646507 28731 net.cpp:150] Setting up relu5_2
I0620 17:12:00.646512 28731 net.cpp:157] Top shape: 1 512 38 63 (1225728)
I0620 17:12:00.646514 28731 net.cpp:165] Memory required for data: 1380514588
I0620 17:12:00.646517 28731 layer_factory.hpp:77] Creating layer conv5_3
I0620 17:12:00.646522 28731 net.cpp:106] Creating Layer conv5_3
I0620 17:12:00.646539 28731 net.cpp:454] conv5_3 <- conv5_2
I0620 17:12:00.646543 28731 net.cpp:411] conv5_3 -> conv5_3
I0620 17:12:00.650322 28731 net.cpp:150] Setting up conv5_3
I0620 17:12:00.650346 28731 net.cpp:157] Top shape: 1 512 38 63 (1225728)
I0620 17:12:00.650348 28731 net.cpp:165] Memory required for data: 1385417500
I0620 17:12:00.650355 28731 layer_factory.hpp:77] Creating layer relu5_3
I0620 17:12:00.650362 28731 net.cpp:106] Creating Layer relu5_3
I0620 17:12:00.650367 28731 net.cpp:454] relu5_3 <- conv5_3
I0620 17:12:00.650372 28731 net.cpp:397] relu5_3 -> conv5_3 (in-place)
I0620 17:12:00.650497 28731 net.cpp:150] Setting up relu5_3
I0620 17:12:00.650506 28731 net.cpp:157] Top shape: 1 512 38 63 (1225728)
I0620 17:12:00.650507 28731 net.cpp:165] Memory required for data: 1390320412
I0620 17:12:00.650509 28731 layer_factory.hpp:77] Creating layer rpn_conv/3x3
I0620 17:12:00.650521 28731 net.cpp:106] Creating Layer rpn_conv/3x3
I0620 17:12:00.650524 28731 net.cpp:454] rpn_conv/3x3 <- conv5_3
I0620 17:12:00.650529 28731 net.cpp:411] rpn_conv/3x3 -> rpn/output
I0620 17:12:00.701241 28731 net.cpp:150] Setting up rpn_conv/3x3
I0620 17:12:00.701259 28731 net.cpp:157] Top shape: 1 512 38 63 (1225728)
I0620 17:12:00.701262 28731 net.cpp:165] Memory required for data: 1395223324
I0620 17:12:00.701282 28731 layer_factory.hpp:77] Creating layer rpn_relu/3x3
I0620 17:12:00.701290 28731 net.cpp:106] Creating Layer rpn_relu/3x3
I0620 17:12:00.701294 28731 net.cpp:454] rpn_relu/3x3 <- rpn/output
I0620 17:12:00.701298 28731 net.cpp:397] rpn_relu/3x3 -> rpn/output (in-place)
I0620 17:12:00.701442 28731 net.cpp:150] Setting up rpn_relu/3x3
I0620 17:12:00.701452 28731 net.cpp:157] Top shape: 1 512 38 63 (1225728)
I0620 17:12:00.701454 28731 net.cpp:165] Memory required for data: 1400126236
I0620 17:12:00.701457 28731 layer_factory.hpp:77] Creating layer rpn/output_rpn_relu/3x3_0_split
I0620 17:12:00.701462 28731 net.cpp:106] Creating Layer rpn/output_rpn_relu/3x3_0_split
I0620 17:12:00.701480 28731 net.cpp:454] rpn/output_rpn_relu/3x3_0_split <- rpn/output
I0620 17:12:00.701485 28731 net.cpp:411] rpn/output_rpn_relu/3x3_0_split -> rpn/output_rpn_relu/3x3_0_split_0
I0620 17:12:00.701490 28731 net.cpp:411] rpn/output_rpn_relu/3x3_0_split -> rpn/output_rpn_relu/3x3_0_split_1
I0620 17:12:00.701539 28731 net.cpp:150] Setting up rpn/output_rpn_relu/3x3_0_split
I0620 17:12:00.701545 28731 net.cpp:157] Top shape: 1 512 38 63 (1225728)
I0620 17:12:00.701550 28731 net.cpp:157] Top shape: 1 512 38 63 (1225728)
I0620 17:12:00.701552 28731 net.cpp:165] Memory required for data: 1409932060
I0620 17:12:00.701555 28731 layer_factory.hpp:77] Creating layer rpn_cls_score
I0620 17:12:00.701578 28731 net.cpp:106] Creating Layer rpn_cls_score
I0620 17:12:00.701583 28731 net.cpp:454] rpn_cls_score <- rpn/output_rpn_relu/3x3_0_split_0
I0620 17:12:00.701589 28731 net.cpp:411] rpn_cls_score -> rpn_cls_score
I0620 17:12:00.703299 28731 net.cpp:150] Setting up rpn_cls_score
I0620 17:12:00.703308 28731 net.cpp:157] Top shape: 1 18 38 63 (43092)
I0620 17:12:00.703311 28731 net.cpp:165] Memory required for data: 1410104428
I0620 17:12:00.703315 28731 layer_factory.hpp:77] Creating layer rpn_cls_score_rpn_cls_score_0_split
I0620 17:12:00.703326 28731 net.cpp:106] Creating Layer rpn_cls_score_rpn_cls_score_0_split
I0620 17:12:00.703330 28731 net.cpp:454] rpn_cls_score_rpn_cls_score_0_split <- rpn_cls_score
I0620 17:12:00.703356 28731 net.cpp:411] rpn_cls_score_rpn_cls_score_0_split -> rpn_cls_score_rpn_cls_score_0_split_0
I0620 17:12:00.703361 28731 net.cpp:411] rpn_cls_score_rpn_cls_score_0_split -> rpn_cls_score_rpn_cls_score_0_split_1
I0620 17:12:00.703419 28731 net.cpp:150] Setting up rpn_cls_score_rpn_cls_score_0_split
I0620 17:12:00.703424 28731 net.cpp:157] Top shape: 1 18 38 63 (43092)
I0620 17:12:00.703428 28731 net.cpp:157] Top shape: 1 18 38 63 (43092)
I0620 17:12:00.703429 28731 net.cpp:165] Memory required for data: 1410449164
I0620 17:12:00.703431 28731 layer_factory.hpp:77] Creating layer rpn_bbox_pred
I0620 17:12:00.703438 28731 net.cpp:106] Creating Layer rpn_bbox_pred
I0620 17:12:00.703454 28731 net.cpp:454] rpn_bbox_pred <- rpn/output_rpn_relu/3x3_0_split_1
I0620 17:12:00.703459 28731 net.cpp:411] rpn_bbox_pred -> rpn_bbox_pred
I0620 17:12:00.704859 28731 net.cpp:150] Setting up rpn_bbox_pred
I0620 17:12:00.704867 28731 net.cpp:157] Top shape: 1 36 38 63 (86184)
I0620 17:12:00.704870 28731 net.cpp:165] Memory required for data: 1410793900
I0620 17:12:00.704874 28731 layer_factory.hpp:77] Creating layer rpn_cls_score_reshape
I0620 17:12:00.704880 28731 net.cpp:106] Creating Layer rpn_cls_score_reshape
I0620 17:12:00.704883 28731 net.cpp:454] rpn_cls_score_reshape <- rpn_cls_score_rpn_cls_score_0_split_0
I0620 17:12:00.704886 28731 net.cpp:411] rpn_cls_score_reshape -> rpn_cls_score_reshape
I0620 17:12:00.704919 28731 net.cpp:150] Setting up rpn_cls_score_reshape
I0620 17:12:00.704926 28731 net.cpp:157] Top shape: 1 2 342 63 (43092)
I0620 17:12:00.704929 28731 net.cpp:165] Memory required for data: 1410966268
I0620 17:12:00.704932 28731 layer_factory.hpp:77] Creating layer rpn-data
I0620 17:12:00.705241 28731 net.cpp:106] Creating Layer rpn-data
I0620 17:12:00.705250 28731 net.cpp:454] rpn-data <- rpn_cls_score_rpn_cls_score_0_split_1
I0620 17:12:00.705252 28731 net.cpp:454] rpn-data <- gt_boxes
I0620 17:12:00.705255 28731 net.cpp:454] rpn-data <- im_info
I0620 17:12:00.705257 28731 net.cpp:454] rpn-data <- data_input-data_0_split_1
I0620 17:12:00.705261 28731 net.cpp:411] rpn-data -> rpn_labels
I0620 17:12:00.705265 28731 net.cpp:411] rpn-data -> rpn_bbox_targets
I0620 17:12:00.705271 28731 net.cpp:411] rpn-data -> rpn_bbox_inside_weights
I0620 17:12:00.705274 28731 net.cpp:411] rpn-data -> rpn_bbox_outside_weights
I0620 17:12:00.705739 28731 net.cpp:150] Setting up rpn-data
I0620 17:12:00.705747 28731 net.cpp:157] Top shape: 1 1 342 63 (21546)
I0620 17:12:00.705750 28731 net.cpp:157] Top shape: 1 36 38 63 (86184)
I0620 17:12:00.705754 28731 net.cpp:157] Top shape: 1 36 38 63 (86184)
I0620 17:12:00.705756 28731 net.cpp:157] Top shape: 1 36 38 63 (86184)
I0620 17:12:00.705759 28731 net.cpp:165] Memory required for data: 1412086660
I0620 17:12:00.705760 28731 layer_factory.hpp:77] Creating layer rpn_loss_cls
I0620 17:12:00.705765 28731 net.cpp:106] Creating Layer rpn_loss_cls
I0620 17:12:00.705767 28731 net.cpp:454] rpn_loss_cls <- rpn_cls_score_reshape
I0620 17:12:00.705770 28731 net.cpp:454] rpn_loss_cls <- rpn_labels
I0620 17:12:00.705773 28731 net.cpp:411] rpn_loss_cls -> rpn_cls_loss
…
I0620 17:12:00.706761 28731 net.cpp:150] Setting up rpn_loss_bbox
I0620 17:12:00.706766 28731 net.cpp:157] Top shape: (1)
I0620 17:12:00.706768 28731 net.cpp:160]     with loss weight 1
I0620 17:12:00.706770 28731 net.cpp:165] Memory required for data: 1412086668
I0620 17:12:00.706773 28731 layer_factory.hpp:77] Creating layer dummy_roi_pool_conv5
I0620 17:12:00.706779 28731 net.cpp:106] Creating Layer dummy_roi_pool_conv5
I0620 17:12:00.706795 28731 net.cpp:411] dummy_roi_pool_conv5 -> dummy_roi_pool_conv5
I0620 17:12:00.706848 28731 net.cpp:150] Setting up dummy_roi_pool_conv5
I0620 17:12:00.706853 28731 net.cpp:157] Top shape: 1 25088 (25088)
I0620 17:12:00.706856 28731 net.cpp:165] Memory required for data: 1412187020
I0620 17:12:00.706856 28731 layer_factory.hpp:77] Creating layer fc6
I0620 17:12:00.706861 28731 net.cpp:106] Creating Layer fc6
I0620 17:12:00.706862 28731 net.cpp:454] fc6 <- dummy_roi_pool_conv5
I0620 17:12:00.706881 28731 net.cpp:411] fc6 -> fc6
I0620 17:12:00.824106 28731 net.cpp:150] Setting up fc6
I0620 17:12:00.824127 28731 net.cpp:157] Top shape: 1 4096 (4096)
I0620 17:12:00.824131 28731 net.cpp:165] Memory required for data: 1412203404
I0620 17:12:00.824152 28731 layer_factory.hpp:77] Creating layer relu6
I0620 17:12:00.824162 28731 net.cpp:106] Creating Layer relu6
I0620 17:12:00.824164 28731 net.cpp:454] relu6 <- fc6
I0620 17:12:00.824168 28731 net.cpp:397] relu6 -> fc6 (in-place)
I0620 17:12:00.824334 28731 net.cpp:150] Setting up relu6
I0620 17:12:00.824342 28731 net.cpp:157] Top shape: 1 4096 (4096)
I0620 17:12:00.824344 28731 net.cpp:165] Memory required for data: 1412219788
I0620 17:12:00.824347 28731 layer_factory.hpp:77] Creating layer drop6
I0620 17:12:00.824352 28731 net.cpp:106] Creating Layer drop6
I0620 17:12:00.824368 28731 net.cpp:454] drop6 <- fc6
I0620 17:12:00.824370 28731 net.cpp:397] drop6 -> fc6 (in-place)
I0620 17:12:00.824390 28731 net.cpp:150] Setting up drop6
I0620 17:12:00.824394 28731 net.cpp:157] Top shape: 1 4096 (4096)
I0620 17:12:00.824396 28731 net.cpp:165] Memory required for data: 1412236172
I0620 17:12:00.824398 28731 layer_factory.hpp:77] Creating layer fc7
I0620 17:12:00.824403 28731 net.cpp:106] Creating Layer fc7
I0620 17:12:00.824404 28731 net.cpp:454] fc7 <- fc6
I0620 17:12:00.824409 28731 net.cpp:411] fc7 -> fc7
I0620 17:12:00.844177 28731 net.cpp:150] Setting up fc7
I0620 17:12:00.844197 28731 net.cpp:157] Top shape: 1 4096 (4096)
I0620 17:12:00.844199 28731 net.cpp:165] Memory required for data: 1412252556
I0620 17:12:00.844220 28731 layer_factory.hpp:77] Creating layer silence_fc7
I0620 17:12:00.844226 28731 net.cpp:106] Creating Layer silence_fc7
I0620 17:12:00.844230 28731 net.cpp:454] silence_fc7 <- fc7
I0620 17:12:00.844234 28731 net.cpp:150] Setting up silence_fc7
I0620 17:12:00.844236 28731 net.cpp:165] Memory required for data: 1412252556
…
           'SCALES': [600],
           'SNAPSHOT_INFIX': 'stage1',
           'SNAPSHOT_ITERS': 10000,
           'USE_FLIPPED': True,
           'USE_PREFETCH': False},
 'USE_GPU_NMS': True}
Loaded dataset `voc_2007_trainval` for proposal generation
WARNING: Logging before InitGoogleLogging() is written to STDERR
I0620 17:30:04.665580 28881 net.cpp:49] Initializing net from parameters: 
name: "VGG_ILSVRC_16_layers"
input: "data"
input: "im_info"
state {
  phase: TEST
}
input_shape {
  dim: 1
  dim: 3
  dim: 224
  dim: 224
}
input_shape {
  dim: 1
  dim: 3
}
layer {
  name: "conv1_1"
  type: "Convolution"
  bottom: "data"
  top: "conv1_1"
  convolution_param {
    num_output: 64
    pad: 1
    kernel_size: 3
  }
}
layer {
  name: "relu1_1"
  type: "ReLU"
  bottom: "conv1_1"
  top: "conv1_1"
}
layer {
  name: "conv1_2"
  type: "Convolution"
  bottom: "conv1_1"
  top: "conv1_2"
  convolution_param {
    num_output: 64
    pad: 1
    kernel_size: 3
  }
}
layer {
  name: "relu1_2"
  type: "ReLU"
  bottom: "conv1_2"
  top: "conv1_2"
}
layer {
  name: "pool1"
  type: "Pooling"
  bottom: "conv1_2"
  top: "pool1"
  pooling_param {
    pool: MAX
    kernel_size: 2
    stride: 2
  }
}
layer {
  name: "conv2_1"
  type: "Convolution"
  bottom: "pool1"
  top: "conv2_1"
  convolution_param {
    num_output: 128
    pad: 1
    kernel_size: 3
  }
}
layer {
  name: "relu2_1"
  type: "ReLU"
  bottom: "conv2_1"
  top: "conv2_1"
}
layer {
  name: "conv2_2"
  type: "Convolution"
  bottom: "conv2_1"
  top: "conv2_2"
  convolution_param {
    num_output: 128
    pad: 1
    kernel_size: 3
  }
}
layer {
  name: "relu2_2"
  type: "ReLU"
  bottom: "conv2_2"
  top: "conv2_2"
}
layer {
  name: "pool2"
  type: "Pooling"
  bottom: "conv2_2"
  top: "pool2"
  pooling_param {
    pool: MAX
    kernel_size: 2
    stride: 2
  }
}
layer {
  name: "conv3_1"
  type: "Convolution"
  bottom: "pool2"
  top: "conv3_1"
  convolution_param {
    num_output: 256
    pad: 1
    kernel_size: 3
  }
}
layer {
  name: "relu3_1"
  type: "ReLU"
  bottom: "conv3_1"
  top: "conv3_1"
}
layer {
  name: "conv3_2"
  type: "Convolution"
  bottom: "conv3_1"
  top: "conv3_2"
  convolution_param {
    num_output: 256
    pad: 1
    kernel_size: 3
  }
}
layer {
  name: "relu3_2"
  type: "ReLU"
  bottom: "conv3_2"
  top: "conv3_2"
}
layer {
  name: "conv3_3"
  type: "Convolution"
  bottom: "conv3_2"
  top: "conv3_3"
  convolution_param {
    num_output: 256
    pad: 1
    kernel_size: 3
  }
}
layer {
  name: "relu3_3"
  type: "ReLU"
  bottom: "conv3_3"
  top: "conv3_3"
}
layer {
  name: "pool3"
  type: "Pooling"
  bottom: "conv3_3"
  top: "pool3"
  pooling_param {
    pool: MAX
    kernel_size: 2
    stride: 2
  }
}
layer {
  name: "conv4_1"
  type: "Convolution"
  bottom: "pool3"
  top: "conv4_1"
  convolution_param {
    num_output: 512
    pad: 1
    kernel_size: 3
  }
}
layer {
  name: "relu4_1"
  type: "ReLU"
  bottom: "conv4_1"
  top: "conv4_1"
}
layer {
  name: "conv4_2"
  type: "Convolution"
  bottom: "conv4_1"
  top: "conv4_2"
  convolution_param {
    num_output: 512
    pad: 1
    kernel_size: 3
  }
}
layer {
  name: "relu4_2"
  type: "ReLU"
  bottom: "conv4_2"
  top: "conv4_2"
}
layer {
  name: "conv4_3"
  type: "Convolution"
  bottom: "conv4_2"
  top: "conv4_3"
  convolution_param {
    num_output: 512
    pad: 1
    kernel_size: 3
  }
}
layer {
  name: "relu4_3"
  type: "ReLU"
  bottom: "conv4_3"
  top: "conv4_3"
}
layer {
  name: "pool4"
  type: "Pooling"
  bottom: "conv4_3"
  top: "pool4"
  pooling_param {
    pool: MAX
    kernel_size: 2
    stride: 2
  }
}
layer {
  name: "conv5_1"
  type: "Convolution"
  bottom: "pool4"
  top: "conv5_1"
  convolution_param {
    num_output: 512
    pad: 1
    kernel_size: 3
  }
}
layer {
  name: "relu5_1"
  type: "ReLU"
  bottom: "conv5_1"
  top: "conv5_1"
}
layer {
  name: "conv5_2"
  type: "Convolution"
  bottom: "conv5_1"
  top: "conv5_2"
  convolution_param {
    num_output: 512
    pad: 1
    kernel_size: 3
  }
}
layer {
  name: "relu5_2"
  type: "ReLU"
  bottom: "conv5_2"
  top: "conv5_2"
}
layer {
  name: "conv5_3"
  type: "Convolution"
  bottom: "conv5_2"
  top: "conv5_3"
  convolution_param {
    num_output: 512
    pad: 1
    kernel_size: 3
  }
}
layer {
  name: "relu5_3"
  type: "ReLU"
  bottom: "conv5_3"
  top: "conv5_3"
}
layer {
  name: "rpn_conv/3x3"
  type: "Convolution"
  bottom: "conv5_3"
  top: "rpn/output"
  convolution_param {
    num_output: 512
    pad: 1
    kernel_size: 3
    stride: 1
  }
}
layer {
  name: "rpn_relu/3x3"
  type: "ReLU"
  bottom: "rpn/output"
  top: "rpn/output"
}
layer {
  name: "rpn_cls_score"
  type: "Convolution"
  bottom: "rpn/output"
  top: "rpn_cls_score"
  convolution_param {
    num_output: 18
    pad: 0
    kernel_size: 1
    stride: 1
  }
}
layer {
  name: "rpn_bbox_pred"
  type: "Convolution"
  bottom: "rpn/output"
  top: "rpn_bbox_pred"
  convolution_param {
    num_output: 36
    pad: 0
    kernel_size: 1
    stride: 1
  }
}
layer {
  name: "rpn_cls_score_reshape"
  type: "Reshape"
  bottom: "rpn_cls_score"
  top: "rpn_cls_score_reshape"
  reshape_param {
    shape {
      dim: 0
      dim: 2
      dim: -1
      dim: 0
    }
  }
}
layer {
  name: "rpn_cls_prob"
  type: "Softmax"
  bottom: "rpn_cls_score_reshape"
  top: "rpn_cls_prob"
}
layer {
  name: "rpn_cls_prob_reshape"
  type: "Reshape"
  bottom: "rpn_cls_prob"
  top: "rpn_cls_prob_reshape"
  reshape_param {
    shape {
      dim: 0
      dim: 18
      dim: -1
      dim: 0
    }
  }
}
layer {
  name: "proposal"
  type: "Python"
  bottom: "rpn_cls_prob_reshape"
  bottom: "rpn_bbox_pred"
  bottom: "im_info"
  top: "rois"
  top: "scores"
  python_param {
    module: "rpn.proposal_layer"
    layer: "ProposalLayer"
    param_str: "\'feat_stride\': 16"
  }
}
I0620 17:30:04.665678 28881 net.cpp:413] Input 0 -> data
I0620 17:30:04.672065 28881 net.cpp:413] Input 1 -> im_info
I0620 17:30:04.672096 28881 layer_factory.hpp:77] Creating layer conv1_1
I0620 17:30:04.672111 28881 net.cpp:106] Creating Layer conv1_1
I0620 17:30:04.672113 28881 net.cpp:454] conv1_1 <- data
I0620 17:30:04.672132 28881 net.cpp:411] conv1_1 -> conv1_1
I0620 17:30:05.217006 28881 net.cpp:150] Setting up conv1_1
I0620 17:30:05.217028 28881 net.cpp:157] Top shape: 1 64 224 224 (3211264)
I0620 17:30:05.217032 28881 net.cpp:165] Memory required for data: 12845056
I0620 17:30:05.217058 28881 layer_factory.hpp:77] Creating layer relu1_1
I0620 17:30:05.217067 28881 net.cpp:106] Creating Layer relu1_1
I0620 17:30:05.217072 28881 net.cpp:454] relu1_1 <- conv1_1
I0620 17:30:05.217074 28881 net.cpp:397] relu1_1 -> conv1_1 (in-place)
I0620 17:30:05.217186 28881 net.cpp:150] Setting up relu1_1
I0620 17:30:05.217192 28881 net.cpp:157] Top shape: 1 64 224 224 (3211264)
I0620 17:30:05.217195 28881 net.cpp:165] Memory required for data: 25690112
I0620 17:30:05.217197 28881 layer_factory.hpp:77] Creating layer conv1_2
I0620 17:30:05.217202 28881 net.cpp:106] Creating Layer conv1_2
I0620 17:30:05.217205 28881 net.cpp:454] conv1_2 <- conv1_1
I0620 17:30:05.217221 28881 net.cpp:411] conv1_2 -> conv1_2
I0620 17:30:05.218037 28881 net.cpp:150] Setting up conv1_2
I0620 17:30:05.218046 28881 net.cpp:157] Top shape: 1 64 224 224 (3211264)
I0620 17:30:05.218049 28881 net.cpp:165] Memory required for data: 38535168
I0620 17:30:05.218055 28881 layer_factory.hpp:77] Creating layer relu1_2
I0620 17:30:05.218071 28881 net.cpp:106] Creating Layer relu1_2
I0620 17:30:05.218075 28881 net.cpp:454] relu1_2 <- conv1_2
I0620 17:30:05.218077 28881 net.cpp:397] relu1_2 -> conv1_2 (in-place)
I0620 17:30:05.218204 28881 net.cpp:150] Setting up relu1_2
I0620 17:30:05.218209 28881 net.cpp:157] Top shape: 1 64 224 224 (3211264)
I0620 17:30:05.218211 28881 net.cpp:165] Memory required for data: 51380224
I0620 17:30:05.218214 28881 layer_factory.hpp:77] Creating layer pool1
I0620 17:30:05.218217 28881 net.cpp:106] Creating Layer pool1
I0620 17:30:05.218219 28881 net.cpp:454] pool1 <- conv1_2
I0620 17:30:05.218222 28881 net.cpp:411] pool1 -> pool1
I0620 17:30:05.218262 28881 net.cpp:150] Setting up pool1
I0620 17:30:05.218266 28881 net.cpp:157] Top shape: 1 64 112 112 (802816)
I0620 17:30:05.218269 28881 net.cpp:165] Memory required for data: 54591488
I0620 17:30:05.218271 28881 layer_factory.hpp:77] Creating layer conv2_1
I0620 17:30:05.218276 28881 net.cpp:106] Creating Layer conv2_1
I0620 17:30:05.218277 28881 net.cpp:454] conv2_1 <- pool1
I0620 17:30:05.218281 28881 net.cpp:411] conv2_1 -> conv2_1
I0620 17:30:05.220429 28881 net.cpp:150] Setting up conv2_1
I0620 17:30:05.220439 28881 net.cpp:157] Top shape: 1 128 112 112 (1605632)
I0620 17:30:05.220443 28881 net.cpp:165] Memory required for data: 61014016
I0620 17:30:05.220448 28881 layer_factory.hpp:77] Creating layer relu2_1
I0620 17:30:05.220465 28881 net.cpp:106] Creating Layer relu2_1
I0620 17:30:05.220468 28881 net.cpp:454] relu2_1 <- conv2_1
I0620 17:30:05.220471 28881 net.cpp:397] relu2_1 -> conv2_1 (in-place)
I0620 17:30:05.220942 28881 net.cpp:150] Setting up relu2_1
I0620 17:30:05.220948 28881 net.cpp:157] Top shape: 1 128 112 112 (1605632)
I0620 17:30:05.220952 28881 net.cpp:165] Memory required for data: 67436544
I0620 17:30:05.220953 28881 layer_factory.hpp:77] Creating layer conv2_2
I0620 17:30:05.220958 28881 net.cpp:106] Creating Layer conv2_2
I0620 17:30:05.220974 28881 net.cpp:454] conv2_2 <- conv2_1
I0620 17:30:05.220978 28881 net.cpp:411] conv2_2 -> conv2_2
I0620 17:30:05.222173 28881 net.cpp:150] Setting up conv2_2
I0620 17:30:05.222182 28881 net.cpp:157] Top shape: 1 128 112 112 (1605632)
I0620 17:30:05.222184 28881 net.cpp:165] Memory required for data: 73859072
I0620 17:30:05.222189 28881 layer_factory.hpp:77] Creating layer relu2_2
I0620 17:30:05.222193 28881 net.cpp:106] Creating Layer relu2_2
I0620 17:30:05.222195 28881 net.cpp:454] relu2_2 <- conv2_2
I0620 17:30:05.222198 28881 net.cpp:397] relu2_2 -> conv2_2 (in-place)
I0620 17:30:05.222323 28881 net.cpp:150] Setting up relu2_2
I0620 17:30:05.222328 28881 net.cpp:157] Top shape: 1 128 112 112 (1605632)
I0620 17:30:05.222331 28881 net.cpp:165] Memory required for data: 80281600
I0620 17:30:05.222332 28881 layer_factory.hpp:77] Creating layer pool2
I0620 17:30:05.222337 28881 net.cpp:106] Creating Layer pool2
I0620 17:30:05.222338 28881 net.cpp:454] pool2 <- conv2_2
I0620 17:30:05.222342 28881 net.cpp:411] pool2 -> pool2
I0620 17:30:05.222364 28881 net.cpp:150] Setting up pool2
I0620 17:30:05.222383 28881 net.cpp:157] Top shape: 1 128 56 56 (401408)
I0620 17:30:05.222385 28881 net.cpp:165] Memory required for data: 81887232
I0620 17:30:05.222388 28881 layer_factory.hpp:77] Creating layer conv3_1
I0620 17:30:05.222391 28881 net.cpp:106] Creating Layer conv3_1
I0620 17:30:05.222393 28881 net.cpp:454] conv3_1 <- pool2
I0620 17:30:05.222396 28881 net.cpp:411] conv3_1 -> conv3_1
I0620 17:30:05.223737 28881 net.cpp:150] Setting up conv3_1
I0620 17:30:05.223744 28881 net.cpp:157] Top shape: 1 256 56 56 (802816)
I0620 17:30:05.223747 28881 net.cpp:165] Memory required for data: 85098496
I0620 17:30:05.223753 28881 layer_factory.hpp:77] Creating layer relu3_1
I0620 17:30:05.223757 28881 net.cpp:106] Creating Layer relu3_1
I0620 17:30:05.223759 28881 net.cpp:454] relu3_1 <- conv3_1
I0620 17:30:05.223762 28881 net.cpp:397] relu3_1 -> conv3_1 (in-place)
I0620 17:30:05.223860 28881 net.cpp:150] Setting up relu3_1
I0620 17:30:05.223866 28881 net.cpp:157] Top shape: 1 256 56 56 (802816)
I0620 17:30:05.223868 28881 net.cpp:165] Memory required for data: 88309760
I0620 17:30:05.223870 28881 layer_factory.hpp:77] Creating layer conv3_2
I0620 17:30:05.223875 28881 net.cpp:106] Creating Layer conv3_2
I0620 17:30:05.223876 28881 net.cpp:454] conv3_2 <- conv3_1
I0620 17:30:05.223879 28881 net.cpp:411] conv3_2 -> conv3_2
I0620 17:30:05.225841 28881 net.cpp:150] Setting up conv3_2
I0620 17:30:05.225852 28881 net.cpp:157] Top shape: 1 256 56 56 (802816)
I0620 17:30:05.225854 28881 net.cpp:165] Memory required for data: 91521024
I0620 17:30:05.225859 28881 layer_factory.hpp:77] Creating layer relu3_2
I0620 17:30:05.225878 28881 net.cpp:106] Creating Layer relu3_2
I0620 17:30:05.225880 28881 net.cpp:454] relu3_2 <- conv3_2
I0620 17:30:05.225884 28881 net.cpp:397] relu3_2 -> conv3_2 (in-place)
I0620 17:30:05.225992 28881 net.cpp:150] Setting up relu3_2
I0620 17:30:05.225997 28881 net.cpp:157] Top shape: 1 256 56 56 (802816)
I0620 17:30:05.225999 28881 net.cpp:165] Memory required for data: 94732288
I0620 17:30:05.226001 28881 layer_factory.hpp:77] Creating layer conv3_3
I0620 17:30:05.226006 28881 net.cpp:106] Creating Layer conv3_3
I0620 17:30:05.226007 28881 net.cpp:454] conv3_3 <- conv3_2
I0620 17:30:05.226011 28881 net.cpp:411] conv3_3 -> conv3_3
I0620 17:30:05.227964 28881 net.cpp:150] Setting up conv3_3
I0620 17:30:05.227973 28881 net.cpp:157] Top shape: 1 256 56 56 (802816)
I0620 17:30:05.227977 28881 net.cpp:165] Memory required for data: 97943552
I0620 17:30:05.227980 28881 layer_factory.hpp:77] Creating layer relu3_3
I0620 17:30:05.227984 28881 net.cpp:106] Creating Layer relu3_3
I0620 17:30:05.227987 28881 net.cpp:454] relu3_3 <- conv3_3
I0620 17:30:05.227989 28881 net.cpp:397] relu3_3 -> conv3_3 (in-place)
I0620 17:30:05.228117 28881 net.cpp:150] Setting up relu3_3
I0620 17:30:05.228123 28881 net.cpp:157] Top shape: 1 256 56 56 (802816)
I0620 17:30:05.228126 28881 net.cpp:165] Memory required for data: 101154816
I0620 17:30:05.228127 28881 layer_factory.hpp:77] Creating layer pool3
I0620 17:30:05.228132 28881 net.cpp:106] Creating Layer pool3
I0620 17:30:05.228134 28881 net.cpp:454] pool3 <- conv3_3
I0620 17:30:05.228137 28881 net.cpp:411] pool3 -> pool3
I0620 17:30:05.228163 28881 net.cpp:150] Setting up pool3
I0620 17:30:05.228168 28881 net.cpp:157] Top shape: 1 256 28 28 (200704)
I0620 17:30:05.228169 28881 net.cpp:165] Memory required for data: 101957632
I0620 17:30:05.228171 28881 layer_factory.hpp:77] Creating layer conv4_1
I0620 17:30:05.228190 28881 net.cpp:106] Creating Layer conv4_1
I0620 17:30:05.228194 28881 net.cpp:454] conv4_1 <- pool3
I0620 17:30:05.228197 28881 net.cpp:411] conv4_1 -> conv4_1
I0620 17:30:05.231521 28881 net.cpp:150] Setting up conv4_1
I0620 17:30:05.231539 28881 net.cpp:157] Top shape: 1 512 28 28 (401408)
I0620 17:30:05.231541 28881 net.cpp:165] Memory required for data: 103563264
I0620 17:30:05.231562 28881 layer_factory.hpp:77] Creating layer relu4_1
I0620 17:30:05.231568 28881 net.cpp:106] Creating Layer relu4_1
I0620 17:30:05.231572 28881 net.cpp:454] relu4_1 <- conv4_1
I0620 17:30:05.231576 28881 net.cpp:397] relu4_1 -> conv4_1 (in-place)
I0620 17:30:05.231696 28881 net.cpp:150] Setting up relu4_1
I0620 17:30:05.231703 28881 net.cpp:157] Top shape: 1 512 28 28 (401408)
I0620 17:30:05.231704 28881 net.cpp:165] Memory required for data: 105168896
I0620 17:30:05.231706 28881 layer_factory.hpp:77] Creating layer conv4_2
I0620 17:30:05.231711 28881 net.cpp:106] Creating Layer conv4_2
I0620 17:30:05.231714 28881 net.cpp:454] conv4_2 <- conv4_1
I0620 17:30:05.231731 28881 net.cpp:411] conv4_2 -> conv4_2
I0620 17:30:05.235679 28881 net.cpp:150] Setting up conv4_2
I0620 17:30:05.235697 28881 net.cpp:157] Top shape: 1 512 28 28 (401408)
I0620 17:30:05.235700 28881 net.cpp:165] Memory required for data: 106774528
I0620 17:30:05.235708 28881 layer_factory.hpp:77] Creating layer relu4_2
I0620 17:30:05.235715 28881 net.cpp:106] Creating Layer relu4_2
I0620 17:30:05.235718 28881 net.cpp:454] relu4_2 <- conv4_2
I0620 17:30:05.235723 28881 net.cpp:397] relu4_2 -> conv4_2 (in-place)
I0620 17:30:05.236234 28881 net.cpp:150] Setting up relu4_2
I0620 17:30:05.236243 28881 net.cpp:157] Top shape: 1 512 28 28 (401408)
I0620 17:30:05.236245 28881 net.cpp:165] Memory required for data: 108380160
I0620 17:30:05.236248 28881 layer_factory.hpp:77] Creating layer conv4_3
I0620 17:30:05.236253 28881 net.cpp:106] Creating Layer conv4_3
I0620 17:30:05.236255 28881 net.cpp:454] conv4_3 <- conv4_2
I0620 17:30:05.236260 28881 net.cpp:411] conv4_3 -> conv4_3
I0620 17:30:05.240046 28881 net.cpp:150] Setting up conv4_3
I0620 17:30:05.240063 28881 net.cpp:157] Top shape: 1 512 28 28 (401408)
I0620 17:30:05.240065 28881 net.cpp:165] Memory required for data: 109985792
I0620 17:30:05.240072 28881 layer_factory.hpp:77] Creating layer relu4_3
I0620 17:30:05.240078 28881 net.cpp:106] Creating Layer relu4_3
I0620 17:30:05.240082 28881 net.cpp:454] relu4_3 <- conv4_3
I0620 17:30:05.240085 28881 net.cpp:397] relu4_3 -> conv4_3 (in-place)
I0620 17:30:05.240190 28881 net.cpp:150] Setting up relu4_3
I0620 17:30:05.240196 28881 net.cpp:157] Top shape: 1 512 28 28 (401408)
I0620 17:30:05.240198 28881 net.cpp:165] Memory required for data: 111591424
I0620 17:30:05.240200 28881 layer_factory.hpp:77] Creating layer pool4
I0620 17:30:05.240206 28881 net.cpp:106] Creating Layer pool4
I0620 17:30:05.240207 28881 net.cpp:454] pool4 <- conv4_3
I0620 17:30:05.240211 28881 net.cpp:411] pool4 -> pool4
I0620 17:30:05.240234 28881 net.cpp:150] Setting up pool4
I0620 17:30:05.240239 28881 net.cpp:157] Top shape: 1 512 14 14 (100352)
I0620 17:30:05.240242 28881 net.cpp:165] Memory required for data: 111992832
I0620 17:30:05.240243 28881 layer_factory.hpp:77] Creating layer conv5_1
I0620 17:30:05.240248 28881 net.cpp:106] Creating Layer conv5_1
I0620 17:30:05.240250 28881 net.cpp:454] conv5_1 <- pool4
I0620 17:30:05.240253 28881 net.cpp:411] conv5_1 -> conv5_1
I0620 17:30:05.243819 28881 net.cpp:150] Setting up conv5_1
I0620 17:30:05.243837 28881 net.cpp:157] Top shape: 1 512 14 14 (100352)
I0620 17:30:05.243839 28881 net.cpp:165] Memory required for data: 112394240
I0620 17:30:05.243846 28881 layer_factory.hpp:77] Creating layer relu5_1
I0620 17:30:05.243852 28881 net.cpp:106] Creating Layer relu5_1
I0620 17:30:05.243880 28881 net.cpp:454] relu5_1 <- conv5_1
I0620 17:30:05.243885 28881 net.cpp:397] relu5_1 -> conv5_1 (in-place)
I0620 17:30:05.244035 28881 net.cpp:150] Setting up relu5_1
I0620 17:30:05.244040 28881 net.cpp:157] Top shape: 1 512 14 14 (100352)
I0620 17:30:05.244042 28881 net.cpp:165] Memory required for data: 112795648
I0620 17:30:05.244045 28881 layer_factory.hpp:77] Creating layer conv5_2
I0620 17:30:05.244050 28881 net.cpp:106] Creating Layer conv5_2
I0620 17:30:05.244052 28881 net.cpp:454] conv5_2 <- conv5_1
I0620 17:30:05.244055 28881 net.cpp:411] conv5_2 -> conv5_2
I0620 17:30:05.247900 28881 net.cpp:150] Setting up conv5_2
I0620 17:30:05.247932 28881 net.cpp:157] Top shape: 1 512 14 14 (100352)
I0620 17:30:05.247936 28881 net.cpp:165] Memory required for data: 113197056
I0620 17:30:05.247942 28881 layer_factory.hpp:77] Creating layer relu5_2
I0620 17:30:05.247949 28881 net.cpp:106] Creating Layer relu5_2
I0620 17:30:05.247952 28881 net.cpp:454] relu5_2 <- conv5_2
I0620 17:30:05.247958 28881 net.cpp:397] relu5_2 -> conv5_2 (in-place)
I0620 17:30:05.248105 28881 net.cpp:150] Setting up relu5_2
I0620 17:30:05.248131 28881 net.cpp:157] Top shape: 1 512 14 14 (100352)
I0620 17:30:05.248136 28881 net.cpp:165] Memory required for data: 113598464
I0620 17:30:05.248139 28881 layer_factory.hpp:77] Creating layer conv5_3
I0620 17:30:05.248159 28881 net.cpp:106] Creating Layer conv5_3
I0620 17:30:05.248176 28881 net.cpp:454] conv5_3 <- conv5_2
I0620 17:30:05.248180 28881 net.cpp:411] conv5_3 -> conv5_3
I0620 17:30:05.252173 28881 net.cpp:150] Setting up conv5_3
I0620 17:30:05.252192 28881 net.cpp:157] Top shape: 1 512 14 14 (100352)
I0620 17:30:05.252193 28881 net.cpp:165] Memory required for data: 113999872
I0620 17:30:05.252199 28881 layer_factory.hpp:77] Creating layer relu5_3
I0620 17:30:05.252207 28881 net.cpp:106] Creating Layer relu5_3
I0620 17:30:05.252212 28881 net.cpp:454] relu5_3 <- conv5_3
I0620 17:30:05.252214 28881 net.cpp:397] relu5_3 -> conv5_3 (in-place)
I0620 17:30:05.252354 28881 net.cpp:150] Setting up relu5_3
I0620 17:30:05.252360 28881 net.cpp:157] Top shape: 1 512 14 14 (100352)
I0620 17:30:05.252362 28881 net.cpp:165] Memory required for data: 114401280
I0620 17:30:05.252364 28881 layer_factory.hpp:77] Creating layer rpn_conv/3x3
I0620 17:30:05.252369 28881 net.cpp:106] Creating Layer rpn_conv/3x3
I0620 17:30:05.252372 28881 net.cpp:454] rpn_conv/3x3 <- conv5_3
I0620 17:30:05.252375 28881 net.cpp:411] rpn_conv/3x3 -> rpn/output
I0620 17:30:05.256135 28881 net.cpp:150] Setting up rpn_conv/3x3
I0620 17:30:05.256152 28881 net.cpp:157] Top shape: 1 512 14 14 (100352)
I0620 17:30:05.256155 28881 net.cpp:165] Memory required for data: 114802688
I0620 17:30:05.256160 28881 layer_factory.hpp:77] Creating layer rpn_relu/3x3
I0620 17:30:05.256167 28881 net.cpp:106] Creating Layer rpn_relu/3x3
I0620 17:30:05.256170 28881 net.cpp:454] rpn_relu/3x3 <- rpn/output
I0620 17:30:05.256175 28881 net.cpp:397] rpn_relu/3x3 -> rpn/output (in-place)
I0620 17:30:05.256312 28881 net.cpp:150] Setting up rpn_relu/3x3
I0620 17:30:05.256317 28881 net.cpp:157] Top shape: 1 512 14 14 (100352)
I0620 17:30:05.256319 28881 net.cpp:165] Memory required for data: 115204096
I0620 17:30:05.256321 28881 layer_factory.hpp:77] Creating layer rpn/output_rpn_relu/3x3_0_split
I0620 17:30:05.256326 28881 net.cpp:106] Creating Layer rpn/output_rpn_relu/3x3_0_split
I0620 17:30:05.256328 28881 net.cpp:454] rpn/output_rpn_relu/3x3_0_split <- rpn/output
I0620 17:30:05.256331 28881 net.cpp:411] rpn/output_rpn_relu/3x3_0_split -> rpn/output_rpn_relu/3x3_0_split_0
I0620 17:30:05.256335 28881 net.cpp:411] rpn/output_rpn_relu/3x3_0_split -> rpn/output_rpn_relu/3x3_0_split_1
I0620 17:30:05.256376 28881 net.cpp:150] Setting up rpn/output_rpn_relu/3x3_0_split
I0620 17:30:05.256379 28881 net.cpp:157] Top shape: 1 512 14 14 (100352)
I0620 17:30:05.256381 28881 net.cpp:157] Top shape: 1 512 14 14 (100352)
I0620 17:30:05.256383 28881 net.cpp:165] Memory required for data: 116006912
I0620 17:30:05.256386 28881 layer_factory.hpp:77] Creating layer rpn_cls_score
I0620 17:30:05.256391 28881 net.cpp:106] Creating Layer rpn_cls_score
I0620 17:30:05.256393 28881 net.cpp:454] rpn_cls_score <- rpn/output_rpn_relu/3x3_0_split_0
I0620 17:30:05.256397 28881 net.cpp:411] rpn_cls_score -> rpn_cls_score
I0620 17:30:05.257598 28881 net.cpp:150] Setting up rpn_cls_score
I0620 17:30:05.257606 28881 net.cpp:157] Top shape: 1 18 14 14 (3528)
I0620 17:30:05.257608 28881 net.cpp:165] Memory required for data: 116021024
I0620 17:30:05.257613 28881 layer_factory.hpp:77] Creating layer rpn_bbox_pred
I0620 17:30:05.257618 28881 net.cpp:106] Creating Layer rpn_bbox_pred
I0620 17:30:05.257621 28881 net.cpp:454] rpn_bbox_pred <- rpn/output_rpn_relu/3x3_0_split_1
I0620 17:30:05.257624 28881 net.cpp:411] rpn_bbox_pred -> rpn_bbox_pred
I0620 17:30:05.258476 28881 net.cpp:150] Setting up rpn_bbox_pred
I0620 17:30:05.258499 28881 net.cpp:157] Top shape: 1 36 14 14 (7056)
I0620 17:30:05.258502 28881 net.cpp:165] Memory required for data: 116049248
I0620 17:30:05.258507 28881 layer_factory.hpp:77] Creating layer rpn_cls_score_reshape
I0620 17:30:05.258512 28881 net.cpp:106] Creating Layer rpn_cls_score_reshape
I0620 17:30:05.258514 28881 net.cpp:454] rpn_cls_score_reshape <- rpn_cls_score
I0620 17:30:05.258517 28881 net.cpp:411] rpn_cls_score_reshape -> rpn_cls_score_reshape
I0620 17:30:05.258535 28881 net.cpp:150] Setting up rpn_cls_score_reshape
I0620 17:30:05.258539 28881 net.cpp:157] Top shape: 1 2 126 14 (3528)
I0620 17:30:05.258541 28881 net.cpp:165] Memory required for data: 116063360
I0620 17:30:05.258543 28881 layer_factory.hpp:77] Creating layer rpn_cls_prob
I0620 17:30:05.258548 28881 net.cpp:106] Creating Layer rpn_cls_prob
I0620 17:30:05.258550 28881 net.cpp:454] rpn_cls_prob <- rpn_cls_score_reshape
I0620 17:30:05.258553 28881 net.cpp:411] rpn_cls_prob -> rpn_cls_prob
I0620 17:30:05.259091 28881 net.cpp:150] Setting up rpn_cls_prob
I0620 17:30:05.259099 28881 net.cpp:157] Top shape: 1 2 126 14 (3528)
I0620 17:30:05.259101 28881 net.cpp:165] Memory required for data: 116077472
I0620 17:30:05.259104 28881 layer_factory.hpp:77] Creating layer rpn_cls_prob_reshape
I0620 17:30:05.259107 28881 net.cpp:106] Creating Layer rpn_cls_prob_reshape
I0620 17:30:05.259109 28881 net.cpp:454] rpn_cls_prob_reshape <- rpn_cls_prob
I0620 17:30:05.259114 28881 net.cpp:411] rpn_cls_prob_reshape -> rpn_cls_prob_reshape
I0620 17:30:05.259129 28881 net.cpp:150] Setting up rpn_cls_prob_reshape
I0620 17:30:05.259147 28881 net.cpp:157] Top shape: 1 18 14 14 (3528)
I0620 17:30:05.259150 28881 net.cpp:165] Memory required for data: 116091584
I0620 17:30:05.259151 28881 layer_factory.hpp:77] Creating layer proposal
I0620 17:30:05.259907 28881 net.cpp:106] Creating Layer proposal
I0620 17:30:05.259914 28881 net.cpp:454] proposal <- rpn_cls_prob_reshape
I0620 17:30:05.259917 28881 net.cpp:454] proposal <- rpn_bbox_pred
I0620 17:30:05.259920 28881 net.cpp:454] proposal <- im_info
I0620 17:30:05.259924 28881 net.cpp:411] proposal -> rois
I0620 17:30:05.259928 28881 net.cpp:411] proposal -> scores
I0620 17:30:05.268793 28881 net.cpp:150] Setting up proposal
I0620 17:30:05.268811 28881 net.cpp:157] Top shape: 1 5 (5)
I0620 17:30:05.268815 28881 net.cpp:157] Top shape: 1 1 1 1 (1)
I0620 17:30:05.268817 28881 net.cpp:165] Memory required for data: 116091608
I0620 17:30:05.268821 28881 net.cpp:228] proposal does not need backward computation.
I0620 17:30:05.268826 28881 net.cpp:228] rpn_cls_prob_reshape does not need backward computation.
I0620 17:30:05.268828 28881 net.cpp:228] rpn_cls_prob does not need backward computation.
I0620 17:30:05.268831 28881 net.cpp:228] rpn_cls_score_reshape does not need backward computation.
…
I0620 17:38:30.630373 28905 solver.cpp:81] Creating training net from train_net file: models/pascal_voc/VGG16/faster_rcnn_alt_opt/stage1_fast_rcnn_train.pt
I0620 17:38:30.631048 28905 net.cpp:49] Initializing net from parameters: 
name: "VGG_ILSVRC_16_layers"
state {
  phase: TRAIN
}
layer {
  name: "data"
  type: "Python"
  top: "data"
  top: "rois"
  top: "labels"
  top: "bbox_targets"
  top: "bbox_inside_weights"
  top: "bbox_outside_weights"
  python_param {
    module: "roi_data_layer.layer"
    layer: "RoIDataLayer"
    param_str: "\'num_classes\': 2"
  }
}
layer {
  name: "conv1_1"
  type: "Convolution"
  bottom: "data"
  top: "conv1_1"
  param {
    lr_mult: 0
    decay_mult: 0
  }
  param {
    lr_mult: 0
    decay_mult: 0
  }
  convolution_param {
    num_output: 64
    pad: 1
    kernel_size: 3
  }
}
layer {
  name: "relu1_1"
  type: "ReLU"
  bottom: "conv1_1"
  top: "conv1_1"
}
layer {
  name: "conv1_2"
  type: "Convolution"
  bottom: "conv1_1"
  top: "conv1_2"
  param {
    lr_mult: 0
    decay_mult: 0
  }
  param {
    lr_mult: 0
    decay_mult: 0
  }
  convolution_param {
    num_output: 64
    pad: 1
    kernel_size: 3
  }
}
layer {
  name: "relu1_2"
  type: "ReLU"
  bottom: "conv1_2"
  top: "conv1_2"
}
layer {
  name: "pool1"
  type: "Pooling"
  bottom: "conv1_2"
  top: "pool1"
  pooling_param {
    pool: MAX
    kernel_size: 2
    stride: 2
  }
}
layer {
  name: "conv2_1"
  type: "Convolution"
  bottom: "pool1"
  top: "conv2_1"
  param {
    lr_mult: 0
    decay_mult: 0
  }
  param {
    lr_mult: 0
    decay_mult: 0
  }
  convolution_param {
    num_output: 128
    pad: 1
    kernel_size: 3
  }
}
layer {
  name: "relu2_1"
  type: "ReLU"
  bottom: "conv2_1"
  top: "conv2_1"
}
layer {
  name: "conv2_2"
  type: "Convolution"
  bottom: "conv2_1"
  top: "conv2_2"
  param {
    lr_mult: 0
    decay_mult: 0
  }
  param {
    lr_mult: 0
    decay_mult: 0
  }
  convolution_param {
    num_output: 128
    pad: 1
    kernel_size: 3
  }
}
layer {
  name: "relu2_2"
  type: "ReLU"
  bottom: "conv2_2"
  top: "conv2_2"
}
layer {
  name: "pool2"
  type: "Pooling"
  bottom: "conv2_2"
  top: "pool2"
  pooling_param {
    pool: MAX
    kernel_size: 2
    stride: 2
  }
}
layer {
  name: "conv3_1"
  type: "Convolution"
  bottom: "pool2"
  top: "conv3_1"
  param {
    lr_mult: 1
  }
  param {
    lr_mult: 2
  }
  convolution_param {
    num_output: 256
    pad: 1
    kernel_size: 3
  }
}
layer {
  name: "relu3_1"
  type: "ReLU"
  bottom: "conv3_1"
  top: "conv3_1"
}
layer {
  name: "conv3_2"
  type: "Convolution"
  bottom: "conv3_1"
  top: "conv3_2"
  param {
    lr_mult: 1
  }
  param {
    lr_mult: 2
  }
  convolution_param {
    num_output: 256
    pad: 1
    kernel_size: 3
  }
}
layer {
  name: "relu3_2"
  type: "ReLU"
  bottom: "conv3_2"
  top: "conv3_2"
}
layer {
  name: "conv3_3"
  type: "Convolution"
  bottom: "conv3_2"
  top: "conv3_3"
  param {
    lr_mult: 1
  }
  param {
    lr_mult: 2
  }
  convolution_param {
    num_output: 256
    pad: 1
    kernel_size: 3
  }
}
layer {
  name: "relu3_3"
  type: "ReLU"
  bottom: "conv3_3"
  top: "conv3_3"
}
layer {
  name: "pool3"
  type: "Pooling"
  bottom: "conv3_3"
  top: "pool3"
  pooling_param {
    pool: MAX
    kernel_size: 2
    stride: 2
  }
}
layer {
  name: "conv4_1"
  type: "Convolution"
  bottom: "pool3"
  top: "conv4_1"
  param {
    lr_mult: 1
  }
  param {
    lr_mult: 2
  }
  convolution_param {
    num_output: 512
    pad: 1
    kernel_size: 3
  }
}
layer {
  name: "relu4_1"
  type: "ReLU"
  bottom: "conv4_1"
  top: "conv4_1"
}
layer {
  name: "conv4_2"
  type: "Convolution"
  bottom: "conv4_1"
  top: "conv4_2"
  param {
    lr_mult: 1
  }
  param {
    lr_mult: 2
  }
  convolution_param {
    num_output: 512
    pad: 1
    kernel_size: 3
  }
}
layer {
  name: "relu4_2"
  type: "ReLU"
  bottom: "conv4_2"
  top: "conv4_2"
}
layer {
  name: "conv4_3"
  type: "Convolution"
  bottom: "conv4_2"
  top: "conv4_3"
  param {
    lr_mult: 1
  }
  param {
    lr_mult: 2
  }
  convolution_param {
    num_output: 512
    pad: 1
    kernel_size: 3
  }
}
layer {
  name: "relu4_3"
  type: "ReLU"
  bottom: "conv4_3"
  top: "conv4_3"
}
layer {
  name: "pool4"
  type: "Pooling"
  bottom: "conv4_3"
  top: "pool4"
  pooling_param {
    pool: MAX
    kernel_size: 2
    stride: 2
  }
}
layer {
  name: "conv5_1"
  type: "Convolution"
  bottom: "pool4"
  top: "conv5_1"
  param {
    lr_mult: 1
  }
  param {
    lr_mult: 2
  }
  convolution_param {
    num_output: 512
    pad: 1
    kernel_size: 3
  }
}
layer {
  name: "relu5_1"
  type: "ReLU"
  bottom: "conv5_1"
  top: "conv5_1"
}
layer {
  name: "conv5_2"
  type: "Convolution"
  bottom: "conv5_1"
  top: "conv5_2"
  param {
    lr_mult: 1
  }
  param {
    lr_mult: 2
  }
  convolution_param {
    num_output: 512
    pad: 1
    kernel_size: 3
  }
}
layer {
  name: "relu5_2"
  type: "ReLU"
  bottom: "conv5_2"
  top: "conv5_2"
}
layer {
  name: "conv5_3"
  type: "Convolution"
  bottom: "conv5_2"
  top: "conv5_3"
  param {
    lr_mult: 1
  }
  param {
    lr_mult: 2
  }
  convolution_param {
    num_output: 512
    pad: 1
    kernel_size: 3
  }
}
layer {
  name: "relu5_3"
  type: "ReLU"
  bottom: "conv5_3"
  top: "conv5_3"
}
layer {
  name: "roi_pool5"
  type: "ROIPooling"
  bottom: "conv5_3"
  bottom: "rois"
  top: "pool5"
  roi_pooling_param {
    pooled_h: 7
    pooled_w: 7
    spatial_scale: 0.0625
  }
}
layer {
  name: "fc6"
  type: "InnerProduct"
  bottom: "pool5"
  top: "fc6"
  param {
    lr_mult: 1
  }
  param {
    lr_mult: 2
  }
  inner_product_param {
    num_output: 4096
  }
}
layer {
  name: "relu6"
  type: "ReLU"
  bottom: "fc6"
  top: "fc6"
}
layer {
  name: "drop6"
  type: "Dropout"
  bottom: "fc6"
  top: "fc6"
  dropout_param {
    dropout_ratio: 0.5
  }
}
layer {
  name: "fc7"
  type: "InnerProduct"
  bottom: "fc6"
  top: "fc7"
  param {
    lr_mult: 1
  }
  param {
    lr_mult: 2
  }
  inner_product_param {
    num_output: 4096
  }
}
layer {
  name: "relu7"
  type: "ReLU"
  bottom: "fc7"
  top: "fc7"
}
layer {
  name: "drop7"
  type: "Dropout"
  bottom: "fc7"
  top: "fc7"
  dropout_param {
    dropout_ratio: 0.5
  }
}
layer {
  name: "cls_score"
  type: "InnerProduct"
  bottom: "fc7"
  top: "cls_score"
  param {
    lr_mult: 1
  }
  param {
    lr_mult: 2
  }
  inner_product_param {
    num_output: 2
    weight_filler {
      type: "gaussian"
      std: 0.01
    }
    bias_filler {
      type: "constant"
      value: 0
    }
  }
}
layer {
  name: "bbox_pred"
  type: "InnerProduct"
  bottom: "fc7"
  top: "bbox_pred"
  param {
    lr_mult: 1
  }
  param {
    lr_mult: 2
  }
  inner_product_param {
    num_output: 8
    weight_filler {
      type: "gaussian"
      std: 0.001
    }
    bias_filler {
      type: "constant"
      value: 0
    }
  }
}
layer {
  name: "loss_cls"
  type: "SoftmaxWithLoss"
  bottom: "cls_score"
  bottom: "labels"
  top: "loss_cls"
  loss_weight: 1
}
layer {
  name: "loss_bbox"
  type: "SmoothL1Loss"
  bottom: "bbox_pred"
  bottom: "bbox_targets"
  bottom: "bbox_inside_weights"
  bottom: "bbox_outside_weights"
  top: "loss_bbox"
  loss_weight: 1
}
layer {
  name: "rpn_conv/3x3"
  type: "Convolution"
  bottom: "conv5_3"
  top: "rpn/output"
  param {
    lr_mult: 0
    decay_mult: 0
  }
  param {
    lr_mult: 0
    decay_mult: 0
  }
  convolution_param {
    num_output: 512
    pad: 1
    kernel_size: 3
    stride: 1
    weight_filler {
      type: "gaussian"
      std: 0.01
    }
    bias_filler {
      type: "constant"
      value: 0
    }
  }
}
layer {
  name: "rpn_relu/3x3"
  type: "ReLU"
  bottom: "rpn/output"
  top: "rpn/output"
}
layer {
  name: "rpn_cls_score"
  type: "Convolution"
  bottom: "rpn/output"
  top: "rpn_cls_score"
  param {
    lr_mult: 0
    decay_mult: 0
  }
  param {
    lr_mult: 0
    decay_mult: 0
  }
  convolution_param {
    num_output: 18
    pad: 0
    kernel_size: 1
    stride: 1
    weight_filler {
      type: "gaussian"
      std: 0.01
    }
    bias_filler {
      type: "constant"
      value: 0
    }
  }
}
layer {
  name: "rpn_bbox_pred"
  type: "Convolution"
  bottom: "rpn/output"
  top: "rpn_bbox_pred"
  param {
    lr_mult: 0
    decay_mult: 0
  }
  param {
    lr_mult: 0
    decay_mult: 0
  }
  convolution_param {
    num_output: 36
    pad: 0
    kernel_size: 1
    stride: 1
    weight_filler {
      type: "gaussian"
      std: 0.01
    }
    bias_filler {
      type: "constant"
      value: 0
    }
  }
}
layer {
  name: "silence_rpn_cls_score"
  type: "Silence"
  bottom: "rpn_cls_score"
}
layer {
  name: "silence_rpn_bbox_pred"
  type: "Silence"
  bottom: "rpn_bbox_pred"
}
I0620 17:38:30.631213 28905 layer_factory.hpp:77] Creating layer data
I0620 17:38:30.631625 28905 net.cpp:106] Creating Layer data
I0620 17:38:30.631634 28905 net.cpp:411] data -> data
I0620 17:38:30.631644 28905 net.cpp:411] data -> rois
I0620 17:38:30.631649 28905 net.cpp:411] data -> labels
I0620 17:38:30.631654 28905 net.cpp:411] data -> bbox_targets
I0620 17:38:30.631657 28905 net.cpp:411] data -> bbox_inside_weights
I0620 17:38:30.631661 28905 net.cpp:411] data -> bbox_outside_weights
RoiDataLayer: name_to_top: {'bbox_inside_weights': 4, 'labels': 2, 'rois': 1, 'bbox_targets': 3, 'bbox_outside_weights': 5, 'data': 0}
I0620 17:38:30.638376 28905 net.cpp:150] Setting up data
I0620 17:38:30.638391 28905 net.cpp:157] Top shape: 2 3 600 1000 (3600000)
I0620 17:38:30.638394 28905 net.cpp:157] Top shape: 1 5 (5)
I0620 17:38:30.638397 28905 net.cpp:157] Top shape: 1 (1)
I0620 17:38:30.638401 28905 net.cpp:157] Top shape: 1 8 (8)
I0620 17:38:30.638402 28905 net.cpp:157] Top shape: 1 8 (8)
I0620 17:38:30.638406 28905 net.cpp:157] Top shape: 1 8 (8)
I0620 17:38:30.638407 28905 net.cpp:165] Memory required for data: 14400120
I0620 17:38:30.638411 28905 layer_factory.hpp:77] Creating layer conv1_1
I0620 17:38:30.638420 28905 net.cpp:106] Creating Layer conv1_1
I0620 17:38:30.638423 28905 net.cpp:454] conv1_1 <- data
I0620 17:38:30.638428 28905 net.cpp:411] conv1_1 -> conv1_1
I0620 17:38:31.164883 28905 net.cpp:150] Setting up conv1_1
I0620 17:38:31.164907 28905 net.cpp:157] Top shape: 2 64 600 1000 (76800000)
I0620 17:38:31.164911 28905 net.cpp:165] Memory required for data: 321600120
I0620 17:38:31.164927 28905 layer_factory.hpp:77] Creating layer relu1_1
I0620 17:38:31.164937 28905 net.cpp:106] Creating Layer relu1_1
I0620 17:38:31.164940 28905 net.cpp:454] relu1_1 <- conv1_1
I0620 17:38:31.164945 28905 net.cpp:397] relu1_1 -> conv1_1 (in-place)
I0620 17:38:31.165073 28905 net.cpp:150] Setting up relu1_1
I0620 17:38:31.165081 28905 net.cpp:157] Top shape: 2 64 600 1000 (76800000)
I0620 17:38:31.165083 28905 net.cpp:165] Memory required for data: 628800120
I0620 17:38:31.165086 28905 layer_factory.hpp:77] Creating layer conv1_2
I0620 17:38:31.165094 28905 net.cpp:106] Creating Layer conv1_2
I0620 17:38:31.165099 28905 net.cpp:454] conv1_2 <- conv1_1
I0620 17:38:31.165104 28905 net.cpp:411] conv1_2 -> conv1_2
I0620 17:38:31.167289 28905 net.cpp:150] Setting up conv1_2
I0620 17:38:31.167301 28905 net.cpp:157] Top shape: 2 64 600 1000 (76800000)
I0620 17:38:31.167305 28905 net.cpp:165] Memory required for data: 936000120
I0620 17:38:31.167315 28905 layer_factory.hpp:77] Creating layer relu1_2
I0620 17:38:31.167376 28905 net.cpp:106] Creating Layer relu1_2
I0620 17:38:31.167394 28905 net.cpp:454] relu1_2 <- conv1_2
I0620 17:38:31.167399 28905 net.cpp:397] relu1_2 -> conv1_2 (in-place)
I0620 17:38:31.167505 28905 net.cpp:150] Setting up relu1_2
I0620 17:38:31.167511 28905 net.cpp:157] Top shape: 2 64 600 1000 (76800000)
I0620 17:38:31.167515 28905 net.cpp:165] Memory required for data: 1243200120
I0620 17:38:31.167518 28905 layer_factory.hpp:77] Creating layer pool1
I0620 17:38:31.167526 28905 net.cpp:106] Creating Layer pool1
I0620 17:38:31.167531 28905 net.cpp:454] pool1 <- conv1_2
I0620 17:38:31.167536 28905 net.cpp:411] pool1 -> pool1
I0620 17:38:31.167569 28905 net.cpp:150] Setting up pool1
I0620 17:38:31.167575 28905 net.cpp:157] Top shape: 2 64 300 500 (19200000)
I0620 17:38:31.167579 28905 net.cpp:165] Memory required for data: 1320000120
I0620 17:38:31.167582 28905 layer_factory.hpp:77] Creating layer conv2_1
I0620 17:38:31.167592 28905 net.cpp:106] Creating Layer conv2_1
I0620 17:38:31.167595 28905 net.cpp:454] conv2_1 <- pool1
I0620 17:38:31.167600 28905 net.cpp:411] conv2_1 -> conv2_1
I0620 17:38:31.169248 28905 net.cpp:150] Setting up conv2_1
I0620 17:38:31.169257 28905 net.cpp:157] Top shape: 2 128 300 500 (38400000)
I0620 17:38:31.169261 28905 net.cpp:165] Memory required for data: 1473600120
I0620 17:38:31.169270 28905 layer_factory.hpp:77] Creating layer relu2_1
I0620 17:38:31.169277 28905 net.cpp:106] Creating Layer relu2_1
I0620 17:38:31.169282 28905 net.cpp:454] relu2_1 <- conv2_1
I0620 17:38:31.169288 28905 net.cpp:397] relu2_1 -> conv2_1 (in-place)
I0620 17:38:31.169766 28905 net.cpp:150] Setting up relu2_1
I0620 17:38:31.169775 28905 net.cpp:157] Top shape: 2 128 300 500 (38400000)
I0620 17:38:31.169780 28905 net.cpp:165] Memory required for data: 1627200120
I0620 17:38:31.169783 28905 layer_factory.hpp:77] Creating layer conv2_2
I0620 17:38:31.169792 28905 net.cpp:106] Creating Layer conv2_2
I0620 17:38:31.169796 28905 net.cpp:454] conv2_2 <- conv2_1
I0620 17:38:31.169802 28905 net.cpp:411] conv2_2 -> conv2_2
I0620 17:38:31.171061 28905 net.cpp:150] Setting up conv2_2
I0620 17:38:31.171072 28905 net.cpp:157] Top shape: 2 128 300 500 (38400000)
I0620 17:38:31.171075 28905 net.cpp:165] Memory required for data: 1780800120
I0620 17:38:31.171082 28905 layer_factory.hpp:77] Creating layer relu2_2
I0620 17:38:31.171089 28905 net.cpp:106] Creating Layer relu2_2
I0620 17:38:31.171094 28905 net.cpp:454] relu2_2 <- conv2_2
I0620 17:38:31.171100 28905 net.cpp:397] relu2_2 -> conv2_2 (in-place)
I0620 17:38:31.171205 28905 net.cpp:150] Setting up relu2_2
I0620 17:38:31.171212 28905 net.cpp:157] Top shape: 2 128 300 500 (38400000)
I0620 17:38:31.171216 28905 net.cpp:165] Memory required for data: 1934400120
I0620 17:38:31.171221 28905 layer_factory.hpp:77] Creating layer pool2
I0620 17:38:31.171228 28905 net.cpp:106] Creating Layer pool2
I0620 17:38:31.171232 28905 net.cpp:454] pool2 <- conv2_2
I0620 17:38:31.171237 28905 net.cpp:411] pool2 -> pool2
I0620 17:38:31.171281 28905 net.cpp:150] Setting up pool2
I0620 17:38:31.171286 28905 net.cpp:157] Top shape: 2 128 150 250 (9600000)
I0620 17:38:31.171290 28905 net.cpp:165] Memory required for data: 1972800120
I0620 17:38:31.171293 28905 layer_factory.hpp:77] Creating layer conv3_1
I0620 17:38:31.171314 28905 net.cpp:106] Creating Layer conv3_1
I0620 17:38:31.171321 28905 net.cpp:454] conv3_1 <- pool2
I0620 17:38:31.171329 28905 net.cpp:411] conv3_1 -> conv3_1
I0620 17:38:31.173091 28905 net.cpp:150] Setting up conv3_1
I0620 17:38:31.173100 28905 net.cpp:157] Top shape: 2 256 150 250 (19200000)
I0620 17:38:31.173105 28905 net.cpp:165] Memory required for data: 2049600120
I0620 17:38:31.173113 28905 layer_factory.hpp:77] Creating layer relu3_1
I0620 17:38:31.173120 28905 net.cpp:106] Creating Layer relu3_1
I0620 17:38:31.173125 28905 net.cpp:454] relu3_1 <- conv3_1
I0620 17:38:31.173130 28905 net.cpp:397] relu3_1 -> conv3_1 (in-place)
I0620 17:38:31.173235 28905 net.cpp:150] Setting up relu3_1
I0620 17:38:31.173243 28905 net.cpp:157] Top shape: 2 256 150 250 (19200000)
I0620 17:38:31.173245 28905 net.cpp:165] Memory required for data: 2126400120
I0620 17:38:31.173249 28905 layer_factory.hpp:77] Creating layer conv3_2
I0620 17:38:31.173259 28905 net.cpp:106] Creating Layer conv3_2
I0620 17:38:31.173262 28905 net.cpp:454] conv3_2 <- conv3_1
I0620 17:38:31.173267 28905 net.cpp:411] conv3_2 -> conv3_2
I0620 17:38:31.175163 28905 net.cpp:150] Setting up conv3_2
I0620 17:38:31.175173 28905 net.cpp:157] Top shape: 2 256 150 250 (19200000)
I0620 17:38:31.175176 28905 net.cpp:165] Memory required for data: 2203200120
I0620 17:38:31.175184 28905 layer_factory.hpp:77] Creating layer relu3_2
I0620 17:38:31.175191 28905 net.cpp:106] Creating Layer relu3_2
I0620 17:38:31.175197 28905 net.cpp:454] relu3_2 <- conv3_2
I0620 17:38:31.175204 28905 net.cpp:397] relu3_2 -> conv3_2 (in-place)
I0620 17:38:31.175313 28905 net.cpp:150] Setting up relu3_2
I0620 17:38:31.175330 28905 net.cpp:157] Top shape: 2 256 150 250 (19200000)
I0620 17:38:31.175334 28905 net.cpp:165] Memory required for data: 2280000120
I0620 17:38:31.175338 28905 layer_factory.hpp:77] Creating layer conv3_3
I0620 17:38:31.175346 28905 net.cpp:106] Creating Layer conv3_3
I0620 17:38:31.175350 28905 net.cpp:454] conv3_3 <- conv3_2
I0620 17:38:31.175356 28905 net.cpp:411] conv3_3 -> conv3_3
I0620 17:38:31.177532 28905 net.cpp:150] Setting up conv3_3
I0620 17:38:31.177553 28905 net.cpp:157] Top shape: 2 256 150 250 (19200000)
I0620 17:38:31.177557 28905 net.cpp:165] Memory required for data: 2356800120
I0620 17:38:31.177582 28905 layer_factory.hpp:77] Creating layer relu3_3
I0620 17:38:31.177592 28905 net.cpp:106] Creating Layer relu3_3
I0620 17:38:31.177599 28905 net.cpp:454] relu3_3 <- conv3_3
I0620 17:38:31.177605 28905 net.cpp:397] relu3_3 -> conv3_3 (in-place)
I0620 17:38:31.177731 28905 net.cpp:150] Setting up relu3_3
I0620 17:38:31.177738 28905 net.cpp:157] Top shape: 2 256 150 250 (19200000)
I0620 17:38:31.177742 28905 net.cpp:165] Memory required for data: 2433600120
I0620 17:38:31.177745 28905 layer_factory.hpp:77] Creating layer pool3
I0620 17:38:31.177753 28905 net.cpp:106] Creating Layer pool3
I0620 17:38:31.177757 28905 net.cpp:454] pool3 <- conv3_3
I0620 17:38:31.177762 28905 net.cpp:411] pool3 -> pool3
I0620 17:38:31.177819 28905 net.cpp:150] Setting up pool3
I0620 17:38:31.177824 28905 net.cpp:157] Top shape: 2 256 75 125 (4800000)
I0620 17:38:31.177829 28905 net.cpp:165] Memory required for data: 2452800120
I0620 17:38:31.177845 28905 layer_factory.hpp:77] Creating layer conv4_1
I0620 17:38:31.177867 28905 net.cpp:106] Creating Layer conv4_1
I0620 17:38:31.177871 28905 net.cpp:454] conv4_1 <- pool3
I0620 17:38:31.177877 28905 net.cpp:411] conv4_1 -> conv4_1
I0620 17:38:31.181535 28905 net.cpp:150] Setting up conv4_1
I0620 17:38:31.181555 28905 net.cpp:157] Top shape: 2 512 75 125 (9600000)
I0620 17:38:31.181560 28905 net.cpp:165] Memory required for data: 2491200120
I0620 17:38:31.181568 28905 layer_factory.hpp:77] Creating layer relu4_1
I0620 17:38:31.181578 28905 net.cpp:106] Creating Layer relu4_1
I0620 17:38:31.181584 28905 net.cpp:454] relu4_1 <- conv4_1
I0620 17:38:31.181591 28905 net.cpp:397] relu4_1 -> conv4_1 (in-place)
I0620 17:38:31.181710 28905 net.cpp:150] Setting up relu4_1
I0620 17:38:31.181717 28905 net.cpp:157] Top shape: 2 512 75 125 (9600000)
I0620 17:38:31.181721 28905 net.cpp:165] Memory required for data: 2529600120
I0620 17:38:31.181725 28905 layer_factory.hpp:77] Creating layer conv4_2
I0620 17:38:31.181735 28905 net.cpp:106] Creating Layer conv4_2
I0620 17:38:31.181738 28905 net.cpp:454] conv4_2 <- conv4_1
I0620 17:38:31.181746 28905 net.cpp:411] conv4_2 -> conv4_2
I0620 17:38:31.185765 28905 net.cpp:150] Setting up conv4_2
I0620 17:38:31.185786 28905 net.cpp:157] Top shape: 2 512 75 125 (9600000)
I0620 17:38:31.185788 28905 net.cpp:165] Memory required for data: 2568000120
I0620 17:38:31.185801 28905 layer_factory.hpp:77] Creating layer relu4_2
I0620 17:38:31.185811 28905 net.cpp:106] Creating Layer relu4_2
I0620 17:38:31.185817 28905 net.cpp:454] relu4_2 <- conv4_2
I0620 17:38:31.185824 28905 net.cpp:397] relu4_2 -> conv4_2 (in-place)
I0620 17:38:31.186506 28905 net.cpp:150] Setting up relu4_2
I0620 17:38:31.186517 28905 net.cpp:157] Top shape: 2 512 75 125 (9600000)
I0620 17:38:31.186520 28905 net.cpp:165] Memory required for data: 2606400120
I0620 17:38:31.186525 28905 layer_factory.hpp:77] Creating layer conv4_3
I0620 17:38:31.186534 28905 net.cpp:106] Creating Layer conv4_3
I0620 17:38:31.186538 28905 net.cpp:454] conv4_3 <- conv4_2
I0620 17:38:31.186545 28905 net.cpp:411] conv4_3 -> conv4_3
I0620 17:38:31.190429 28905 net.cpp:150] Setting up conv4_3
I0620 17:38:31.190449 28905 net.cpp:157] Top shape: 2 512 75 125 (9600000)
I0620 17:38:31.190452 28905 net.cpp:165] Memory required for data: 2644800120
I0620 17:38:31.190461 28905 layer_factory.hpp:77] Creating layer relu4_3
I0620 17:38:31.190470 28905 net.cpp:106] Creating Layer relu4_3
I0620 17:38:31.190476 28905 net.cpp:454] relu4_3 <- conv4_3
I0620 17:38:31.190484 28905 net.cpp:397] relu4_3 -> conv4_3 (in-place)
I0620 17:38:31.190594 28905 net.cpp:150] Setting up relu4_3
I0620 17:38:31.190601 28905 net.cpp:157] Top shape: 2 512 75 125 (9600000)
I0620 17:38:31.190604 28905 net.cpp:165] Memory required for data: 2683200120
I0620 17:38:31.190608 28905 layer_factory.hpp:77] Creating layer pool4
I0620 17:38:31.190616 28905 net.cpp:106] Creating Layer pool4
I0620 17:38:31.190620 28905 net.cpp:454] pool4 <- conv4_3
I0620 17:38:31.190625 28905 net.cpp:411] pool4 -> pool4
I0620 17:38:31.190659 28905 net.cpp:150] Setting up pool4
I0620 17:38:31.190663 28905 net.cpp:157] Top shape: 2 512 38 63 (2451456)
I0620 17:38:31.190666 28905 net.cpp:165] Memory required for data: 2693005944
I0620 17:38:31.190670 28905 layer_factory.hpp:77] Creating layer conv5_1
I0620 17:38:31.190678 28905 net.cpp:106] Creating Layer conv5_1
I0620 17:38:31.190682 28905 net.cpp:454] conv5_1 <- pool4
I0620 17:38:31.190688 28905 net.cpp:411] conv5_1 -> conv5_1
I0620 17:38:31.194491 28905 net.cpp:150] Setting up conv5_1
I0620 17:38:31.194511 28905 net.cpp:157] Top shape: 2 512 38 63 (2451456)
I0620 17:38:31.194515 28905 net.cpp:165] Memory required for data: 2702811768
I0620 17:38:31.194524 28905 layer_factory.hpp:77] Creating layer relu5_1
I0620 17:38:31.194533 28905 net.cpp:106] Creating Layer relu5_1
I0620 17:38:31.194540 28905 net.cpp:454] relu5_1 <- conv5_1
I0620 17:38:31.194548 28905 net.cpp:397] relu5_1 -> conv5_1 (in-place)
I0620 17:38:31.194690 28905 net.cpp:150] Setting up relu5_1
I0620 17:38:31.194697 28905 net.cpp:157] Top shape: 2 512 38 63 (2451456)
I0620 17:38:31.194701 28905 net.cpp:165] Memory required for data: 2712617592
I0620 17:38:31.194705 28905 layer_factory.hpp:77] Creating layer conv5_2
I0620 17:38:31.194713 28905 net.cpp:106] Creating Layer conv5_2
I0620 17:38:31.194718 28905 net.cpp:454] conv5_2 <- conv5_1
I0620 17:38:31.194725 28905 net.cpp:411] conv5_2 -> conv5_2
I0620 17:38:31.198406 28905 net.cpp:150] Setting up conv5_2
I0620 17:38:31.198426 28905 net.cpp:157] Top shape: 2 512 38 63 (2451456)
I0620 17:38:31.198431 28905 net.cpp:165] Memory required for data: 2722423416
I0620 17:38:31.198438 28905 layer_factory.hpp:77] Creating layer relu5_2
I0620 17:38:31.198447 28905 net.cpp:106] Creating Layer relu5_2
I0620 17:38:31.198453 28905 net.cpp:454] relu5_2 <- conv5_2
I0620 17:38:31.198484 28905 net.cpp:397] relu5_2 -> conv5_2 (in-place)
I0620 17:38:31.198642 28905 net.cpp:150] Setting up relu5_2
I0620 17:38:31.198649 28905 net.cpp:157] Top shape: 2 512 38 63 (2451456)
I0620 17:38:31.198652 28905 net.cpp:165] Memory required for data: 2732229240
I0620 17:38:31.198657 28905 layer_factory.hpp:77] Creating layer conv5_3
I0620 17:38:31.198665 28905 net.cpp:106] Creating Layer conv5_3
I0620 17:38:31.198669 28905 net.cpp:454] conv5_3 <- conv5_2
I0620 17:38:31.198676 28905 net.cpp:411] conv5_3 -> conv5_3
I0620 17:38:31.202666 28905 net.cpp:150] Setting up conv5_3
I0620 17:38:31.202687 28905 net.cpp:157] Top shape: 2 512 38 63 (2451456)
I0620 17:38:31.202689 28905 net.cpp:165] Memory required for data: 2742035064
I0620 17:38:31.202698 28905 layer_factory.hpp:77] Creating layer relu5_3
I0620 17:38:31.202708 28905 net.cpp:106] Creating Layer relu5_3
I0620 17:38:31.202714 28905 net.cpp:454] relu5_3 <- conv5_3
I0620 17:38:31.202721 28905 net.cpp:397] relu5_3 -> conv5_3 (in-place)
I0620 17:38:31.202865 28905 net.cpp:150] Setting up relu5_3
I0620 17:38:31.202872 28905 net.cpp:157] Top shape: 2 512 38 63 (2451456)
I0620 17:38:31.202875 28905 net.cpp:165] Memory required for data: 2751840888
I0620 17:38:31.202879 28905 layer_factory.hpp:77] Creating layer conv5_3_relu5_3_0_split
I0620 17:38:31.202886 28905 net.cpp:106] Creating Layer conv5_3_relu5_3_0_split
I0620 17:38:31.202890 28905 net.cpp:454] conv5_3_relu5_3_0_split <- conv5_3
I0620 17:38:31.202895 28905 net.cpp:411] conv5_3_relu5_3_0_split -> conv5_3_relu5_3_0_split_0
I0620 17:38:31.202903 28905 net.cpp:411] conv5_3_relu5_3_0_split -> conv5_3_relu5_3_0_split_1
I0620 17:38:31.202934 28905 net.cpp:150] Setting up conv5_3_relu5_3_0_split
I0620 17:38:31.202939 28905 net.cpp:157] Top shape: 2 512 38 63 (2451456)
I0620 17:38:31.202944 28905 net.cpp:157] Top shape: 2 512 38 63 (2451456)
I0620 17:38:31.202947 28905 net.cpp:165] Memory required for data: 2771452536
I0620 17:38:31.202950 28905 layer_factory.hpp:77] Creating layer roi_pool5
I0620 17:38:31.202962 28905 net.cpp:106] Creating Layer roi_pool5
I0620 17:38:31.202966 28905 net.cpp:454] roi_pool5 <- conv5_3_relu5_3_0_split_0
I0620 17:38:31.202971 28905 net.cpp:454] roi_pool5 <- rois
I0620 17:38:31.202978 28905 net.cpp:411] roi_pool5 -> pool5
I0620 17:38:31.202987 28905 roi_pooling_layer.cpp:30] Spatial scale: 0.0625
I0620 17:38:31.203019 28905 net.cpp:150] Setting up roi_pool5
I0620 17:38:31.203024 28905 net.cpp:157] Top shape: 1 512 7 7 (25088)
I0620 17:38:31.203028 28905 net.cpp:165] Memory required for data: 2771552888
I0620 17:38:31.203032 28905 layer_factory.hpp:77] Creating layer fc6
I0620 17:38:31.203039 28905 net.cpp:106] Creating Layer fc6
I0620 17:38:31.203043 28905 net.cpp:454] fc6 <- pool5
I0620 17:38:31.203048 28905 net.cpp:411] fc6 -> fc6
I0620 17:38:31.319779 28905 net.cpp:150] Setting up fc6
I0620 17:38:31.319802 28905 net.cpp:157] Top shape: 1 4096 (4096)
I0620 17:38:31.319805 28905 net.cpp:165] Memory required for data: 2771569272
I0620 17:38:31.319814 28905 layer_factory.hpp:77] Creating layer relu6
I0620 17:38:31.319838 28905 net.cpp:106] Creating Layer relu6
I0620 17:38:31.319842 28905 net.cpp:454] relu6 <- fc6
I0620 17:38:31.319849 28905 net.cpp:397] relu6 -> fc6 (in-place)
I0620 17:38:31.320459 28905 net.cpp:150] Setting up relu6
I0620 17:38:31.320468 28905 net.cpp:157] Top shape: 1 4096 (4096)
I0620 17:38:31.320472 28905 net.cpp:165] Memory required for data: 2771585656
I0620 17:38:31.320475 28905 layer_factory.hpp:77] Creating layer drop6
I0620 17:38:31.320483 28905 net.cpp:106] Creating Layer drop6
I0620 17:38:31.320502 28905 net.cpp:454] drop6 <- fc6
I0620 17:38:31.320508 28905 net.cpp:397] drop6 -> fc6 (in-place)
I0620 17:38:31.320531 28905 net.cpp:150] Setting up drop6
I0620 17:38:31.320536 28905 net.cpp:157] Top shape: 1 4096 (4096)
I0620 17:38:31.320539 28905 net.cpp:165] Memory required for data: 2771602040
I0620 17:38:31.320564 28905 layer_factory.hpp:77] Creating layer fc7
I0620 17:38:31.320569 28905 net.cpp:106] Creating Layer fc7
I0620 17:38:31.320574 28905 net.cpp:454] fc7 <- fc6
I0620 17:38:31.320580 28905 net.cpp:411] fc7 -> fc7
I0620 17:38:31.340648 28905 net.cpp:150] Setting up fc7
I0620 17:38:31.340669 28905 net.cpp:157] Top shape: 1 4096 (4096)
I0620 17:38:31.340672 28905 net.cpp:165] Memory required for data: 2771618424
I0620 17:38:31.340682 28905 layer_factory.hpp:77] Creating layer relu7
I0620 17:38:31.340692 28905 net.cpp:106] Creating Layer relu7
I0620 17:38:31.340698 28905 net.cpp:454] relu7 <- fc7
I0620 17:38:31.340704 28905 net.cpp:397] relu7 -> fc7 (in-place)
I0620 17:38:31.340881 28905 net.cpp:150] Setting up relu7
I0620 17:38:31.340888 28905 net.cpp:157] Top shape: 1 4096 (4096)
I0620 17:38:31.340893 28905 net.cpp:165] Memory required for data: 2771634808
I0620 17:38:31.340898 28905 layer_factory.hpp:77] Creating layer drop7
I0620 17:38:31.340904 28905 net.cpp:106] Creating Layer drop7
I0620 17:38:31.340909 28905 net.cpp:454] drop7 <- fc7
I0620 17:38:31.340914 28905 net.cpp:397] drop7 -> fc7 (in-place)
I0620 17:38:31.340966 28905 net.cpp:150] Setting up drop7
I0620 17:38:31.340971 28905 net.cpp:157] Top shape: 1 4096 (4096)
I0620 17:38:31.340975 28905 net.cpp:165] Memory required for data: 2771651192
I0620 17:38:31.340979 28905 layer_factory.hpp:77] Creating layer fc7_drop7_0_split
I0620 17:38:31.340986 28905 net.cpp:106] Creating Layer fc7_drop7_0_split
I0620 17:38:31.340989 28905 net.cpp:454] fc7_drop7_0_split <- fc7
I0620 17:38:31.340996 28905 net.cpp:411] fc7_drop7_0_split -> fc7_drop7_0_split_0
I0620 17:38:31.341001 28905 net.cpp:411] fc7_drop7_0_split -> fc7_drop7_0_split_1
I0620 17:38:31.341060 28905 net.cpp:150] Setting up fc7_drop7_0_split
I0620 17:38:31.341068 28905 net.cpp:157] Top shape: 1 4096 (4096)
I0620 17:38:31.341071 28905 net.cpp:157] Top shape: 1 4096 (4096)
I0620 17:38:31.341076 28905 net.cpp:165] Memory required for data: 2771683960
I0620 17:38:31.341079 28905 layer_factory.hpp:77] Creating layer cls_score
I0620 17:38:31.341087 28905 net.cpp:106] Creating Layer cls_score
I0620 17:38:31.341091 28905 net.cpp:454] cls_score <- fc7_drop7_0_split_0
I0620 17:38:31.341114 28905 net.cpp:411] cls_score -> cls_score
I0620 17:38:31.341374 28905 net.cpp:150] Setting up cls_score
I0620 17:38:31.341380 28905 net.cpp:157] Top shape: 1 2 (2)
I0620 17:38:31.341383 28905 net.cpp:165] Memory required for data: 2771683968
I0620 17:38:31.341405 28905 layer_factory.hpp:77] Creating layer bbox_pred
I0620 17:38:31.341413 28905 net.cpp:106] Creating Layer bbox_pred
I0620 17:38:31.341416 28905 net.cpp:454] bbox_pred <- fc7_drop7_0_split_1
I0620 17:38:31.341424 28905 net.cpp:411] bbox_pred -> bbox_pred
I0620 17:38:31.342177 28905 net.cpp:150] Setting up bbox_pred
I0620 17:38:31.342183 28905 net.cpp:157] Top shape: 1 8 (8)
I0620 17:38:31.342186 28905 net.cpp:165] Memory required for data: 2771684000
I0620 17:38:31.342211 28905 layer_factory.hpp:77] Creating layer loss_cls
I0620 17:38:31.342217 28905 net.cpp:106] Creating Layer loss_cls
I0620 17:38:31.342221 28905 net.cpp:454] loss_cls <- cls_score
I0620 17:38:31.342226 28905 net.cpp:454] loss_cls <- labels
I0620 17:38:31.342231 28905 net.cpp:411] loss_cls -> loss_cls
…
I0620 17:38:31.342581 28905 net.cpp:157] Top shape: (1)
I0620 17:38:31.342584 28905 net.cpp:160]     with loss weight 1
I0620 17:38:31.342589 28905 net.cpp:165] Memory required for data: 2771684008
I0620 17:38:31.342592 28905 layer_factory.hpp:77] Creating layer rpn_conv/3x3
I0620 17:38:31.342604 28905 net.cpp:106] Creating Layer rpn_conv/3x3
I0620 17:38:31.342620 28905 net.cpp:454] rpn_conv/3x3 <- conv5_3_relu5_3_0_split_1
I0620 17:38:31.342627 28905 net.cpp:411] rpn_conv/3x3 -> rpn/output
I0620 17:38:31.393214 28905 net.cpp:150] Setting up rpn_conv/3x3
I0620 17:38:31.393234 28905 net.cpp:157] Top shape: 2 512 38 63 (2451456)
I0620 17:38:31.393237 28905 net.cpp:165] Memory required for data: 2781489832
I0620 17:38:31.393246 28905 layer_factory.hpp:77] Creating layer rpn_relu/3x3
I0620 17:38:31.393270 28905 net.cpp:106] Creating Layer rpn_relu/3x3
I0620 17:38:31.393276 28905 net.cpp:454] rpn_relu/3x3 <- rpn/output
I0620 17:38:31.393285 28905 net.cpp:397] rpn_relu/3x3 -> rpn/output (in-place)
I0620 17:38:31.393411 28905 net.cpp:150] Setting up rpn_relu/3x3
I0620 17:38:31.393419 28905 net.cpp:157] Top shape: 2 512 38 63 (2451456)
I0620 17:38:31.393422 28905 net.cpp:165] Memory required for data: 2791295656
I0620 17:38:31.393425 28905 layer_factory.hpp:77] Creating layer rpn/output_rpn_relu/3x3_0_split
I0620 17:38:31.393434 28905 net.cpp:106] Creating Layer rpn/output_rpn_relu/3x3_0_split
I0620 17:38:31.393437 28905 net.cpp:454] rpn/output_rpn_relu/3x3_0_split <- rpn/output
I0620 17:38:31.393442 28905 net.cpp:411] rpn/output_rpn_relu/3x3_0_split -> rpn/output_rpn_relu/3x3_0_split_0
I0620 17:38:31.393450 28905 net.cpp:411] rpn/output_rpn_relu/3x3_0_split -> rpn/output_rpn_relu/3x3_0_split_1
I0620 17:38:31.393537 28905 net.cpp:150] Setting up rpn/output_rpn_relu/3x3_0_split
I0620 17:38:31.393543 28905 net.cpp:157] Top shape: 2 512 38 63 (2451456)
I0620 17:38:31.393546 28905 net.cpp:157] Top shape: 2 512 38 63 (2451456)
I0620 17:38:31.393550 28905 net.cpp:165] Memory required for data: 2810907304
I0620 17:38:31.393553 28905 layer_factory.hpp:77] Creating layer rpn_cls_score
I0620 17:38:31.393563 28905 net.cpp:106] Creating Layer rpn_cls_score
I0620 17:38:31.393568 28905 net.cpp:454] rpn_cls_score <- rpn/output_rpn_relu/3x3_0_split_0
I0620 17:38:31.393574 28905 net.cpp:411] rpn_cls_score -> rpn_cls_score
I0620 17:38:31.394645 28905 net.cpp:150] Setting up rpn_cls_score
I0620 17:38:31.394655 28905 net.cpp:157] Top shape: 2 18 38 63 (86184)
I0620 17:38:31.394659 28905 net.cpp:165] Memory required for data: 2811252040
I0620 17:38:31.394665 28905 layer_factory.hpp:77] Creating layer rpn_bbox_pred
I0620 17:38:31.394678 28905 net.cpp:106] Creating Layer rpn_bbox_pred
I0620 17:38:31.394682 28905 net.cpp:454] rpn_bbox_pred <- rpn/output_rpn_relu/3x3_0_split_1
I0620 17:38:31.394690 28905 net.cpp:411] rpn_bbox_pred -> rpn_bbox_pred
I0620 17:38:31.395946 28905 net.cpp:150] Setting up rpn_bbox_pred
I0620 17:38:31.395956 28905 net.cpp:157] Top shape: 2 36 38 63 (172368)
I0620 17:38:31.395959 28905 net.cpp:165] Memory required for data: 2811941512
I0620 17:38:31.395965 28905 layer_factory.hpp:77] Creating layer silence_rpn_cls_score
I0620 17:38:31.395972 28905 net.cpp:106] Creating Layer silence_rpn_cls_score
I0620 17:38:31.395977 28905 net.cpp:454] silence_rpn_cls_score <- rpn_cls_score
I0620 17:38:31.395982 28905 net.cpp:150] Setting up silence_rpn_cls_score
…
           'RPN_POST_NMS_TOP_N': 2000,
           'RPN_PRE_NMS_TOP_N': 12000,
           'SCALES': [600],
           'SNAPSHOT_INFIX': '',
           'SNAPSHOT_ITERS': 10000,
           'USE_FLIPPED': True,
           'USE_PREFETCH': False},
 'USE_GPU_NMS': True}
WARNING: Logging before InitGoogleLogging() is written to STDERR
I0620 18:25:53.220901 29651 net.cpp:49] Initializing net from parameters: 
name: "VGG_ILSVRC_16_layers"
input: "data"
input: "im_info"
state {
  phase: TEST
}
input_shape {
  dim: 1
  dim: 3
  dim: 224
  dim: 224
}
input_shape {
  dim: 1
  dim: 3
}
layer {
  name: "conv1_1"
  type: "Convolution"
  bottom: "data"
  top: "conv1_1"
  convolution_param {
    num_output: 64
    pad: 1
    kernel_size: 3
  }
}
layer {
  name: "relu1_1"
  type: "ReLU"
  bottom: "conv1_1"
  top: "conv1_1"
}
layer {
  name: "conv1_2"
  type: "Convolution"
  bottom: "conv1_1"
  top: "conv1_2"
  convolution_param {
    num_output: 64
    pad: 1
    kernel_size: 3
  }
}
layer {
  name: "relu1_2"
  type: "ReLU"
  bottom: "conv1_2"
  top: "conv1_2"
}
layer {
  name: "pool1"
  type: "Pooling"
  bottom: "conv1_2"
  top: "pool1"
  pooling_param {
    pool: MAX
    kernel_size: 2
    stride: 2
  }
}
layer {
  name: "conv2_1"
  type: "Convolution"
  bottom: "pool1"
  top: "conv2_1"
  convolution_param {
    num_output: 128
    pad: 1
    kernel_size: 3
  }
}
layer {
  name: "relu2_1"
  type: "ReLU"
  bottom: "conv2_1"
  top: "conv2_1"
}
layer {
  name: "conv2_2"
  type: "Convolution"
  bottom: "conv2_1"
  top: "conv2_2"
  convolution_param {
    num_output: 128
    pad: 1
    kernel_size: 3
  }
}
layer {
  name: "relu2_2"
  type: "ReLU"
  bottom: "conv2_2"
  top: "conv2_2"
}
layer {
  name: "pool2"
  type: "Pooling"
  bottom: "conv2_2"
  top: "pool2"
  pooling_param {
    pool: MAX
    kernel_size: 2
    stride: 2
  }
}
layer {
  name: "conv3_1"
  type: "Convolution"
  bottom: "pool2"
  top: "conv3_1"
  convolution_param {
    num_output: 256
    pad: 1
    kernel_size: 3
  }
}
layer {
  name: "relu3_1"
  type: "ReLU"
  bottom: "conv3_1"
  top: "conv3_1"
}
layer {
  name: "conv3_2"
  type: "Convolution"
  bottom: "conv3_1"
  top: "conv3_2"
  convolution_param {
    num_output: 256
    pad: 1
    kernel_size: 3
  }
}
layer {
  name: "relu3_2"
  type: "ReLU"
  bottom: "conv3_2"
  top: "conv3_2"
}
layer {
  name: "conv3_3"
  type: "Convolution"
  bottom: "conv3_2"
  top: "conv3_3"
  convolution_param {
    num_output: 256
    pad: 1
    kernel_size: 3
  }
}
layer {
  name: "relu3_3"
  type: "ReLU"
  bottom: "conv3_3"
  top: "conv3_3"
}
layer {
  name: "pool3"
  type: "Pooling"
  bottom: "conv3_3"
  top: "pool3"
  pooling_param {
    pool: MAX
    kernel_size: 2
    stride: 2
  }
}
layer {
  name: "conv4_1"
  type: "Convolution"
  bottom: "pool3"
  top: "conv4_1"
  convolution_param {
    num_output: 512
    pad: 1
    kernel_size: 3
  }
}
layer {
  name: "relu4_1"
  type: "ReLU"
  bottom: "conv4_1"
  top: "conv4_1"
}
layer {
  name: "conv4_2"
  type: "Convolution"
  bottom: "conv4_1"
  top: "conv4_2"
  convolution_param {
    num_output: 512
    pad: 1
    kernel_size: 3
  }
}
layer {
  name: "relu4_2"
  type: "ReLU"
  bottom: "conv4_2"
  top: "conv4_2"
}
layer {
  name: "conv4_3"
  type: "Convolution"
  bottom: "conv4_2"
  top: "conv4_3"
  convolution_param {
    num_output: 512
    pad: 1
    kernel_size: 3
  }
}
layer {
  name: "relu4_3"
  type: "ReLU"
  bottom: "conv4_3"
  top: "conv4_3"
}
layer {
  name: "pool4"
  type: "Pooling"
  bottom: "conv4_3"
  top: "pool4"
  pooling_param {
    pool: MAX
    kernel_size: 2
    stride: 2
  }
}
layer {
  name: "conv5_1"
  type: "Convolution"
  bottom: "pool4"
  top: "conv5_1"
  convolution_param {
    num_output: 512
    pad: 1
    kernel_size: 3
  }
}
layer {
  name: "relu5_1"
  type: "ReLU"
  bottom: "conv5_1"
  top: "conv5_1"
}
layer {
  name: "conv5_2"
  type: "Convolution"
  bottom: "conv5_1"
  top: "conv5_2"
  convolution_param {
    num_output: 512
    pad: 1
    kernel_size: 3
  }
}
layer {
  name: "relu5_2"
  type: "ReLU"
  bottom: "conv5_2"
  top: "conv5_2"
}
layer {
  name: "conv5_3"
  type: "Convolution"
  bottom: "conv5_2"
  top: "conv5_3"
  convolution_param {
    num_output: 512
    pad: 1
    kernel_size: 3
  }
}
layer {
  name: "relu5_3"
  type: "ReLU"
  bottom: "conv5_3"
  top: "conv5_3"
}
layer {
  name: "rpn_conv/3x3"
  type: "Convolution"
  bottom: "conv5_3"
  top: "rpn/output"
  convolution_param {
    num_output: 512
    pad: 1
    kernel_size: 3
    stride: 1
  }
}
layer {
  name: "rpn_relu/3x3"
  type: "ReLU"
  bottom: "rpn/output"
  top: "rpn/output"
}
layer {
  name: "rpn_cls_score"
  type: "Convolution"
  bottom: "rpn/output"
  top: "rpn_cls_score"
  convolution_param {
    num_output: 18
    pad: 0
    kernel_size: 1
    stride: 1
  }
}
layer {
  name: "rpn_bbox_pred"
  type: "Convolution"
  bottom: "rpn/output"
  top: "rpn_bbox_pred"
  convolution_param {
    num_output: 36
    pad: 0
    kernel_size: 1
    stride: 1
  }
}
layer {
  name: "rpn_cls_score_reshape"
  type: "Reshape"
  bottom: "rpn_cls_score"
  top: "rpn_cls_score_reshape"
  reshape_param {
    shape {
      dim: 0
      dim: 2
      dim: -1
      dim: 0
    }
  }
}
layer {
  name: "rpn_cls_prob"
  type: "Softmax"
  bottom: "rpn_cls_score_reshape"
  top: "rpn_cls_prob"
}
layer {
  name: "rpn_cls_prob_reshape"
  type: "Reshape"
  bottom: "rpn_cls_prob"
  top: "rpn_cls_prob_reshape"
  reshape_param {
    shape {
      dim: 0
      dim: 18
      dim: -1
      dim: 0
    }
  }
}
layer {
  name: "proposal"
  type: "Python"
  bottom: "rpn_cls_prob_reshape"
  bottom: "rpn_bbox_pred"
  bottom: "im_info"
  top: "rois"
  python_param {
    module: "rpn.proposal_layer"
    layer: "ProposalLayer"
    param_str: "\'feat_stride\': 16"
  }
}
layer {
  name: "roi_pool5"
  type: "ROIPooling"
  bottom: "conv5_3"
  bottom: "rois"
  top: "pool5"
  roi_pooling_param {
    pooled_h: 7
    pooled_w: 7
    spatial_scale: 0.0625
  }
}
layer {
  name: "fc6"
  type: "InnerProduct"
  bottom: "pool5"
  top: "fc6"
  inner_product_param {
    num_output: 4096
  }
}
layer {
  name: "relu6"
  type: "ReLU"
  bottom: "fc6"
  top: "fc6"
}
layer {
  name: "fc7"
  type: "InnerProduct"
  bottom: "fc6"
  top: "fc7"
  inner_product_param {
    num_output: 4096
  }
}
layer {
  name: "relu7"
  type: "ReLU"
  bottom: "fc7"
  top: "fc7"
}
layer {
  name: "cls_score"
  type: "InnerProduct"
  bottom: "fc7"
  top: "cls_score"
  inner_product_param {
    num_output: 2
  }
}
layer {
  name: "bbox_pred"
  type: "InnerProduct"
  bottom: "fc7"
  top: "bbox_pred"
  inner_product_param {
    num_output: 8
  }
}
layer {
  name: "cls_prob"
  type: "Softmax"
  bottom: "cls_score"
  top: "cls_prob"
}
I0620 18:25:53.221118 29651 net.cpp:413] Input 0 -> data
I0620 18:25:53.235741 29651 net.cpp:413] Input 1 -> im_info
I0620 18:25:53.235775 29651 layer_factory.hpp:77] Creating layer conv1_1
I0620 18:25:53.235790 29651 net.cpp:106] Creating Layer conv1_1
I0620 18:25:53.235807 29651 net.cpp:454] conv1_1 <- data
I0620 18:25:53.235811 29651 net.cpp:411] conv1_1 -> conv1_1
I0620 18:25:53.777501 29651 net.cpp:150] Setting up conv1_1
I0620 18:25:53.777520 29651 net.cpp:157] Top shape: 1 64 224 224 (3211264)
I0620 18:25:53.777523 29651 net.cpp:165] Memory required for data: 12845056
I0620 18:25:53.777556 29651 layer_factory.hpp:77] Creating layer relu1_1
I0620 18:25:53.777567 29651 net.cpp:106] Creating Layer relu1_1
I0620 18:25:53.777571 29651 net.cpp:454] relu1_1 <- conv1_1
I0620 18:25:53.777575 29651 net.cpp:397] relu1_1 -> conv1_1 (in-place)
I0620 18:25:53.777698 29651 net.cpp:150] Setting up relu1_1
I0620 18:25:53.777703 29651 net.cpp:157] Top shape: 1 64 224 224 (3211264)
I0620 18:25:53.777705 29651 net.cpp:165] Memory required for data: 25690112
I0620 18:25:53.777709 29651 layer_factory.hpp:77] Creating layer conv1_2
I0620 18:25:53.777730 29651 net.cpp:106] Creating Layer conv1_2
I0620 18:25:53.777734 29651 net.cpp:454] conv1_2 <- conv1_1
I0620 18:25:53.777736 29651 net.cpp:411] conv1_2 -> conv1_2
I0620 18:25:53.778671 29651 net.cpp:150] Setting up conv1_2
I0620 18:25:53.778695 29651 net.cpp:157] Top shape: 1 64 224 224 (3211264)
I0620 18:25:53.778698 29651 net.cpp:165] Memory required for data: 38535168
I0620 18:25:53.778704 29651 layer_factory.hpp:77] Creating layer relu1_2
I0620 18:25:53.778709 29651 net.cpp:106] Creating Layer relu1_2
I0620 18:25:53.778713 29651 net.cpp:454] relu1_2 <- conv1_2
I0620 18:25:53.778717 29651 net.cpp:397] relu1_2 -> conv1_2 (in-place)
I0620 18:25:53.778825 29651 net.cpp:150] Setting up relu1_2
I0620 18:25:53.778831 29651 net.cpp:157] Top shape: 1 64 224 224 (3211264)
I0620 18:25:53.778847 29651 net.cpp:165] Memory required for data: 51380224
I0620 18:25:53.778849 29651 layer_factory.hpp:77] Creating layer pool1
I0620 18:25:53.778854 29651 net.cpp:106] Creating Layer pool1
I0620 18:25:53.778856 29651 net.cpp:454] pool1 <- conv1_2
I0620 18:25:53.778859 29651 net.cpp:411] pool1 -> pool1
I0620 18:25:53.778884 29651 net.cpp:150] Setting up pool1
I0620 18:25:53.778901 29651 net.cpp:157] Top shape: 1 64 112 112 (802816)
I0620 18:25:53.778903 29651 net.cpp:165] Memory required for data: 54591488
I0620 18:25:53.778905 29651 layer_factory.hpp:77] Creating layer conv2_1
I0620 18:25:53.778923 29651 net.cpp:106] Creating Layer conv2_1
I0620 18:25:53.778925 29651 net.cpp:454] conv2_1 <- pool1
I0620 18:25:53.778928 29651 net.cpp:411] conv2_1 -> conv2_1
I0620 18:25:53.781172 29651 net.cpp:150] Setting up conv2_1
I0620 18:25:53.781184 29651 net.cpp:157] Top shape: 1 128 112 112 (1605632)
I0620 18:25:53.781186 29651 net.cpp:165] Memory required for data: 61014016
I0620 18:25:53.781193 29651 layer_factory.hpp:77] Creating layer relu2_1
I0620 18:25:53.781198 29651 net.cpp:106] Creating Layer relu2_1
I0620 18:25:53.781201 29651 net.cpp:454] relu2_1 <- conv2_1
I0620 18:25:53.781204 29651 net.cpp:397] relu2_1 -> conv2_1 (in-place)
I0620 18:25:53.781703 29651 net.cpp:150] Setting up relu2_1
I0620 18:25:53.781710 29651 net.cpp:157] Top shape: 1 128 112 112 (1605632)
I0620 18:25:53.781713 29651 net.cpp:165] Memory required for data: 67436544
I0620 18:25:53.781715 29651 layer_factory.hpp:77] Creating layer conv2_2
I0620 18:25:53.781720 29651 net.cpp:106] Creating Layer conv2_2
I0620 18:25:53.781723 29651 net.cpp:454] conv2_2 <- conv2_1
I0620 18:25:53.781726 29651 net.cpp:411] conv2_2 -> conv2_2
I0620 18:25:53.782989 29651 net.cpp:150] Setting up conv2_2
I0620 18:25:53.782999 29651 net.cpp:157] Top shape: 1 128 112 112 (1605632)
I0620 18:25:53.783000 29651 net.cpp:165] Memory required for data: 73859072
I0620 18:25:53.783005 29651 layer_factory.hpp:77] Creating layer relu2_2
I0620 18:25:53.783010 29651 net.cpp:106] Creating Layer relu2_2
I0620 18:25:53.783011 29651 net.cpp:454] relu2_2 <- conv2_2
I0620 18:25:53.783015 29651 net.cpp:397] relu2_2 -> conv2_2 (in-place)
I0620 18:25:53.783143 29651 net.cpp:150] Setting up relu2_2
I0620 18:25:53.783149 29651 net.cpp:157] Top shape: 1 128 112 112 (1605632)
I0620 18:25:53.783150 29651 net.cpp:165] Memory required for data: 80281600
I0620 18:25:53.783154 29651 layer_factory.hpp:77] Creating layer pool2
I0620 18:25:53.783156 29651 net.cpp:106] Creating Layer pool2
I0620 18:25:53.783159 29651 net.cpp:454] pool2 <- conv2_2
I0620 18:25:53.783161 29651 net.cpp:411] pool2 -> pool2
I0620 18:25:53.783202 29651 net.cpp:150] Setting up pool2
I0620 18:25:53.783207 29651 net.cpp:157] Top shape: 1 128 56 56 (401408)
I0620 18:25:53.783210 29651 net.cpp:165] Memory required for data: 81887232
I0620 18:25:53.783211 29651 layer_factory.hpp:77] Creating layer conv3_1
I0620 18:25:53.783215 29651 net.cpp:106] Creating Layer conv3_1
I0620 18:25:53.783216 29651 net.cpp:454] conv3_1 <- pool2
I0620 18:25:53.783232 29651 net.cpp:411] conv3_1 -> conv3_1
I0620 18:25:53.784581 29651 net.cpp:150] Setting up conv3_1
I0620 18:25:53.784590 29651 net.cpp:157] Top shape: 1 256 56 56 (802816)
I0620 18:25:53.784592 29651 net.cpp:165] Memory required for data: 85098496
I0620 18:25:53.784598 29651 layer_factory.hpp:77] Creating layer relu3_1
I0620 18:25:53.784602 29651 net.cpp:106] Creating Layer relu3_1
I0620 18:25:53.784605 29651 net.cpp:454] relu3_1 <- conv3_1
I0620 18:25:53.784607 29651 net.cpp:397] relu3_1 -> conv3_1 (in-place)
I0620 18:25:53.784709 29651 net.cpp:150] Setting up relu3_1
I0620 18:25:53.784714 29651 net.cpp:157] Top shape: 1 256 56 56 (802816)
I0620 18:25:53.784716 29651 net.cpp:165] Memory required for data: 88309760
I0620 18:25:53.784718 29651 layer_factory.hpp:77] Creating layer conv3_2
I0620 18:25:53.784723 29651 net.cpp:106] Creating Layer conv3_2
I0620 18:25:53.784725 29651 net.cpp:454] conv3_2 <- conv3_1
I0620 18:25:53.784728 29651 net.cpp:411] conv3_2 -> conv3_2
I0620 18:25:53.786649 29651 net.cpp:150] Setting up conv3_2
I0620 18:25:53.786658 29651 net.cpp:157] Top shape: 1 256 56 56 (802816)
I0620 18:25:53.786660 29651 net.cpp:165] Memory required for data: 91521024
I0620 18:25:53.786664 29651 layer_factory.hpp:77] Creating layer relu3_2
I0620 18:25:53.786669 29651 net.cpp:106] Creating Layer relu3_2
I0620 18:25:53.786671 29651 net.cpp:454] relu3_2 <- conv3_2
I0620 18:25:53.786674 29651 net.cpp:397] relu3_2 -> conv3_2 (in-place)
I0620 18:25:53.786778 29651 net.cpp:150] Setting up relu3_2
I0620 18:25:53.786784 29651 net.cpp:157] Top shape: 1 256 56 56 (802816)
I0620 18:25:53.786787 29651 net.cpp:165] Memory required for data: 94732288
I0620 18:25:53.786788 29651 layer_factory.hpp:77] Creating layer conv3_3
I0620 18:25:53.786793 29651 net.cpp:106] Creating Layer conv3_3
I0620 18:25:53.786795 29651 net.cpp:454] conv3_3 <- conv3_2
I0620 18:25:53.786798 29651 net.cpp:411] conv3_3 -> conv3_3
I0620 18:25:53.788782 29651 net.cpp:150] Setting up conv3_3
I0620 18:25:53.788810 29651 net.cpp:157] Top shape: 1 256 56 56 (802816)
I0620 18:25:53.788812 29651 net.cpp:165] Memory required for data: 97943552
I0620 18:25:53.788818 29651 layer_factory.hpp:77] Creating layer relu3_3
I0620 18:25:53.788825 29651 net.cpp:106] Creating Layer relu3_3
I0620 18:25:53.788830 29651 net.cpp:454] relu3_3 <- conv3_3
I0620 18:25:53.788836 29651 net.cpp:397] relu3_3 -> conv3_3 (in-place)
I0620 18:25:53.788957 29651 net.cpp:150] Setting up relu3_3
I0620 18:25:53.788962 29651 net.cpp:157] Top shape: 1 256 56 56 (802816)
I0620 18:25:53.788980 29651 net.cpp:165] Memory required for data: 101154816
I0620 18:25:53.788981 29651 layer_factory.hpp:77] Creating layer pool3
I0620 18:25:53.788987 29651 net.cpp:106] Creating Layer pool3
I0620 18:25:53.788990 29651 net.cpp:454] pool3 <- conv3_3
I0620 18:25:53.788996 29651 net.cpp:411] pool3 -> pool3
I0620 18:25:53.789027 29651 net.cpp:150] Setting up pool3
I0620 18:25:53.789032 29651 net.cpp:157] Top shape: 1 256 28 28 (200704)
I0620 18:25:53.789034 29651 net.cpp:165] Memory required for data: 101957632
I0620 18:25:53.789037 29651 layer_factory.hpp:77] Creating layer conv4_1
I0620 18:25:53.789046 29651 net.cpp:106] Creating Layer conv4_1
I0620 18:25:53.789048 29651 net.cpp:454] conv4_1 <- pool3
I0620 18:25:53.789052 29651 net.cpp:411] conv4_1 -> conv4_1
I0620 18:25:53.792498 29651 net.cpp:150] Setting up conv4_1
I0620 18:25:53.792531 29651 net.cpp:157] Top shape: 1 512 28 28 (401408)
I0620 18:25:53.792533 29651 net.cpp:165] Memory required for data: 103563264
I0620 18:25:53.792543 29651 layer_factory.hpp:77] Creating layer relu4_1
I0620 18:25:53.792554 29651 net.cpp:106] Creating Layer relu4_1
I0620 18:25:53.792559 29651 net.cpp:454] relu4_1 <- conv4_1
I0620 18:25:53.792565 29651 net.cpp:397] relu4_1 -> conv4_1 (in-place)
I0620 18:25:53.792697 29651 net.cpp:150] Setting up relu4_1
I0620 18:25:53.792704 29651 net.cpp:157] Top shape: 1 512 28 28 (401408)
I0620 18:25:53.792708 29651 net.cpp:165] Memory required for data: 105168896
I0620 18:25:53.792712 29651 layer_factory.hpp:77] Creating layer conv4_2
I0620 18:25:53.792721 29651 net.cpp:106] Creating Layer conv4_2
I0620 18:25:53.792726 29651 net.cpp:454] conv4_2 <- conv4_1
I0620 18:25:53.792731 29651 net.cpp:411] conv4_2 -> conv4_2
I0620 18:25:53.797395 29651 net.cpp:150] Setting up conv4_2
I0620 18:25:53.797415 29651 net.cpp:157] Top shape: 1 512 28 28 (401408)
I0620 18:25:53.797420 29651 net.cpp:165] Memory required for data: 106774528
I0620 18:25:53.797433 29651 layer_factory.hpp:77] Creating layer relu4_2
I0620 18:25:53.797443 29651 net.cpp:106] Creating Layer relu4_2
I0620 18:25:53.797449 29651 net.cpp:454] relu4_2 <- conv4_2
I0620 18:25:53.797456 29651 net.cpp:397] relu4_2 -> conv4_2 (in-place)
I0620 18:25:53.798044 29651 net.cpp:150] Setting up relu4_2
I0620 18:25:53.798054 29651 net.cpp:157] Top shape: 1 512 28 28 (401408)
I0620 18:25:53.798059 29651 net.cpp:165] Memory required for data: 108380160
I0620 18:25:53.798064 29651 layer_factory.hpp:77] Creating layer conv4_3
I0620 18:25:53.798074 29651 net.cpp:106] Creating Layer conv4_3
I0620 18:25:53.798079 29651 net.cpp:454] conv4_3 <- conv4_2
I0620 18:25:53.798084 29651 net.cpp:411] conv4_3 -> conv4_3
I0620 18:25:53.802233 29651 net.cpp:150] Setting up conv4_3
I0620 18:25:53.802254 29651 net.cpp:157] Top shape: 1 512 28 28 (401408)
I0620 18:25:53.802259 29651 net.cpp:165] Memory required for data: 109985792
I0620 18:25:53.802289 29651 layer_factory.hpp:77] Creating layer relu4_3
I0620 18:25:53.802299 29651 net.cpp:106] Creating Layer relu4_3
I0620 18:25:53.802304 29651 net.cpp:454] relu4_3 <- conv4_3
I0620 18:25:53.802309 29651 net.cpp:397] relu4_3 -> conv4_3 (in-place)
I0620 18:25:53.802435 29651 net.cpp:150] Setting up relu4_3
I0620 18:25:53.802443 29651 net.cpp:157] Top shape: 1 512 28 28 (401408)
I0620 18:25:53.802448 29651 net.cpp:165] Memory required for data: 111591424
I0620 18:25:53.802453 29651 layer_factory.hpp:77] Creating layer pool4
I0620 18:25:53.802459 29651 net.cpp:106] Creating Layer pool4
I0620 18:25:53.802464 29651 net.cpp:454] pool4 <- conv4_3
I0620 18:25:53.802469 29651 net.cpp:411] pool4 -> pool4
I0620 18:25:53.802502 29651 net.cpp:150] Setting up pool4
I0620 18:25:53.802508 29651 net.cpp:157] Top shape: 1 512 14 14 (100352)
I0620 18:25:53.802511 29651 net.cpp:165] Memory required for data: 111992832
I0620 18:25:53.802515 29651 layer_factory.hpp:77] Creating layer conv5_1
I0620 18:25:53.802523 29651 net.cpp:106] Creating Layer conv5_1
I0620 18:25:53.802526 29651 net.cpp:454] conv5_1 <- pool4
I0620 18:25:53.802531 29651 net.cpp:411] conv5_1 -> conv5_1
I0620 18:25:53.807765 29651 net.cpp:150] Setting up conv5_1
I0620 18:25:53.807785 29651 net.cpp:157] Top shape: 1 512 14 14 (100352)
I0620 18:25:53.807788 29651 net.cpp:165] Memory required for data: 112394240
I0620 18:25:53.807796 29651 layer_factory.hpp:77] Creating layer relu5_1
I0620 18:25:53.807802 29651 net.cpp:106] Creating Layer relu5_1
I0620 18:25:53.807806 29651 net.cpp:454] relu5_1 <- conv5_1
I0620 18:25:53.807811 29651 net.cpp:397] relu5_1 -> conv5_1 (in-place)
I0620 18:25:53.807957 29651 net.cpp:150] Setting up relu5_1
I0620 18:25:53.807963 29651 net.cpp:157] Top shape: 1 512 14 14 (100352)
I0620 18:25:53.807966 29651 net.cpp:165] Memory required for data: 112795648
I0620 18:25:53.807968 29651 layer_factory.hpp:77] Creating layer conv5_2
I0620 18:25:53.807974 29651 net.cpp:106] Creating Layer conv5_2
I0620 18:25:53.807992 29651 net.cpp:454] conv5_2 <- conv5_1
I0620 18:25:53.807997 29651 net.cpp:411] conv5_2 -> conv5_2
I0620 18:25:53.811799 29651 net.cpp:150] Setting up conv5_2
I0620 18:25:53.811815 29651 net.cpp:157] Top shape: 1 512 14 14 (100352)
I0620 18:25:53.811818 29651 net.cpp:165] Memory required for data: 113197056
I0620 18:25:53.811827 29651 layer_factory.hpp:77] Creating layer relu5_2
I0620 18:25:53.811851 29651 net.cpp:106] Creating Layer relu5_2
I0620 18:25:53.811856 29651 net.cpp:454] relu5_2 <- conv5_2
I0620 18:25:53.811861 29651 net.cpp:397] relu5_2 -> conv5_2 (in-place)
I0620 18:25:53.811982 29651 net.cpp:150] Setting up relu5_2
I0620 18:25:53.811988 29651 net.cpp:157] Top shape: 1 512 14 14 (100352)
I0620 18:25:53.811992 29651 net.cpp:165] Memory required for data: 113598464
I0620 18:25:53.812011 29651 layer_factory.hpp:77] Creating layer conv5_3
I0620 18:25:53.812018 29651 net.cpp:106] Creating Layer conv5_3
I0620 18:25:53.812021 29651 net.cpp:454] conv5_3 <- conv5_2
I0620 18:25:53.812026 29651 net.cpp:411] conv5_3 -> conv5_3
I0620 18:25:53.816177 29651 net.cpp:150] Setting up conv5_3
I0620 18:25:53.816195 29651 net.cpp:157] Top shape: 1 512 14 14 (100352)
I0620 18:25:53.816198 29651 net.cpp:165] Memory required for data: 113999872
I0620 18:25:53.816222 29651 layer_factory.hpp:77] Creating layer relu5_3
I0620 18:25:53.816232 29651 net.cpp:106] Creating Layer relu5_3
I0620 18:25:53.816236 29651 net.cpp:454] relu5_3 <- conv5_3
I0620 18:25:53.816242 29651 net.cpp:397] relu5_3 -> conv5_3 (in-place)
I0620 18:25:53.816365 29651 net.cpp:150] Setting up relu5_3
I0620 18:25:53.816370 29651 net.cpp:157] Top shape: 1 512 14 14 (100352)
I0620 18:25:53.816375 29651 net.cpp:165] Memory required for data: 114401280
I0620 18:25:53.816392 29651 layer_factory.hpp:77] Creating layer conv5_3_relu5_3_0_split
I0620 18:25:53.816397 29651 net.cpp:106] Creating Layer conv5_3_relu5_3_0_split
I0620 18:25:53.816401 29651 net.cpp:454] conv5_3_relu5_3_0_split <- conv5_3
I0620 18:25:53.816406 29651 net.cpp:411] conv5_3_relu5_3_0_split -> conv5_3_relu5_3_0_split_0
I0620 18:25:53.816412 29651 net.cpp:411] conv5_3_relu5_3_0_split -> conv5_3_relu5_3_0_split_1
I0620 18:25:53.816442 29651 net.cpp:150] Setting up conv5_3_relu5_3_0_split
I0620 18:25:53.816447 29651 net.cpp:157] Top shape: 1 512 14 14 (100352)
I0620 18:25:53.816463 29651 net.cpp:157] Top shape: 1 512 14 14 (100352)
I0620 18:25:53.816467 29651 net.cpp:165] Memory required for data: 115204096
I0620 18:25:53.816484 29651 layer_factory.hpp:77] Creating layer rpn_conv/3x3
I0620 18:25:53.816491 29651 net.cpp:106] Creating Layer rpn_conv/3x3
I0620 18:25:53.816495 29651 net.cpp:454] rpn_conv/3x3 <- conv5_3_relu5_3_0_split_0
I0620 18:25:53.816499 29651 net.cpp:411] rpn_conv/3x3 -> rpn/output
I0620 18:25:53.820648 29651 net.cpp:150] Setting up rpn_conv/3x3
I0620 18:25:53.820683 29651 net.cpp:157] Top shape: 1 512 14 14 (100352)
I0620 18:25:53.820685 29651 net.cpp:165] Memory required for data: 115605504
I0620 18:25:53.820693 29651 layer_factory.hpp:77] Creating layer rpn_relu/3x3
I0620 18:25:53.820705 29651 net.cpp:106] Creating Layer rpn_relu/3x3
I0620 18:25:53.820729 29651 net.cpp:454] rpn_relu/3x3 <- rpn/output
I0620 18:25:53.820739 29651 net.cpp:397] rpn_relu/3x3 -> rpn/output (in-place)
I0620 18:25:53.820870 29651 net.cpp:150] Setting up rpn_relu/3x3
I0620 18:25:53.820876 29651 net.cpp:157] Top shape: 1 512 14 14 (100352)
I0620 18:25:53.820894 29651 net.cpp:165] Memory required for data: 116006912
I0620 18:25:53.820895 29651 layer_factory.hpp:77] Creating layer rpn/output_rpn_relu/3x3_0_split
I0620 18:25:53.820900 29651 net.cpp:106] Creating Layer rpn/output_rpn_relu/3x3_0_split
I0620 18:25:53.820904 29651 net.cpp:454] rpn/output_rpn_relu/3x3_0_split <- rpn/output
I0620 18:25:53.820909 29651 net.cpp:411] rpn/output_rpn_relu/3x3_0_split -> rpn/output_rpn_relu/3x3_0_split_0
I0620 18:25:53.820916 29651 net.cpp:411] rpn/output_rpn_relu/3x3_0_split -> rpn/output_rpn_relu/3x3_0_split_1
I0620 18:25:53.820966 29651 net.cpp:150] Setting up rpn/output_rpn_relu/3x3_0_split
I0620 18:25:53.820969 29651 net.cpp:157] Top shape: 1 512 14 14 (100352)
I0620 18:25:53.820987 29651 net.cpp:157] Top shape: 1 512 14 14 (100352)
I0620 18:25:53.820988 29651 net.cpp:165] Memory required for data: 116809728
I0620 18:25:53.820991 29651 layer_factory.hpp:77] Creating layer rpn_cls_score
I0620 18:25:53.820996 29651 net.cpp:106] Creating Layer rpn_cls_score
I0620 18:25:53.820999 29651 net.cpp:454] rpn_cls_score <- rpn/output_rpn_relu/3x3_0_split_0
I0620 18:25:53.821002 29651 net.cpp:411] rpn_cls_score -> rpn_cls_score
I0620 18:25:53.822306 29651 net.cpp:150] Setting up rpn_cls_score
I0620 18:25:53.822315 29651 net.cpp:157] Top shape: 1 18 14 14 (3528)
I0620 18:25:53.822319 29651 net.cpp:165] Memory required for data: 116823840
I0620 18:25:53.822322 29651 layer_factory.hpp:77] Creating layer rpn_bbox_pred
I0620 18:25:53.822327 29651 net.cpp:106] Creating Layer rpn_bbox_pred
I0620 18:25:53.822330 29651 net.cpp:454] rpn_bbox_pred <- rpn/output_rpn_relu/3x3_0_split_1
I0620 18:25:53.822334 29651 net.cpp:411] rpn_bbox_pred -> rpn_bbox_pred
I0620 18:25:53.823175 29651 net.cpp:150] Setting up rpn_bbox_pred
I0620 18:25:53.823184 29651 net.cpp:157] Top shape: 1 36 14 14 (7056)
I0620 18:25:53.823185 29651 net.cpp:165] Memory required for data: 116852064
I0620 18:25:53.823189 29651 layer_factory.hpp:77] Creating layer rpn_cls_score_reshape
I0620 18:25:53.823195 29651 net.cpp:106] Creating Layer rpn_cls_score_reshape
I0620 18:25:53.823197 29651 net.cpp:454] rpn_cls_score_reshape <- rpn_cls_score
I0620 18:25:53.823200 29651 net.cpp:411] rpn_cls_score_reshape -> rpn_cls_score_reshape
I0620 18:25:53.823220 29651 net.cpp:150] Setting up rpn_cls_score_reshape
I0620 18:25:53.823225 29651 net.cpp:157] Top shape: 1 2 126 14 (3528)
I0620 18:25:53.823227 29651 net.cpp:165] Memory required for data: 116866176
I0620 18:25:53.823232 29651 layer_factory.hpp:77] Creating layer rpn_cls_prob
I0620 18:25:53.823237 29651 net.cpp:106] Creating Layer rpn_cls_prob
I0620 18:25:53.823241 29651 net.cpp:454] rpn_cls_prob <- rpn_cls_score_reshape
I0620 18:25:53.823246 29651 net.cpp:411] rpn_cls_prob -> rpn_cls_prob
I0620 18:25:53.823837 29651 net.cpp:150] Setting up rpn_cls_prob
I0620 18:25:53.823844 29651 net.cpp:157] Top shape: 1 2 126 14 (3528)
I0620 18:25:53.823849 29651 net.cpp:165] Memory required for data: 116880288
I0620 18:25:53.823851 29651 layer_factory.hpp:77] Creating layer rpn_cls_prob_reshape
I0620 18:25:53.823856 29651 net.cpp:106] Creating Layer rpn_cls_prob_reshape
I0620 18:25:53.823861 29651 net.cpp:454] rpn_cls_prob_reshape <- rpn_cls_prob
I0620 18:25:53.823866 29651 net.cpp:411] rpn_cls_prob_reshape -> rpn_cls_prob_reshape
I0620 18:25:53.823884 29651 net.cpp:150] Setting up rpn_cls_prob_reshape
I0620 18:25:53.823887 29651 net.cpp:157] Top shape: 1 18 14 14 (3528)
I0620 18:25:53.823889 29651 net.cpp:165] Memory required for data: 116894400
I0620 18:25:53.823891 29651 layer_factory.hpp:77] Creating layer proposal
I0620 18:25:53.824132 29651 net.cpp:106] Creating Layer proposal
I0620 18:25:53.824139 29651 net.cpp:454] proposal <- rpn_cls_prob_reshape
I0620 18:25:53.824142 29651 net.cpp:454] proposal <- rpn_bbox_pred
I0620 18:25:53.824146 29651 net.cpp:454] proposal <- im_info
I0620 18:25:53.824149 29651 net.cpp:411] proposal -> rois
I0620 18:25:53.824568 29651 net.cpp:150] Setting up proposal
I0620 18:25:53.824578 29651 net.cpp:157] Top shape: 1 5 (5)
I0620 18:25:53.824580 29651 net.cpp:165] Memory required for data: 116894420
I0620 18:25:53.824582 29651 layer_factory.hpp:77] Creating layer roi_pool5
I0620 18:25:53.824586 29651 net.cpp:106] Creating Layer roi_pool5
I0620 18:25:53.824589 29651 net.cpp:454] roi_pool5 <- conv5_3_relu5_3_0_split_1
I0620 18:25:53.824591 29651 net.cpp:454] roi_pool5 <- rois
I0620 18:25:53.824595 29651 net.cpp:411] roi_pool5 -> pool5
I0620 18:25:53.824599 29651 roi_pooling_layer.cpp:30] Spatial scale: 0.0625
I0620 18:25:53.824630 29651 net.cpp:150] Setting up roi_pool5
I0620 18:25:53.824635 29651 net.cpp:157] Top shape: 1 512 7 7 (25088)
I0620 18:25:53.824637 29651 net.cpp:165] Memory required for data: 116994772
I0620 18:25:53.824640 29651 layer_factory.hpp:77] Creating layer fc6
I0620 18:25:53.824643 29651 net.cpp:106] Creating Layer fc6
I0620 18:25:53.824646 29651 net.cpp:454] fc6 <- pool5
I0620 18:25:53.824648 29651 net.cpp:411] fc6 -> fc6
I0620 18:25:53.946718 29651 net.cpp:150] Setting up fc6
I0620 18:25:53.946755 29651 net.cpp:157] Top shape: 1 4096 (4096)
I0620 18:25:53.946758 29651 net.cpp:165] Memory required for data: 117011156
I0620 18:25:53.946768 29651 layer_factory.hpp:77] Creating layer relu6
I0620 18:25:53.946776 29651 net.cpp:106] Creating Layer relu6
I0620 18:25:53.946781 29651 net.cpp:454] relu6 <- fc6
I0620 18:25:53.946785 29651 net.cpp:397] relu6 -> fc6 (in-place)
I0620 18:25:53.946945 29651 net.cpp:150] Setting up relu6
I0620 18:25:53.946952 29651 net.cpp:157] Top shape: 1 4096 (4096)
I0620 18:25:53.946969 29651 net.cpp:165] Memory required for data: 117027540
I0620 18:25:53.946971 29651 layer_factory.hpp:77] Creating layer fc7
I0620 18:25:53.946975 29651 net.cpp:106] Creating Layer fc7
I0620 18:25:53.946979 29651 net.cpp:454] fc7 <- fc6
I0620 18:25:53.946985 29651 net.cpp:411] fc7 -> fc7
I0620 18:25:53.967514 29651 net.cpp:150] Setting up fc7
I0620 18:25:53.967535 29651 net.cpp:157] Top shape: 1 4096 (4096)
I0620 18:25:53.967537 29651 net.cpp:165] Memory required for data: 117043924
I0620 18:25:53.967545 29651 layer_factory.hpp:77] Creating layer relu7
I0620 18:25:53.967551 29651 net.cpp:106] Creating Layer relu7
I0620 18:25:53.967578 29651 net.cpp:454] relu7 <- fc7
I0620 18:25:53.967583 29651 net.cpp:397] relu7 -> fc7 (in-place)
I0620 18:25:53.967746 29651 net.cpp:150] Setting up relu7
I0620 18:25:53.967752 29651 net.cpp:157] Top shape: 1 4096 (4096)
I0620 18:25:53.967754 29651 net.cpp:165] Memory required for data: 117060308
I0620 18:25:53.967756 29651 layer_factory.hpp:77] Creating layer fc7_relu7_0_split
I0620 18:25:53.967761 29651 net.cpp:106] Creating Layer fc7_relu7_0_split
I0620 18:25:53.967762 29651 net.cpp:454] fc7_relu7_0_split <- fc7
I0620 18:25:53.967766 29651 net.cpp:411] fc7_relu7_0_split -> fc7_relu7_0_split_0
I0620 18:25:53.967769 29651 net.cpp:411] fc7_relu7_0_split -> fc7_relu7_0_split_1
I0620 18:25:53.967813 29651 net.cpp:150] Setting up fc7_relu7_0_split
I0620 18:25:53.967818 29651 net.cpp:157] Top shape: 1 4096 (4096)
I0620 18:25:53.967820 29651 net.cpp:157] Top shape: 1 4096 (4096)
I0620 18:25:53.967823 29651 net.cpp:165] Memory required for data: 117093076
I0620 18:25:53.967826 29651 layer_factory.hpp:77] Creating layer cls_score
I0620 18:25:53.967833 29651 net.cpp:106] Creating Layer cls_score
I0620 18:25:53.967835 29651 net.cpp:454] cls_score <- fc7_relu7_0_split_0
I0620 18:25:53.967839 29651 net.cpp:411] cls_score -> cls_score
I0620 18:25:53.967921 29651 net.cpp:150] Setting up cls_score
I0620 18:25:53.967926 29651 net.cpp:157] Top shape: 1 2 (2)
I0620 18:25:53.967928 29651 net.cpp:165] Memory required for data: 117093084
I0620 18:25:53.967932 29651 layer_factory.hpp:77] Creating layer bbox_pred
I0620 18:25:53.967936 29651 net.cpp:106] Creating Layer bbox_pred
I0620 18:25:53.967937 29651 net.cpp:454] bbox_pred <- fc7_relu7_0_split_1
I0620 18:25:53.967939 29651 net.cpp:411] bbox_pred -> bbox_pred
I0620 18:25:53.968060 29651 net.cpp:150] Setting up bbox_pred
I0620 18:25:53.968065 29651 net.cpp:157] Top shape: 1 8 (8)
I0620 18:25:53.968066 29651 net.cpp:165] Memory required for data: 117093116
I0620 18:25:53.968070 29651 layer_factory.hpp:77] Creating layer cls_prob
I0620 18:25:53.968073 29651 net.cpp:106] Creating Layer cls_prob
I0620 18:25:53.968075 29651 net.cpp:454] cls_prob <- cls_score
I0620 18:25:53.968077 29651 net.cpp:411] cls_prob -> cls_prob
I0620 18:25:53.968252 29651 net.cpp:150] Setting up cls_prob
I0620 18:25:53.968260 29651 net.cpp:157] Top shape: 1 2 (2)
I0620 18:25:53.968276 29651 net.cpp:165] Memory required for data: 117093124
I0620 18:25:53.968278 29651 net.cpp:228] cls_prob does not need backward computation.
I0620 18:25:53.968281 29651 net.cpp:228] bbox_pred does not need backward computation.
I0620 18:25:53.968282 29651 net.cpp:228] cls_score does not need backward computation.
I0620 18:25:53.968286 29651 net.cpp:228] fc7_relu7_0_split does not need backward computation.
…
